Existing_MARL-SimpleSpreadv3/dqn_models/final_agent_0.pt (torch, 156829 bytes, 6 tensors)

fc_layers.0.weight f4 [256, 18]
0	0x3d81243e	0.06305741
1	0xbd508de5	-0.05091657
2	0x3ceb29df	0.02870649
3	0x3d273558	0.040822357
4	0x3d059a0b	0.03261761
5	0x3d7416fe	0.05959224
6	0x3da9ddde	0.08294271
7	0xbf925a95	-1.1433893
8	0xbac7785d	-0.0015218366
9	0x3da11769	0.07865793
10	0xbd1b3bbf	-0.037898775
11	0xbe09408e	-0.13403532
12	0xbe0f3fd4	-0.13989192
13	0x3fa68b68	1.3011293
14	0x3e5dd3a1	0.21662761
15	0x3c442c9c	0.011973526
16	0xbd6df566	-0.05809536
17	0xbe25a473	-0.16176014
18	0xba33f556	-0.0006864866
19	0x3d6bacaf	0.05753773
20	0x3edd25e5	0.43192974
21	0x3d7665fc	0.060155854
22	0xbd8540eb	-0.06506523
23	0xbe3eb27b	-0.18622772
24	0xbed10e46	-0.40831202
25	0xbb160a7d	-0.0022894435
26	0xbe3afe39	-0.18261041
27	0xbe1d11d0	-0.15338826
28	0x3ee8e743	0.4548894
29	0x3e1405f2	0.14455393
30	0x3f29f4ed	0.6638935
31	0x3e8df766	0.27727813
32	0xbdd7031f	-0.10498642
33	0x3d6111be	0.05494856
34	0x3e676f10	0.2260096
35	0x3e021780	0.12704277
36	0x3a5e1a0e	0.00084725104
37	0xbc60826b	-0.013702969
38	0x3f3f4b57	0.74724334
39	0xbea78e96	-0.32725972
40	0xbecbcf65	-0.39806667
41	0xbd918fa3	-0.07107475
42	0x3dd8f321	0.10593248
43	0x3e4a7db7	0.19774519
44	0xbe8c5139	-0.27405718
45	0x3d59d4cc	0.053181455
46	0x3e20a57c	0.15688127
47	0x3d9ecadb	0.07753535
48	0x3e456f33	0.192807
49	0xbe44236c	-0.19154137
50	0x3e5acb65	0.21366651
51	0x3e06cf0a	0.13164917
52	0x3dff4bca	0.124656275
53	0x3e65e671	0.22451188
54	0x3c9572df	0.018243251
55	0x3d1704fb	0.036869984
56	0x3dddd309	0.108312674
57	0xbd796b69	-0.06089345
58	0xbd8f44f0	-0.06995571
59	0xbcd5d085	-0.026100406
60	0xbdd392f4	-0.103307635
61	0x3e28a94e	0.16470835
62	0x3d85bf5b	0.06530639
63	0x3d7a032c	0.06103818
64	0x3e0e6466	0.13905486
65	0xbe30990d	-0.17245884
66	0x3da81d35	0.08208696
67	0xbcb2ebbe	-0.021840926
68	0xbdf7c80f	-0.12098705
69	0xbe39acd8	-0.18132341
70	0xbd5b90d5	-0.05360492
71	0xbe1828c6	-0.14859304
72	0xbd446e9e	-0.047957055
73	0xbd36e21d	-0.044649232
74	0xbead86ae	-0.33891815
75	0xbcdecbb2	-0.027196739
76	0xbcffba4f	-0.031216769
77	0xbe88826b	-0.26662
78	0x3f3597ee	0.7093495
79	0x3f143128	0.57887506
80	0xbd94bfff	-0.07263183
81	0x3e14225b	0.1446623
82	0xbe8e3c95	-0.27780595
83	0xbeb1394d	-0.3461403
84	0xbe5470b5	-0.2074612
85	0xbcb98e1f	-0.022650776
86	0x3e241fdf	0.16027783
87	0x3e16ed3c	0.14738935
88	0xbe6a6daa	-0.22893396
89	0x3cf838cd	0.030300522
90	0xbdbaba13	-0.09117522
91	0xbe74e94e	-0.23917124
92	0xbe37b84a	-0.17941394
93	0xbe7e3114	-0.2482341
94	0x3e35c65e	0.17751452
95	0x3e60ab2f	0.21940301
96	0x3e6be71b	0.23037378
97	0x3ddff8fe	0.10936163
98	0xbe7ef908	-0.24899685
99	0x3d8f527f	0.06998157
100	0xbdc3b419	-0.09555835
101	0xbeb7289a	-0.35773164
102	0xbecff204	-0.4061433
103	0xbda6e76b	-0.08149608
104	0x3d5b0115	0.05346783
105	0x3cf83206	0.03029729
106	0x3e275cd8	0.16344011
107	0xbcdf7aa8	-0.027280167
108	0x3eaf9ce8	0.34299397
109	0xbd44eeaa	-0.04807917
110	0xbd03ed82	-0.032208927
111	0xbdca3623	-0.09873607
112	0xbe4b7ec6	-0.19872579
113	0xbe9f9138	-0.3116548
114	0x3dfc2f2b	0.12313684
115	0x3e61c9f0	0.2204969
116	0xbd30f064	-0.043198004
117	0xbe603017	-0.21893345
118	0xbe1d2b30	-0.15348506
119	0xbe82b07f	-0.2552528
120	0x3df7c4b7	0.12098067
121	0xbdd1241e	-0.10211967
122	0xbe36d74a	-0.17855564
123	0x3dae304a	0.08505304
124	0x3e21d59a	0.15804139
125	0xbb8ad2b7	-0.004236545
126	0x3e916d7e	0.28403848
127	0x3e4a0086	0.19726762
128	0xbc820f21	-0.015876355
129	0x3e0cbf86	0.13744935
130	0xbf1ae13f	-0.6049995
131	0x3bf73349	0.0075439555
132	0x3da70cb5	0.081567205
133	0x3cf8a035	0.03034983
134	0x3d46acc1	0.048504595
135	0x3d094158	0.033509582
136	0xbeca17c2	-0.3947125
137	0xbdad37c6	-0.084579036
138	0x3e07d8fc	0.13266367
139	0x3ae7425e	0.001764368
140	0x3d70b18d	0.058763076
141	0xbdd1e4b1	-0.102486975
142	0x3e30209b	0.17199938
143	0xbc5a2988	-0.013315566
144	0x3ceadc4c	0.028669499
145	0x3d971848	0.07377678
146	0xbd8ef865	-0.06980971
147	0xbe91d3de	-0.28481954
148	0x3eb25bb1	0.3483558
149	0xbc6c8b7a	-0.014437551
150	0x3b8e6e5e	0.004346653
151	0x3d7b53f9	0.06135938
152	0xbf299534	-0.6624329
153	0x3e558412	0.20851162
154	0x3bffc4a7	0.007805425
155	0xbe908ae3	-0.28230962
156	0xbe44aa72	-0.19205645
157	0xbe1950ab	-0.14972179
158	0x3e4aaff8	0.19793689
159	0xbd909864	-0.07060316
160	0x3c47c68f	0.012193336
161	0x3df9a021	0.12188745
162	0xbd442ac7	-0.04789236
163	0xbc544c47	-0.012957639
164	0x3e300990	0.17191148
165	0x3cac6408	0.021043792
166	0xbf55f26f	-0.8357305
167	0xbeeae572	-0.45878178
168	0x3ce2cbcb	0.027685067
169	0xbd5285c1	-0.05139709
170	0x3e4ab416	0.1979526
171	0x3d8e3c27	0.06945067
172	0x3f856087	1.0420083
173	0x3f15fa4b	0.5858504
174	0xbd82d199	-0.06387634
175	0x3cdb45e8	0.026766732
176	0xbde9c7e2	-0.11415078
177	0xbe209a8c	-0.15683955
178	0xbdc8bc75	-0.0980157
179	0xbddc1581	-0.10746289
180	0x3dcb5373	0.09928026
181	0xbd7d0f9b	-0.06178246
182	0xbdfae565	-0.12250785
183	0xbdcd47c7	-0.10023456
184	0xbe2a1620	-0.16610003
185	0x3ddf8aad	0.10915122
186	0xbe3d6d43	-0.18498711
187	0xbe5c4e49	-0.21514238
188	0x3f7aa73c	0.9791143
189	0x3ea9bb3a	0.33150655
190	0x3d541a3e	0.05178284
191	0xbe39c53b	-0.18141644
192	0xbf4bd5cd	-0.7962311
193	0xbeb57a2a	-0.35444766
194	0x3d448854	0.047981575
195	0xbc79a99d	-0.015238193
196	0x3deb6528	0.114939034
197	0x3e30049e	0.17189261
198	0xbee412e3	-0.4454566
199	0xbdbd4e7d	-0.09243486
200	0xbd0253df	-0.031818267
201	0x3e02cf36	0.12774357
202	0x3fbefd6a	1.4921086
203	0x3e82d2ca	0.25551444
204	0xbe1234b5	-0.14277919
205	0x3b07af71	0.0020703936
206	0xbdb17d5f	-0.08666491
207	0x3cff8433	0.031190967
208	0x3df82db9	0.12118096
209	0xbd1cb283	-0.03825618
210	0x3d9b6018	0.07586688
211	0x3daf16c7	0.08549266
212	0x3c93c09d	0.018036181
213	0x3e63aa17	0.22232853
214	0xbca78853	-0.020450747
215	0xbe6eee3b	-0.23333065
216	0x3d6cf6a0	0.057852387
217	0x3aac17a7	0.0013129608
218	0xbe3a4c0d	-0.18193074
219	0x3ec63c5e	0.38717932
220	0xbdd5c892	-0.104386464
221	0xbd1dfa75	-0.038568933
222	0x3dfc1493	0.12308612
223	0xbeafc055	-0.34326425
224	0x3e4694c8	0.19392693
225	0xbedede45	-0.43528953
226	0xbe868477	-0.26272938
227	0x3f05eb1a	0.5231186
228	0xbe1a9a0a	-0.15097824
229	0x3eeed9ad	0.46650448
230	0xbd9c05bd	-0.07618282
231	0x3c020b88	0.00793732
232	0xbe09e5a3	-0.13466506
233	0xbe6cc1ee	-0.23120853
234	0x3d4dcd44	0.050244585
235	0x3e413208	0.18866742
236	0xbe75a3b5	-0.2398823
237	0xbefa0820	-0.48834324
238	0xbe1cdd23	-0.15318732
239	0xbb2e7d2d	-0.0026624904
240	0x3ea4814f	0.32129905
241	0x3f084d46	0.5324291
242	0x3cf76c4f	0.030203013
243	0xbdef7bcb	-0.116935335
244	0x3e3e3df3	0.18578319
245	0xbeef0068	-0.46679997
246	0xbd368ca0	-0.044567704
247	0xbeff428b	-0.49855456
248	0xbd904d1d	-0.07045958
249	0xbe4b24da	-0.19838277
250	0x3e0731a1	0.13202526
251	0x3e587ef1	0.21142174
252	0xbd454740	-0.048163652
253	0x3d9d1ff0	0.07672107
254	0xbe80105d	-0.25012484
255	0x3f2e14bc	0.6800039

fc_layers.0.bias f4 [256]
0	0xbe3ff401	-0.18745424
1	0xbf9c713c	-1.2222056
2	0xbf66953d	-0.9007147
3	0xbf649fbf	-0.89306253
4	0xbf59531b	-0.84892434
5	0xbf83c25b	-1.0293688
6	0xbf8bfb9d	-1.0936161
7	0xbf52152a	-0.82063544
8	0xbf8e409c	-1.1113467
9	0xbe8ce522	-0.27518564
10	0xbe11ffcb	-0.14257734
11	0xbd6b5e61	-0.057463054
12	0xbf79886c	-0.9747379
13	0xbf5f7563	-0.8728849
14	0xbf5dd404	-0.86651635
15	0xbf8d34d3	-1.1031746
16	0xbf49275d	-0.7857569
17	0xbf826267	-1.018628
18	0xbf6bd0bb	-0.9211537
19	0xbf1e13d0	-0.6174898
20	0xbf73f9f8	-0.953033
21	0xbf0f2a75	-0.5592416
22	0xbe15c18e	-0.14624617
23	0xbf84a1e0	-1.03619
24	0xbf5a275b	-0.852163
25	0xbf6b4ac0	-0.91910934
26	0xbf73743e	-0.95099247
27	0xbf97b57b	-1.1852258
28	0xb8cfb428	-9.904086e-05
29	0xbe0dc550	-0.138448
30	0xbe1f0cb8	-0.15532196
31	0xbf6c2814	-0.92248654
32	0xbf77583d	-0.96619016
33	0xbe497a37	-0.19675528
34	0xbf4cbc4a	-0.79974806
35	0xbf8b52da	-1.0884659
36	0x3e3e5c6e	0.18589947
37	0xbe63fe3f	-0.22264956
38	0xbe8a1f6f	-0.26977107
39	0xbf5f0035	-0.8710969
40	0xbf8cd087	-1.1001137
41	0xbf876346	-1.0577171
42	0xbf87e28b	-1.061601
43	0xbebb013a	-0.36524373
44	0xbdc7f51b	-0.09763547
45	0xbf65c4e8	-0.8975358
46	0xbf59cc23	-0.8507711
47	0xbf75d07b	-0.9602124
48	0xbd829a70	-0.06377113
49	0xbf6c6272	-0.92337716
50	0xbf600518	-0.8750777
51	0xbf91ada0	-1.1381111
52	0xbe727c06	-0.23680124
53	0xbf7b452a	-0.9815241
54	0xbf80a003	-1.0048832
55	0xbf60a16d	-0.87746316
56	0xbf814a2f	-1.0100764
57	0xbf74cc6d	-0.9562443
58	0xbef6773c	-0.48137844
59	0xbf7a7022	-0.9782735
60	0xbe0bb011	-0.13641383
61	0xbf4c0f5a	-0.79710925
62	0xbf9b670d	-1.2140824
63	0x3de7bc43	0.11315205
64	0xbf99de86	-1.2021034
65	0xbf8c2e62	-1.0951655
66	0xbdbdf88d	-0.09275923
67	0xbf82ef97	-1.0229367
68	0xbdda35bd	-0.10654781
69	0xbf8d21eb	-1.1025976
70	0xbf5e8ec4	-0.86936593
71	0xbf8b98ad	-1.0905968
72	0xbf3ebf04	-0.74510217
73	0xbde3868e	-0.11109649
74	0x3b0240eb	0.001987512
75	0xbf80493d	-1.002235
76	0xbf621766	-0.88316953
77	0xbf9e35c1	-1.2360154
78	0xbf8efc94	-1.1170831
79	0xbf777620	-0.9666462
80	0xbfaa34a7	-1.3297318
81	0xbf5f4d9c	-0.872278
82	0x3cacdb50	0.02110067
83	0xbf72b814	-0.9481213
84	0xbf5e0f67	-0.8674225
85	0xbf66c273	-0.90140456
86	0xbf80cbca	-1.0062191
87	0xbf6528c9	-0.8951536
88	0xbf7bffca	-0.9843718
89	0xbf91154c	-1.1334624
90	0xbe97a7fa	-0.29620343
91	0xbf684591	-0.9073115
92	0xbf8d9f3d	-1.1064221
93	0xbfa05100	-1.2524719
94	0xbe7fd1c1	-0.24982359
95	0xbf79d06b	-0.97583646
96	0xbf3d264a	-0.7388655
97	0xbf9b41c9	-1.2129451
98	0xbf8bf220	-1.0933266
99	0xbf730047	-0.949223
100	0xbf80b17d	-1.0054165
101	0xbe885430	-0.2662673
102	0xbdbf843a	-0.09351392
103	0xbf7dc95f	-0.9913539
104	0xbe0bb1ce	-0.13642046
105	0xbf80d916	-1.0066249
106	0xbf6ac62b	-0.9170863
107	0xbdbfaead	-0.09359489
108	0xbf835af7	-1.0262135
109	0xbf169d63	-0.58833903
110	0xbe5e6bbb	-0.21720783
111	0xbf447870	-0.76746273
112	0xbf7afff0	-0.9804678
113	0xbf8309d8	-1.0237379
114	0xbdfdf6d1	-0.12400592
115	0xbf84e81e	-1.0383337
116	0xbf31ef40	-0.6950569
117	0xbf950c7b	-1.1644434
118	0xbec1f272	-0.37880284
119	0xbf8e34f1	-1.1109906
120	0xbde1a5ba	-0.11017938
121	0xbf1c58cd	-0.61073
122	0xbf67d79d	-0.90563375
123	0xbf706553	-0.9390461
124	0xbface34d	-1.3506867
125	0xbe83bbfe	-0.25729364
126	0xbf8fc87f	-1.1233062
127	0xbf2f3a60	-0.6844845
128	0xbf4d4d10	-0.80195713
129	0xbf6729b1	-0.9029799
130	0xbf63173a	-0.88707316
131	0xbd4b54b9	-0.049641345
132	0xbf655a95	-0.8959134
133	0xbf61b7fc	-0.8817136
134	0xbf9508df	-1.1643332
135	0xbf85e84c	-1.0461516
136	0xbe5bc738	-0.21462715
137	0xbf392182	-0.72316754
138	0xbe2dacde	-0.16960475
139	0xbf9952df	-1.1978415
140	0xbe6a21ce	-0.22864458
141	0xbd93885c	-0.07203743
142	0xbf40bba6	-0.7528633
143	0xbf359d08	-0.70942736
144	0xbf90447e	-1.1270902
145	0xbf787075	-0.97046596
146	0xbe0e442a	-0.1389319
147	0xbe87ef32	-0.2654968
148	0xbf7bf578	-0.9842143
149	0xbf85780c	-1.042726
150	0xbac1d3dd	-0.0014787872
151	0xbf623717	-0.8836531
152	0xbf7fd6a9	-0.9993692
153	0xbf384fb9	-0.7199665
154	0xbf6101cb	-0.8789336
155	0xbf71b30b	-0.9441382
156	0xbe411a7e	-0.18857762
157	0xbebe7faf	-0.3720679
158	0x3c9668e8	0.01836057
159	0xbf2af765	-0.66783744
160	0xbf9c4e51	-1.22114
161	0xbf7e7178	-0.9939189
162	0xbf91eb86	-1.1400001
163	0xbf6ad077	-0.9172434
164	0xbf888a5a	-1.0667222
165	0xbf8acaf3	-1.0843185
166	0xbf83145e	-1.024059
167	0xbf9561c0	-1.1670456
168	0xbf44d544	-0.7688792
169	0xbf9af386	-1.2105567
170	0xbd71a8a4	-0.05899872
171	0xbe9321a5	-0.28736606
172	0xbe19b627	-0.15010892
173	0xbf1456c6	-0.57944906
174	0xbf2714f5	-0.6526635
175	0xbf68b7bb	-0.9090535
176	0xbf830be7	-1.0238007
177	0xbf7c5f87	-0.98583263
178	0xbf7d1712	-0.9886333
179	0xbc51ceff	-0.012805699
180	0xbf9aa4f1	-1.2081586
181	0xbe1a8636	-0.1509026
182	0xbf83b9b6	-1.029105
183	0xbe8a22ea	-0.26979762
184	0xbf9c9c66	-1.2235229
185	0xbe5f4ace	-0.2180588
186	0xbe19e15f	-0.15027378
187	0xbf5a12fc	-0.8518522
188	0xbf5ab4c7	-0.85432094
189	0xbf589a31	-0.8461028
190	0xbf2fbc97	-0.6864714
191	0xbfa23e10	-1.267519
192	0xbf712462	-0.9419614
193	0xbe1183d1	-0.1421044
194	0xbe3e1466	-0.18562469
195	0xbf84f965	-1.0388609
196	0xbf947ce1	-1.160061
197	0xbf11d476	-0.56964815
198	0xbf4dbb55	-0.8036397
199	0xbd6370e2	-0.055527575
200	0xbeafce36	-0.34337014
201	0xbdc9a1c2	-0.09845306
202	0xbf7a7333	-0.9783203
203	0xbd59f83c	-0.05321525
204	0xbf77924c	-0.96707606
205	0xbf81dc95	-1.0145441
206	0xbf66c4fe	-0.90144336
207	0xbf8cb5de	-1.0993001
208	0xbf969fa0	-1.1767464
209	0xbf74fc14	-0.9569714
210	0xbef4ee12	-0.47837883
211	0xbd952def	-0.07284152
212	0xbe777bca	-0.24168316
213	0xbf7935a5	-0.9734748
214	0xbf7f4374	-0.997123
215	0xbf69f6b9	-0.91392094
216	0xbf832c26	-1.0247848
217	0xbf2fc807	-0.6866459
218	0xbf7581ca	-0.9590117
219	0xbf8573ee	-1.0426004
220	0xbf27236e	-0.65288436
221	0xbe813045	-0.2523214
222	0xbf93f56e	-1.1559274
223	0xbf6f4902	-0.93470776
224	0xbf69e635	-0.91366893
225	0xbf10f0ac	-0.56617236
226	0xbf5d68bc	-0.86487937
227	0xbf739a72	-0.9515754
228	0xbf9eb48d	-1.239885
229	0xbd29ed2c	-0.04148595
230	0xbf39940a	-0.72491515
231	0x3c4125b2	0.011788772
232	0xbf6c38a3	-0.9227392
233	0xbf375d58	-0.71626806
234	0xbf53c5d8	-0.8272376
235	0xbf89ca38	-1.0764837
236	0xbef549a6	-0.47907752
237	0xbeb6102e	-0.3555922
238	0xbf9a1499	-1.2037536
239	0xbf971e97	-1.180621
240	0x3d9077e3	0.070541166
241	0xbf7b5249	-0.9817243
242	0xbf7f844b	-0.9981124
243	0xbf71c0c2	-0.9443475
244	0xbf87b167	-1.0601014
245	0x3d77d5fc	0.060506806
246	0xbf929122	-1.1450541
247	0xbf7c65da	-0.98592913
248	0xbf8bd733	-1.0925049
249	0xbf5ffe22	-0.8749715
250	0xbf72c5cf	-0.9483308
251	0xbdd6b805	-0.10484318
252	0xbf7060bd	-0.9389761
253	0xbf5f97f9	-0.87341267
254	0xbf7f2836	-0.9967073
255	0xbddff1c8	-0.10934788

fc_layers.2.weight f4 [128, 256]
0	0x3d86fc08	0.0659104
1	0xbdaf1eab	-0.08550771
2	0xbea8cd74	-0.32969248
3	0x3d87abc3	0.06624558
4	0xbedec50a	-0.43509704
5	0xbe8a5957	-0.27021286
6	0x3e669c1d	0.2252049
7	0x3d141f7a	0.03616283
8	0xbe9f56ff	-0.3112106
9	0xbe74095a	-0.23831692
10	0xbe2577df	-0.16159008
11	0xbe23535a	-0.15949765
12	0x3da321df	0.07965445
13	0xbdd654c6	-0.10465388
14	0x3d1f6c09	0.03892139
15	0xbdab3c8f	-0.0836116
16	0xbe292fdc	-0.16522163
17	0xbe1d750d	-0.15376683
18	0xbd351dcd	-0.044217873
19	0xbf07214e	-0.52785194
20	0x3e4ca801	0.19985963
21	0xbe957b62	-0.29195696
22	0xbf07c164	-0.53029466
23	0x3e31c765	0.17361219
24	0xbe55fe31	-0.20897748
25	0xbd7996be	-0.060934775
26	0x3de33a11	0.1109506
27	0xbef2b3a3	-0.47402677
28	0x3bc4fb65	0.006011414
29	0xbdbdb3ab	-0.092627846
30	0xbe128fc8	-0.1431266
31	0xbe0f9625	-0.1402212
32	0x39ec63eb	0.00045087872
33	0xbe9e0c5d	-0.30868807
34	0xbe4704bf	-0.19435404
35	0x3de3e46f	0.111275546
36	0x3dfd8cea	0.12380393
37	0x3cd6f80b	0.026241323
38	0x3e540630	0.20705485
39	0xbf0d0dbf	-0.550991
40	0x3ebce0df	0.36890313
41	0xbeebba2a	-0.4604047
42	0xbe02a499	-0.12758102
43	0x3e379c4b	0.17930715
44	0x3d6d1250	0.057878792
45	0x3e609d52	0.21935013
46	0xbe5a0f8a	-0.2129499
47	0xbe9c1a2a	-0.30488712
48	0x3e1b2cfe	0.15153882
49	0xbee29dfb	-0.44261155
50	0xbee02550	-0.43778467
51	0xbe8972f6	-0.2684552
52	0xbe9339db	-0.28755078
53	0xbf0cfa69	-0.55069596
54	0x3d79c413	0.060978007
55	0xbc4a6749	-0.012353727
56	0xbeb75e6a	-0.3581422
57	0xbe0bd9e2	-0.13657334
58	0xbe4b8ad2	-0.19877174
59	0xbe8d85ee	-0.27641243
60	0xbe4f50f8	-0.20245731
61	0xbbf7cc85	-0.0075622224
62	0xbde80272	-0.113285914
63	0xbdf2b2aa	-0.11850484
64	0x3e393c71	0.18089463
65	0xbddfef96	-0.10934369
66	0xbe3b9c6d	-0.1832139
67	0xbe2558f9	-0.16147222
68	0xbeb24055	-0.34814706
69	0xbd3b7f42	-0.04577566
70	0x3d2da9d7	0.0423983
71	0xbe85ac86	-0.26108187
72	0xbe6fd462	-0.23420861
73	0x3d1afc2b	0.037838142
74	0xbdfc541d	-0.12320731
75	0xbe4a2abf	-0.19742869
76	0xbcdbeb4d	-0.026845599
77	0x3e8e9e35	0.27855077
78	0x3d3bd234	0.045854762
79	0xbdee75c2	-0.11643554
80	0xbe77dc22	-0.24205068
81	0x3d2bd125	0.041947503
82	0x3d5a30f1	0.05326933
83	0xbd29efe0	-0.04148853
84	0xbed2c55b	-0.41166195
85	0xbee54220	-0.44777012
86	0xbdee8abd	-0.11647556
87	0x3e32359d	0.17403264
88	0x3c0142c7	0.007889456
89	0x3e1349aa	0.1438357
90	0xbe88108f	-0.26575133
91	0xbf3b22a6	-0.73099744
92	0x3dd4aa51	0.10384048
93	0xbe9a6e2e	-0.30162185
94	0xbc50aea5	-0.012736951
95	0xbc3e4672	-0.011613475
96	0x3da33391	0.0796882
97	0xbe66c061	-0.22534324
98	0x3e0ed5b2	0.13948706
99	0x3f1353c1	0.57549673
100	0x3d5a03eb	0.053226393
101	0x3d326223	0.04355062
102	0xbe87756c	-0.26456773
103	0x3c889d14	0.016676463
104	0x3d8f053a	0.06983419
105	0x3e7a842e	0.24464485
106	0x3cc869ea	0.024464566
107	0xbe823abc	-0.25435436
108	0xbe2319db	-0.15927832
109	0xbe52e36d	-0.20594569
110	0xbe2530a1	-0.16131832
111	0x3d73c390	0.059512675
112	0x3d16cef3	0.036818456
113	0xbf106cd0	-0.56416035
114	0x3ce17a49	0.02752413
115	0xbe06f15f	-0.13178013
116	0x3ebb1f51	0.3654733
117	0xbe5de130	-0.21667933
118	0x3ceced78	0.028921828
119	0xbf0cb8fb	-0.5496976
120	0xbe829990	-0.25507784
121	0xbeb98313	-0.36232814
122	0xbe00ce5b	-0.12578718
123	0xbc9754cd	-0.018473053
124	0x3eb758be	0.35809892
125	0x3de668ef	0.11250483
126	0xbcf81abf	-0.030286191
127	0xbe99d916	-0.30048436
128	0xbe620aa3	-0.2207437
129	0x3b9f487a	0.004860935
130	0xb924c503	-0.00015713651
131	0x3e43087b	0.19046204
132	0xbc1a9244	-0.0094342865
133	0xbe223658	-0.15841043
134	0xbda17efd	-0.07885549
135	0xbe7cfdac	-0.24706143
136	0xbec83c1c	-0.3910836
137	0xbe940df4	-0.28916895
138	0xbe001035	-0.12506182
139	0x3ec9062d	0.39262524
140	0xbe6e3b99	-0.23264922
141	0xbea4f620	-0.32219028
142	0xbe2cca4a	-0.16874042
143	0xbe98a492	-0.29813057
144	0x3eb40062	0.35156542
145	0x3e2b615a	0.16736355
146	0xbf843b06	-1.0330513
147	0xbf58cb94	-0.84685636
148	0x3d55cc6a	0.052196898
149	0x3dc32537	0.095285825
150	0xbe71993f	-0.23593615
151	0xbc8e5946	-0.017376553
152	0xbe24944e	-0.16072199
153	0x3cfb7223	0.030694073
154	0xbde4ee34	-0.11178246
155	0xbe5031c1	-0.2033148
156	0xbe5bdf84	-0.21471983
157	0x3e64b8f2	0.22336176
158	0x3e40920e	0.18805715
159	0xbd893d14	-0.06701103
160	0xbe1af679	-0.15133084
161	0x3e169a8f	0.14707397
162	0x3d669182	0.05629111
163	0xbd8a1a89	-0.067433424
164	0x3d0951d7	0.033525314
165	0x3d7f4b1d	0.062327493
166	0x3d08c817	0.033393946
167	0xbf12fe66	-0.5741943
168	0xbeb169c8	-0.34651017
169	0xbcca3727	-0.024684502
170	0xbcde557a	-0.027140368
171	0xbe0c314e	-0.13690683
172	0xb77f82d3	-1.5229644e-05
173	0xbd8b8ca6	-0.06813936
174	0xbe845b76	-0.2585103
175	0xbd0d0825	-0.034431595
176	0x3d259448	0.040424615
177	0x3e096b33	0.134198
178	0x3e08cad4	0.13358623
179	0xbf7c0588	-0.9844594
180	0x3d646c19	0.055767152
181	0xbe9ac4c7	-0.30228254
182	0xbe9e974a	-0.309748
183	0xbca6eee5	-0.020377586
184	0xbf35f90c	-0.7108314
185	0xbde422e6	-0.11139469
186	0xbe2b055f	-0.16701268
187	0xbe803d83	-0.2504693
188	0xbd8a0853	-0.06739869
189	0xbf028e2b	-0.5099818
190	0x3e56efbb	0.20989887
191	0xbcd1a318	-0.025590464
192	0xbebd48fc	-0.36969745
193	0xbdafbe2b	-0.085811935
194	0xbe9ae72b	-0.30254492
195	0xbe6ed644	-0.23323923
196	0x3e25f0dd	0.16205163
197	0xbe0049d7	-0.12528168
198	0xbe5b8021	-0.21435596
199	0x3d16d652	0.036825486
200	0xbe835f50	-0.25658655
201	0xbf340605	-0.70321685
202	0xbebaa020	-0.3645029
203	0x3e146bd7	0.14494263
204	0xbf1eee21	-0.62082106
205	0xbe9214de	-0.28531545
206	0xbeac9fe7	-0.33715746
207	0xbe82aaf2	-0.25521046
208	0x3c5f53be	0.013630806
209	0x3e8b8159	0.27247122
210	0xbdb83979	-0.08995337
211	0xbe846057	-0.2585475
212	0xbe8c4edc	-0.27403915
213	0xbe9d73c8	-0.30752397
214	0xbd96add3	-0.07357373
215	0xbef34451	-0.4751306
216	0x3d1a7fe1	0.03771961
217	0xbe806163	-0.250743
218	0x3dc9d5d9	0.09855241
219	0x3ec04d33	0.37558898
220	0xbf0e5285	-0.55594665
221	0x3e73134b	0.23737828
222	0xbe5c035c	-0.21485656
223	0xbcd8be26	-0.026457857
224	0x3d922ae3	0.07137086
225	0xbd0cf3cc	-0.03441219
226	0xbdcd94e9	-0.10038168
227	0xbea4b347	-0.32168028
228	0x3d6dc52c	0.058049366
229	0xbe510c33	-0.2041481
230	0xbc3d48f7	-0.011553041
231	0xbe40c3f8	-0.18824756
232	0xbe275c36	-0.1634377
233	0xbe41189e	-0.18857047
234	0xbee95578	-0.4557302
235	0x3d0470ab	0.03233401
236	0x3df6a967	0.1204403
237	0xbeaefac5	-0.34175697
238	0xbd789cdb	-0.060696464
239	0x3e465c53	0.19371156
240	0x3e8310c7	0.25598738
241	0xbe3c365b	-0.1838011
242	0xbe492c34	-0.19645768
243	0x3da310b0	0.07962167
244	0x3e415458	0.18879831
245	0xbe4e3805	-0.20138557
246	0x3e22b539	0.15889443
247	0xbe26b834	-0.16281205
248	0xbe53dfc8	-0.20690835
249	0x3dbe76af	0.09299981
250	0xbed3b03a	-0.41345388
251	0xbf83d476	-1.0299213
252	0xbde2d5ea	-0.11075957
253	0xbcd2eb4d	-0.025746966
254	0xbec11e89	-0.3771861
255	0xbedfbd6f	-0.43699214

fc_layers.2.bias f4 [128]
0	0xbddde934	-0.108354956
1	0x3eae829f	0.3408403
2	0x3da6852e	0.08130871
3	0xbdba6c69	-0.09102709
4	0xbe087d16	-0.13328966
5	0x3e48f097	0.19623028
6	0xbefa472f	-0.48882434
7	0x3f25ea2d	0.6481045
8	0xbd0b4197	-0.0339981
9	0x3d5798c7	0.052635934
10	0xbddc6a25	-0.10762433
11	0xbd285a12	-0.041101523
12	0x3b02a2b6	0.001993341
13	0xbe3ff4cb	-0.18745725
14	0x3d026116	0.03183087
15	0xbed89575	-0.42301527
16	0x3ebea4f9	0.3723524
17	0xbe0863c6	-0.1331931
18	0xbe2572c5	-0.16157062
19	0xbf09071e	-0.53526485
20	0xbe0692f3	-0.13141994
21	0x3e5978af	0.21237443
22	0xbb092234	-0.0020924928
23	0xbdcf2295	-0.10114018
24	0xbd3ab294	-0.04558046
25	0xbdb421e9	-0.0879553
26	0x3ee8279c	0.4534272
27	0x3d874ada	0.06606074
28	0xbeaea53e	-0.34110445
29	0x3f47305a	0.77808154
30	0x3e519c42	0.20469764
31	0xbcd47b76	-0.025937777
32	0xbea91310	-0.33022356
33	0x3f5b2f7f	0.8561935
34	0xbcbf5d04	-0.023359783
35	0xbd8be094	-0.06829944
36	0x3f801fb0	1.000967
37	0xbd18c8b2	-0.037300773
38	0x3fa057b7	1.2526768
39	0x3e9af34c	0.30263746
40	0xbf43c9a5	-0.7647956
41	0xbddc8e6b	-0.107693516
42	0xbe9e9fdd	-0.3098134
43	0xbce4ab8c	-0.027913831
44	0xbde1930d	-0.11014376
45	0x3f19bec5	0.60056716
46	0x3e496f0a	0.19671264
47	0xbe3d9048	-0.1851207
48	0xbf044b72	-0.5167762
49	0xbcc59418	-0.024118468
50	0xbdaf5811	-0.08561719
51	0x3e4cbf47	0.19994842
52	0x3ea60b20	0.32430363
53	0xbe0373a2	-0.12837079
54	0xbca5de1f	-0.020247517
55	0xbed0dbdd	-0.40792742
56	0x3f9b90d5	1.2153574
57	0x3e1e5844	0.15463358
58	0xbeb1b5a3	-0.3470889
59	0xbdcd4ee6	-0.10024814
60	0xbc80f6b0	-0.01574263
61	0xbf1f9f3e	-0.6235236
62	0x3faf931a	1.3716767
63	0x3e3cbe66	0.18432006
64	0xbe0f92dc	-0.14020866
65	0x3f2c9585	0.6741565
66	0xbf2d335b	-0.6765649
67	0xbdfedbe6	-0.12444286
68	0x3eb13eb8	0.34618163
69	0xbda9d07d	-0.08291719
70	0xbdfabeb9	-0.12243409
71	0xbebc2734	-0.3674866
72	0xbccf7494	-0.025324143
73	0x3ce7dd50	0.028303772
74	0x3e65e5de	0.22450969
75	0x3f26cbe0	0.6515484
76	0xbdf2d629	-0.11857254
77	0x3f2c206e	0.67236984
78	0xbe8eb250	-0.27870417
79	0xbecfeb9a	-0.40609437
80	0xbe2f1b2e	-0.17100212
81	0xbde094f4	-0.109659106
82	0xbe079341	-0.13239767
83	0x3f1d6d5e	0.61495006
84	0x3e1dacec	0.15397996
85	0xbd4866c1	-0.04892612
86	0xbf08c423	-0.5342428
87	0x3e56c94b	0.20975225
88	0x3e91962c	0.28434885
89	0xbe3f0521	-0.186543
90	0x3e3a2db2	0.18181494
91	0xbdc944e8	-0.09827596
92	0x3e333491	0.17500521
93	0xbdf46e7e	-0.11935137
94	0xbda14f6b	-0.07876476
95	0xbcc46cb4	-0.023977615
96	0xbf4cba69	-0.7997194
97	0xbd3ac391	-0.045596663
98	0xbd8162ad	-0.06317649
99	0x3e8a153b	0.26969323
100	0xbe0d97fc	-0.13827509
101	0xbd8fa16d	-0.070132114
102	0xbb4a7798	-0.0030894037
103	0xbdd1d2eb	-0.102453075
104	0xbdad96d5	-0.084760346
105	0xbca8b7fb	-0.020595541
106	0x3f32101d	0.69555837
107	0x3f324c90	0.69648075
108	0x3f420861	0.75794035
109	0x3e70a65b	0.2350096
110	0xbe80997a	-0.25117093
111	0x3d87e647	0.06635719
112	0xbf149a1e	-0.58047664
113	0x3fae01c1	1.3594285
114	0x3eb8f557	0.3612468
115	0x3d61e80b	0.055152934
116	0xbf0d1146	-0.5510448
117	0x3cc014de	0.02344745
118	0x3d7e9e5d	0.062162746
119	0xbe1b8506	-0.15187463
120	0xbd4968cc	-0.049172208
121	0xbda1633b	-0.07880255
122	0xbd8b241d	-0.067939974
123	0xbf1ec18e	-0.6201409
124	0xbf2bb234	-0.6706879
125	0x3ed2764f	0.41105887
126	0xbda741a6	-0.08166818
127	0xbd186465	-0.03720512

fc_layers.4.weight f4 [5, 128]
0	0xbe27ac94	-0.16374427
1	0x3dd84b7c	0.105612725
2	0x3e286071	0.1644304
3	0xbc19df62	-0.0093916375
4	0x3a91f076	0.0011134285
5	0xbd81c923	-0.06337192
6	0xbe817ebd	-0.25292006
7	0xbe0e3abf	-0.13889597
8	0x3d1ce537	0.038304534
9	0x3ea96f8f	0.33092925
10	0x3d6ec776	0.05829569
11	0x3d39344e	0.045215897
12	0xbe46ed50	-0.19426465
13	0x3e38c248	0.18042862
14	0x3ec2e437	0.3806474
15	0x3e97a4ca	0.29617912
16	0xbd2e9e75	-0.042631585
17	0xbe3afe49	-0.18261065
18	0x3d8b86df	0.06812834
19	0x3ee1fc6a	0.4413789
20	0x3e4db6ed	0.20089312
21	0xbe21365f	-0.15743397
22	0x3d8eee4b	0.069790445
23	0x3d818208	0.063236296
24	0x3c91b73e	0.017787572
25	0xbb78ded7	-0.003797462
26	0xbe92b0e7	-0.2865059
27	0xbe0a4270	-0.13501906
28	0xbe5e2e1c	-0.21697277
29	0xbe2384b6	-0.15968594
30	0xbd988c64	-0.074486524
31	0x3d1b78a7	0.03795686
32	0x3d817f06	0.06323056
33	0xbe7cf0e6	-0.2470127
34	0xbb0cc512	-0.0021479768
35	0xbdbd4be1	-0.092429884
36	0xbe9e3143	-0.3089696
37	0xbcee73a9	-0.029107885
38	0xbe34f5c1	-0.17671873
39	0xbcfdb527	-0.03097017
40	0x3ece3836	0.4027726
41	0xbd07acb8	-0.0331237
42	0x3ec41f69	0.38305214
43	0x3cd66222	0.02616984
44	0x3ddb16cf	0.1069771
45	0xbdf29c5a	-0.11846228
46	0x3db29e55	0.08721606
47	0xbe5996eb	-0.21248977
48	0x3e42a219	0.19007148
49	0x3ce063ae	0.027391281
50	0xbdea1b32	-0.11430968
51	0xbd06e749	-0.032935414
52	0xbd3d685f	-0.046242114
53	0xbe04c50e	-0.12965795
54	0x3d41895e	0.047250144
55	0x3d6b64e6	0.05746927
56	0xbe8c7854	-0.27435553
57	0x3d1292f3	0.035784673
58	0xbe6ce9a6	-0.23136005
59	0x3dda2aca	0.106526926
60	0xbcc1311e	-0.023582991
61	0x3e4f4b2e	0.20243523
62	0xbe7d1f02	-0.2471886
63	0xbcced23c	-0.025246732
64	0x3e931d55	0.28733316
65	0xbe2387c7	-0.15969764
66	0x3e8a6d3f	0.27036473
67	0xbe14cab1	-0.14530446
68	0xbe00da24	-0.12583214
69	0xbd240afa	-0.04004953
70	0xbc18e0f7	-0.00933098
71	0x3e995416	0.29946965
72	0x3cc77e62	0.024352256
73	0x3d1fb666	0.038992308
74	0xbdb08f9c	-0.08621141
75	0xbe587de0	-0.21141768
76	0x3b908f68	0.0044116266
77	0xbd96184d	-0.07328854
78	0xbac507ef	-0.0015032272
79	0x3e0094aa	0.12556711
80	0x3bdfe4fc	0.006832717
81	0x3e07d976	0.13266549
82	0xbe8fa921	-0.28058723
83	0xbde0197f	-0.10942363
84	0xbdc7aa63	-0.097492956
85	0xbb1effe3	-0.0024261407
86	0x3eba6919	0.36408308
87	0xbdc70eea	-0.097196415
88	0xbe2be4d1	-0.16786505
89	0xbe972f73	-0.29528388
90	0xbcba1e14	-0.02271942
91	0xbb8d6ec2	-0.004316182
92	0xbdbfa864	-0.0935829
93	0xbd88939b	-0.066687785
94	0xbced553f	-0.028971313
95	0x3d3f7ae9	0.046748076
96	0x3eef60e4	0.4675361
97	0x3cefdad5	0.029279152
98	0x3bbbe85f	0.005734488
99	0xbdecbf58	-0.115599334
100	0x3e40f284	0.18842512
101	0xbbbffbe0	-0.0058588833
102	0x3ed39945	0.41327873
103	0x3d1fb3e8	0.03898993
104	0xbdd8c684	-0.10584739
105	0xbc3c7ea5	-0.011504804
106	0xbe32c4c6	-0.17457876
107	0xbe2989d2	-0.1655648
108	0xbe6e23dd	-0.23255868
109	0xbdb1df4b	-0.08685168
110	0xbd89a5d3	-0.067210816
111	0x3c2e13ad	0.010624808
112	0x3eb850f9	0.35999277
113	0xbe85f471	-0.26163056
114	0xbe10cd1d	-0.14140745
115	0xba5e9cf0	-0.00084920134
116	0x3e8e57d3	0.2780138
117	0xbc38319e	-0.011242298
118	0x3d1fe1b5	0.03903361
119	0x3cfc21d5	0.030777851
120	0x3e1206aa	0.14260355
121	0xbd72aed9	-0.05924878
122	0xbc8924b9	-0.016741144
123	0x3dc68114	0.096925884
124	0x3e625491	0.22102572
125	0xbeb039fe	-0.34419245
126	0xbe748ebb	-0.23882572
127	0xbd456dce	-0.04820042
128	0xbb44dd93	-0.0030039295
129	0xbed6ca99	-0.41951445
130	0xbdc098be	-0.09404133
131	0x3ca61170	0.020271987
132	0x3d71877a	0.05896709
133	0x3e00f4dd	0.12593408
134	0xbe397576	-0.18111214
135	0xbe1cde2d	-0.15319128
136	0x3d65ab70	0.0560717
137	0x3da4651b	0.08027097
138	0xbbfb112f	-0.0076619606
139	0xbdcadd0e	-0.09905444
140	0x3c15c163	0.009140345
141	0xbd9cb68b	-0.07652005
142	0x3eaebb12	0.34127098
143	0x3edf4495	0.4360701
144	0x3ce5293b	0.027973762
145	0xbd14d337	-0.036334243
146	0xbd10f76a	-0.035392202
147	0x3ee2a81d	0.44268885
148	0x3d649105	0.055802364
149	0xbe474912	-0.19461468
150	0x3d955c91	0.07293046
151	0xbc64b0d2	-0.013958173
152	0x3ca64c52	0.020300064
153	0x3ddc3fc2	0.10754348
154	0xbe79766e	-0.24361584
155	0xbd191eeb	-0.037383
156	0xbde90bc2	-0.11379196
157	0xbe2250b9	-0.15851106
158	0x3d5af2db	0.05345426
159	0x3cc92b4f	0.024556784
160	0x3dbd8f31	0.09255827
161	0xbe61a134	-0.2203415
162	0xbd896cef	-0.067102306
163	0xbd0653e8	-0.032794863
164	0xbe9e8972	-0.30964237
165	0x3e1820d7	0.14856277
166	0xbebde862	-0.37091357
167	0x3e0cdf05	0.1375695
168	0x3ea7f84f	0.32806632
169	0x3d0d7c8a	0.034542598
170	0x3ecfa4e6	0.40555495
171	0x3d6577b4	0.05602236
172	0x3e3d63df	0.18495129
173	0xbe1754ac	-0.14778394
174	0x3c72ce77	0.014819733
175	0x3d013043	0.031540167
176	0x3e892d01	0.26792148
177	0xbada1446	-0.0016638122
178	0xbe504b18	-0.20341146
179	0xbdbaacce	-0.09114991
180	0xbe3ab385	-0.18232544
181	0x3d0b00c1	0.033936266
182	0xbd726944	-0.05918242
183	0x3e16d25c	0.14728683
184	0xbeaeb7b0	-0.34124517
185	0xbd802032	-0.06256141
186	0xbe2f0ea1	-0.17095424
187	0x3d91b245	0.0711408
188	0x3c66c2af	0.014084502
189	0x3e742745	0.23843105
190	0xbe1bcb75	-0.15214331
191	0x3d0cabfb	0.0343437
192	0x3e9d50c8	0.30725694
193	0xbdd06756	-0.1017596
194	0x3ea42cb0	0.32065344
195	0xbdb4e734	-0.08833161
196	0xbe82e14d	-0.25562516
197	0x3d185aec	0.037196085
198	0x3cb99bc8	0.02265729
199	0x3e9bfe24	0.3046733
200	0xbc8dc924	-0.017307825
201	0x3ec3f514	0.38272917
202	0xbe17172e	-0.14754936
203	0xbecf0f3a	-0.40441304
204	0xbd2cfb1a	-0.042231657
205	0x3db7335a	0.089453414
206	0x3e263dac	0.16234463
207	0x3e10d568	0.14143908
208	0xbca2745f	-0.01983088
209	0x3badd20f	0.005304582
210	0x3e919126	0.28431052
211	0xbe28c4c0	-0.16481304
212	0x3ce14aaa	0.027501423
213	0x3b60f575	0.0034325991
214	0x3eadef82	0.33971792
215	0xbe13fe8b	-0.14452569
216	0x3c385b54	0.011252243
217	0x3e2a6e25	0.1664358
218	0xbe14ff49	-0.14550509
219	0x3d091972	0.033471532
220	0xbe069e46	-0.13146314
221	0x3b27edf1	0.0025624002
222	0x3d6af4bd	0.057362307
223	0x3b786598	0.0037902351
224	0x3ed8a9b0	0.4231696
225	0xbccc0a82	-0.024907354
226	0x3c520bc3	0.012820187
227	0xbe5d11e2	-0.21588853
228	0x3ed0fc47	0.40817472
229	0x3c6d349c	0.014477875
230	0x3ed1000c	0.40820348
231	0x3c08b0f4	0.00834297
232	0x3cc533c1	0.02407253
233	0x3c590749	0.013246366
234	0xbdca5e3f	-0.09881257
235	0xbe4df49e	-0.20112845
236	0xbe622a97	-0.22086559
237	0xbce89bf6	-0.02839468
238	0xbe1270c4	-0.14300829
239	0xbd28f63a	-0.041250445
240	0x3eecf66e	0.4628176
241	0xbe0978e7	-0.13425027
242	0xbe0713b9	-0.13191117
243	0xbdcad114	-0.0990316
244	0x3e8cd24b	0.2750419
245	0xbe49353e	-0.19649217
246	0xbdd2b14d	-0.10287724
247	0x3df2f661	0.11863399
248	0x3d2d1e0b	0.04226498
249	0x3cc813e1	0.024423542
250	0x3d2b8531	0.041875068
251	0x3ea48a41	0.3213673
252	0x3ea52903	0.32257852
253	0xbe1241ca	-0.14282909
254	0xbe10906c	-0.14117593
255	0x3cbef467	0.0233099

fc_layers.4.bias f4 [5]
0	0xbf2bd63c	-0.6712377
1	0xbf37f645	-0.7186015
2	0xbf25ad4f	-0.6471757
3	0xbf2deb9a	-0.67937624
4	0xbf382862	-0.7193662
