Existing_MARL-SimpleSpreadv3/dqn_models/final_agent_2.pt (torch, 156829 bytes, 6 tensors)

fc_layers.0.weight f4 [256, 18]
00000000: 1438 f1bb 1e59 813c ae11 f33c 444b 29bd
00000010: 7c1f 4f3d 86af abbd 8975 723c 5ba1 0ebd
00000020: 07d1 fbbe b077 7c3f 2886 7cbd bca4 933c
00000030: b188 193f 7615 7cbf 23f5 b7bd aaa0 a83d
00000040: 4cf8 4d3e 9daa 44be b8d3 543e 8002 803d
00000050: 0aaf 1a3e 0072 ddbc 4a13 10be 6c10 85be
00000060: 9801 33be 686f e7bd 89a4 75be 2130 683f
00000070: fd22 bd3e 27a4 67be 1184 8ebe 65b3 773d
00000080: 7ef9 05be a310 d93c ae01 fabd 2985 d93d
00000090: 0607 81be c397 0a3f 1bd4 ba3e cc47 d73d
000000a0: e1ce 9f3d 37e5 7bbe 0e6b 1dbf 282c 8c3d
000000b0: a460 bb3e 81be e73d 2c56 9ebd a0cc 913d
000000c0: d085 2e3e 77ea 13be c6f5 443e e53e ccbd
000000d0: a194 4c3e c496 a2bd ea78 7e3e 0b02 f7bd
000000e0: 26c3 dbbc d81d 10bd 5b0c 6bbe 753a 003d
000000f0: ad8c a83e c131 b0be 37a3 a0be 9ba3 133e
00000100: dfe7 593e 3879 2fbe d7a6 bebf b443 823f
00000110: b172 8fbd cea4 113e 1620 70be 1d5f 3cbe
00000120: 6bbf c8bc 1a1f b0be 5739 aabc 5dd1 b23d
00000130: 834c dcbd 4991 283e dc4c 053e e91c 37be
00000140: e3f3 23be 6675 4b3e 5005 40bf f1b7 ec3f
00000150: e680 a2bd 9600 36bc f42d 68bd cf5a eebd
00000160: bffa 2bbe 5d22 55be 6b8c 2bbf 59f0 533e
00000170: a101 483e 0a5e 61be 3be6 243e c1d6 3abe
00000180: b571 553e 2f6c 913d a34e 27bd d4b0 033e
00000190: 01a8 253d e94e 1ebe cff8 99bc fee3 aa3d
000001a0: 1c0d 793c d369 c03d 6fe6 ccbd c90d 6f3e
000001b0: 0b59 88bd 4b74 853c 7e9f f5bd 305c 14bf
000001c0: 18fd da3e 0cd8 b93e d0e2 fabe ae2e d43c
000001d0: 337b 243e 98ee 903e 3496 003e e62e cdbe
000001e0: 031e 20be b4c7 cbbe 128b 64be 7206 5b3e
000001f0: 2054 e2bd e9e7 21be 36eb 1bbe 65c4 d03e
00000200: 7805 96bd 9deb 713c 988d 603c db14 74be
00000210: ecce 9e3e ff83 b7bc 81dc 943e 28d5 9e3d
00000220: b1a8 cc3c 915e c53d b0b4 c9bd 5b26 943e
00000230: babc 86bc ecbe b73c 3cc8 543d 6643 e73c
00000240: 2074 843d bff5 9b3c 6632 13be db05 8a3e
00000250: 1585 113e a375 a73e 8820 e13b 9b03 8cbd
00000260: c6c4 e6bc 10b5 093e 333c 563f cd05 f5be
00000270: 584f 3ebf 0e02 823e 3020 adbd 2f2f 03bd
00000280: 039c d4bd d609 6e3e 821a 603e f507 85bd
00000290: 10fe 2b3e 1903 ddbe 8465 813e 244e c43e
000002a0: f820 603d 7a7e 6dbd b1f9 b4bd e1df b6be
000002b0: cfaa 53be 786b ebbe 55d4 3e3e 80bd 933c
000002c0: a6b0 263e 18dd 263e bf03 093e 3b06 3c3e
000002d0: 9ac0 9bbd 2e3e c2bd 7505 fd3e 3037 26bf
000002e0: 131c edbe fb36 873e 3012 83bc b28c 55be
000002f0: defa a83d 06e3 963e e08f 3a3f 20e3 d6be
00000300: 3b9f 2f3e 85fa d0be ea33 7b3d 1783 1d3d
00000310: a96e 42be 0eb5 803b 64f1 b83e 54eb 6b3e
00000320: 3d4f 1c3e f073 543e 1ae1 07bf cad9 923e
00000330: aff0 69be 4bd1 fcbc 4234 b8bd d869 87be
00000340: 42a7 a13e 960d dabe 4d4f 1abe 9484 203e
00000350: 6fa9 65be 978d 0fbe e26f 043b 2e24 033e
00000360: 7461 28be 19e1 753d 60d1 73bc 10ef 8d3e
00000370: b724 04be 3298 30be 356a e3bd 0555 273e
00000380: 819e 493f e7d9 1f3e 652f c4be a121 98be
00000390: 3659 313c 5f7c cabd 5d1c b83d 0e21 26bc
000003a0: 9968 b7bc 55f8 6e3e d932 313d 8210 a93d
000003b0: b92c 58bd 1844 d2bc bf64 6abc 3a54 b1bd
000003c0: fbd9 fb3e dab1 723f 837d 5abb c0d6 bbbd
000003d0: 8675 083d 5ea7 b93d d549 0bbf 17f1 5bbf
000003e0: 8d81 633e b64a 153d 7f18 ad3d 94aa fbbd
000003f0: 2ee1 c5bd 5f94 5ebe 73dc 44be 7030 34bf
-0.0073614214 0.015789565 0.029671516 -0.041331545 0.050567135 -0.08383088 0.01479853 -0.03482185
-0.49182913 0.9862013 -0.06165138 0.018022887 0.599742 -0.98470247 -0.08982303 0.08233769
0.20114249 -0.19205709 0.2078389 0.06250477 0.15105835 -0.027031898 -0.14069858 -0.2598909
-0.17481077 -0.11300546 -0.23988546 0.9069844 0.36940756 -0.22621213 -0.27835134 0.06047382
-0.13083455 0.02649719 -0.122073516 0.106211014 -0.2520067 0.5413782 0.3648995 0.10511741
0.07803131 -0.24599157 -0.6149148 0.0684436 0.36597168 0.113156326 -0.0773128 0.07119107
0.17043233 -0.1444491 0.1923438 -0.09972934 0.19978572 -0.079389125 0.24850813 -0.120609365
-0.026826452 -0.03518471 -0.22953932 0.03130575 0.32919827 -0.3441296 -0.31374523 0.1441788
0.21279858 -0.17136085 -1.4894665 1.0176911 -0.070042975 0.14223024 -0.2344974 -0.18395658
-0.024505338 -0.3439873 -0.020779295 0.08731339 -0.10756781 0.16461672 0.13017601 -0.17882122
-0.16011004 0.19869003 -0.75008106 1.8493634 -0.07934742 -0.011108538 -0.05668445 -0.11638414
-0.16794871 -0.2081389 -0.67011136 0.20697154 0.19531871 -0.2200853 0.16103451 -0.18245985
0.20844157 0.071007125 -0.04084648 0.12860423 0.040443424 -0.1545979 -0.018795399 0.08344267
0.015200879 0.09395184 -0.10004889 0.23345102 -0.066576086 0.016290804 -0.11993311 -0.57953167
0.4277122 0.36297643 -0.4900117 0.025901165 0.16062622 0.28307033 0.12557298 -0.40074843
-0.15636449 -0.398008 -0.22318676 0.21389177 -0.11051202 -0.15811123 -0.15226445 0.40774837
-0.07325262 0.014765647 0.013705634 -0.2383608 0.31017244 -0.022401808 0.2907448 0.077555
0.024982782 0.09637178 -0.098489165 0.28935513 -0.016447414 0.022429906 0.05194877 0.02823038
0.064674616 0.01903808 -0.14374694 0.26957592 0.14210923 0.32706937 0.006870333 -0.06836625
-0.02817 0.13447976 0.83685607 -0.47855988 -0.7433982 0.25392193 -0.08453405 -0.03202742
-0.103813194 0.2324594 0.21885112 -0.06495658 0.16796136 -0.43166426 0.25272763 0.38340867
0.05471894 -0.057981946 -0.08836687 -0.3571768 -0.20670627 -0.4598043 0.18635686 0.018034697
0.16278324 0.16295278 0.13380335 0.18361752 -0.07605095 -0.09484516 0.49418226 -0.6492796
-0.4631048 0.26409134 -0.015999883 -0.20854452 0.08250974 0.2947008 0.72875786 -0.41970158
0.17150585 -0.4081613 0.061328806 0.038455095 -0.18987526 0.0039278334 0.36121666 0.2303899
0.15264602 0.20747352 -0.5307785 0.28681785 -0.2284572 -0.030861517 -0.089943424 -0.2644794
0.3157292 -0.4258849 -0.15069313 0.15675575 -0.22427915 -0.14018856 0.002020829 0.1280677
-0.16443425 0.060029123 -0.014881462 0.27721453 -0.1290463 -0.17245558 -0.11104242 0.16341026
0.7875748 0.15610467 -0.3831741 -0.29713157 0.010824492 -0.09887003 0.08989785 -0.010139717
-0.022388743 0.23336919 0.043261383 0.08255102 -0.052777026 -0.025667235 -0.014306246 -0.08658643
0.49189743 0.9480263 -0.003333897 -0.0917182 0.033315204 0.09065126 -0.54409534 -0.8591475
0.22217388 0.036448203 0.08451938 -0.122883946 -0.0966209 -0.21736287 -0.1922472 -0.7038641

fc_layers.0.bias f4 [256]
00000000: e1d4 25be 2bd4 2cbf 55f1 8fbf d86e 6fbe
00000010: 9ef9 b4bd cc98 40bf 8f2f 83bf 0d07 71bf
00000020: aa31 6dbe 6b13 94bf 58da 3fbf c295 85bf
00000030: 7967 6fbf 2fd6 24be 321a 60bf d6fb a7bf
00000040: 4af3 46bf 599b eb3d 55b6 61bf eba6 4cbf
00000050: 37e7 4dbf 5cab 8ebe 8766 5bbf dce4 51bf
00000060: 57f9 76bf 3ffe 76bf 49f5 81bf c252 9dbf
00000070: b6c7 61bf 0fb9 81bf b0d7 eebd 8225 26be
00000080: 39d3 6cbf de6c 8bbf 8607 5bbf 1170 68bd
00000090: 6c63 10bf 4582 0cbe c04a 58bf b1e2 3abe
000000a0: ea8f 88bf 0f44 29bf 2c20 62bf 816b 81bf
000000b0: b696 23bf d403 47bf 20d0 57bf df4e f2be
000000c0: 9414 63bf 5b21 59bf 6aa7 38be fc4f 67bf
000000d0: b05c 6cbf f5e0 55bf 7aaf 84bf e5ef 84bf
000000e0: a51f 3ebe 1ad1 7dbf d204 97bf 77d6 76bf
000000f0: 49f6 7ebf f0f4 84bf 40dd 86bf 50ca 60bf
00000100: c7e0 a1bd de73 15bf b09d 52bf acce a1bf
00000110: 56f5 b8be ac46 03bf 3caf 94bf a92a 0fbe
00000120: 5864 7abf 52bd 6fbf 1da9 90bf 6701 89bf
00000130: 3d2d 99bf 982a 90bf 4294 87bf 7a34 8abf
00000140: d702 4abf d997 64bf 74e9 c3bd dac7 66bf
00000150: fc5f 553d b490 04be 2fc5 5abf b7a1 c7be
00000160: 8cb0 87bf 2305 aabf 27cb 63bf 1ad9 83bf
00000170: b1bd d8bd 6bf6 48bf 1d87 8fbc f488 6a3e
00000180: b39f a3bd 5bc7 42bf 678a 9dbf d50a c6bc
00000190: 1bfa 7fbf 7b9c 56be 509c 89bf b285 8ebf
000001a0: caaf 88bf 4226 7ebf 8e9d 8dbf ca20 8ebf
000001b0: 3b90 93be bce6 8ebf 8ee5 85bf 8572 49bf
000001c0: f92c 5cbf 1d09 84bf c62d 9ebd 0e32 90be
000001d0: 48c1 6bbf afd0 45bf 3b2d 31be 9af8 70bf
000001e0: 5103 88bf 0b88 96bf 16c6 19bf a3d0 b3bf
000001f0: b3ff dfbe f907 02bf ca90 6abf d983 ffbd
00000200: 3794 6abf 1a19 49bf f5f2 1fbf fc75 99bf
00000210: 0835 89be ffb0 34be c2e9 10bf f26a 8cbf
00000220: 4879 24be 87f1 95bf 71b3 83bf 409a f4bd
00000230: 92d7 8fbf 9944 8abf 5181 62bf f138 7ebf
00000240: 521f 80bc a606 8dbf 82cd 62bf 8ad0 42bf
00000250: 1289 2abf e381 7c3c 4464 98bf ca1b 5cbf
00000260: 6525 81bf af0c a5bf 38c2 85bf dc2d 69bf
00000270: 5aef 6bbf 99e3 56bf bbb3 b5bc ee2c 82be
00000280: fcf8 eabd 2397 8bbf f808 3ebe 80d8 81bf
00000290: 5187 9ebf 7c5d 83bf d238 56be c582 85bf
000002a0: c91b 9cbe 2174 a5bd 3c40 83bf 58e1 89bf
000002b0: e52d 89bf ac98 75bf 527f 82bf 640f 6dbf
000002c0: 4259 17bf a230 4abf b498 16bc 81fd 83bf
000002d0: 5ec9 78bf 25a1 44bf 1994 56bf 0afa 1e3d
000002e0: 142c 75be 3701 88bf c0e8 f2be 7fac 90bf
000002f0: e8aa 61bf d6ed 6dbe c6ee 08be bfdd 61bf
00000300: 0b7b 67bf 393e 87be 81b2 9fbf 33a5 d8bd
00000310: a5b0 18be c931 8bbf d6bf 6dbf a72a 81bf
00000320: 7abf 44bf 52d8 49bf c7e4 8ebf 327b 81bf
00000330: 7ae3 4bbf 4511 10bf 372a 77bf 1325 d5bd
00000340: 66a7 a2be 2fc2 bcbd a321 48bf 3041 7bbf
00000350: b3f0 40be 60de 52bf abce febe 9a75 16bf
00000360: 8a35 29bf c130 15be 7526 7ebf 6576 78bc
00000370: 893f 3fbf 40bf 78bf d091 8cbf d0d7 81bf
00000380: cc4b 2bbf 6015 63bf eb1d 88bf 1093 66bf
00000390: 13f5 e4bd 7cca 8abf c9cf 86bd d4b5 84bf
000003a0: 45c9 7bbf 7305 05bf 1038 8abf 23b3 4cbf
000003b0: cad2 85bf adf5 6ebf 1413 63bf 6d25 81bf
000003c0: 2b61 95bf 3756 7abf 7215 57bf 1f8b afbe
000003d0: 55db 87bf 4073 8dbf 0849 7abf 0f66 48bf
000003e0: 8fdc 9ebf 7f8e 82bf de85 9bbf f533 66bf
000003f0: fad6 a1bf d58e 9cbc b923 5fbf f53e 87bf
-0.16194488 -0.6751124 -1.1245524 -0.23382127 -0.08836673 -0.7523315 -1.0248889 -0.94151384
-0.23163477 -1.1568426 -0.7494254 -1.0436327 -0.9351726 -0.1609733 -0.8753997 -1.3123729
-0.7771498 0.115042396 -0.8816884 -0.79942197 -0.8043093 -0.27865112 -0.8570332 -0.81989837
-0.9647421 -0.964817 -1.015298 -1.2290881 -0.8819536 -1.01346 -0.11662233 -0.16225246
-0.925098 -1.0892599 -0.85558355 -0.0567475 -0.56401706 -0.13721569 -0.8448906 -0.18250538
-1.0668919 -0.66119474 -0.8833034 -1.0110933 -0.6390184 -0.77740216 -0.8430195 -0.473258
-0.88703275 -0.8481652 -0.18032613 -0.9035642 -0.9232893 -0.8354638 -1.0366051 -1.038571
-0.18566759 -0.9914719 -1.1798346 -0.96421 -0.9959455 -1.0387249 -1.053627 -0.87808704
-0.07904201 -0.58379924 -0.8227186 -1.2641196 -0.36124676 -0.5127971 -1.1615977 -0.13981117
-0.9780936 -0.93648255 -1.1301609 -1.0703553 -1.1966931 -1.1262999 -1.059212 -1.0797265
-0.78910583 -0.892942 -0.09566012 -0.901487 0.05209349 -0.12945825 -0.8545713 -0.38990566
-1.0600753 -1.3282818 -0.8898186 -1.0300629 -0.10583056 -0.78501004 -0.017520482 0.22903806
-0.079894446 -0.7608544 -1.2307862 -0.024175087 -0.99991006 -0.2095813 -1.0750828 -1.113455
-1.0678647 -0.99277127 -1.1063707 -1.1103756 -0.28820977 -1.1164165 -1.046068 -0.7869037
-0.8600612 -1.0315281 -0.07723574 -0.2816319 -0.920918 -0.7727155 -0.1730241 -0.94129336
-1.0626012 -1.1760267 -0.6006788 -1.4048046 -0.4374977 -0.50793415 -0.9162718 -0.1247632
-0.9163241 -0.78553927 -0.624801 -1.1989131 -0.26798272 -0.17645644 -0.56606686 -1.0970137
-0.1606189 -1.1714333 -1.0289136 -0.11943483 -1.1237662 -1.0802184 -0.8847857 -0.99305636
-0.015639935 -1.1017654 -0.8859483 -0.76099455 -0.666154 0.015411827 -1.1905599 -0.859799
-1.0089537 -1.2894496 -1.0449896 -0.910856 -0.92162097 -0.83941036 -0.022180429 -0.25424904
-0.11473271 -1.0905498 -0.18558109 -1.0144196 -1.2385045 -1.0262904 -0.20920113 -1.0430533
-0.30489948 -0.080787905 -1.0253978 -1.0771894 -1.0717131 -0.95936084 -1.0195105 -0.9260161
-0.5912057 -0.7898046 -0.009191681 -1.0311738 -0.9718226 -0.7680839 -0.8381973 0.038812675
-0.23942596 -1.0625371 -0.474432 -1.1302642 -0.8815141 -0.23235258 -0.13372335 -0.8822898
-0.90422124 -0.2641466 -1.247635 -0.10578384 -0.14911135 -1.0874568 -0.92870843 -1.0091141
-0.7685467 -0.78845704 -1.1163567 -1.0115721 -0.79643977 -0.5627635 -0.9654879 -0.10407462
-0.3176834 -0.09216725 -0.78176326 -0.98146343 -0.1884182 -0.8237057 -0.4976705 -0.58773196
-0.6609732 -0.1456938 -0.9927743 -0.015164946 -0.7470632 -0.97166824 -1.0981998 -1.0143986
-0.6691253 -0.8870449 -1.063413 -0.9006815 -0.11179557 -1.0843043 -0.065826006 -1.036799
-0.9835399 -0.5196144 -1.0798359 -0.7996084 -1.0454953 -0.9334362 -0.88700986 -1.0089546
-1.1670278 -0.97787803 -0.840171 -0.34285828 -1.061381 -1.1050797 -0.97767687 -0.7828073
-1.2411059 -1.0199736 -1.2150228 -0.8992303 -1.2643731 -0.019111076 -0.87163883 -1.0566088

fc_layers.2.weight f4 [128, 256]
00000000: 3db4 b7be 787d e63d f0b8 78be 72d9 73bf
00000010: e35c d4be 7a21 8bbe 8f54 a1be 3bc6 40be
00000020: e204 8cbf 8930 95be b0b2 b1bd 4a2b 08bf
00000030: be23 ba3e 8a55 6bbb a177 a43e 0b77 8239
00000040: 772c dcbe aac8 25be 7175 4e3e 5818 033d
00000050: 115c aa3d 1906 66be 51cb 48be e7cb be3e
00000060: 6904 c0bd 7ddd bdbc f287 6abe c8e5 d73e
00000070: 1b5f 1a3e 72ea 253d 8702 783d 8552 40bf
00000080: 2e4e 083e fef5 3d3e f311 c33d 4c89 013e
00000090: a52c 9dbd e9bc 26bd 66de 093e a8be 4dbf
000000a0: 96c2 5fbd 79e8 b9be c196 3ebe e010 5f3e
000000b0: 6c55 903b 9194 edbe a5ba 22bf ac41 d9be
000000c0: a8d0 533e 1509 89be 78df dd3d 2553 7c3e
000000d0: 5df6 02bd 177b a4be 75f9 11bd 2989 e1bd
000000e0: ce3a 85be b100 8ebd fdd6 8abe 8d01 d13d
000000f0: cf90 adbe 3a8c 7b3d 0bea cabd c357 4f3e
00000100: c539 64be 84cb 0abf 0be7 f4bc 993c 7c3e
00000110: 41b4 55bd f7cf 233e 7162 8abe c917 d3be
00000120: d649 aa3d 6844 59be 7bfc d13b 7661 d8be
00000130: fbbf 01bd 2974 0abf 143b 1abe 3810 11bf
00000140: 76a6 c3be 796b 1dbe dfe9 41be e2f4 60be
00000150: 9fc3 ebbe 47ca e2bd 74ba c1be 07d3 073e
00000160: 1883 82be 525f d6bd 56c0 19bf 54f8 37bd
00000170: 7dd0 e1be dc05 a5bd a94a 213e 5bab dfbe
00000180: aca9 0b3e 9fc0 b4bd a5aa 8bbb b433 6abf
00000190: c561 64be 980b 3d3e 9993 39be 4abe 7bbe
000001a0: 62b8 7ebd e64b ddbe bb5c 11bd 6261 023e
000001b0: cccd 82be 210d a5be e745 a83d 1b5f b13e
000001c0: f418 30bf 9d4a bcbe a036 86bd fd3b a1bd
000001d0: cc02 503e 9ab7 c3be 4545 013e f6eb 933e
000001e0: 9985 833d c681 68bd 6689 dcbd 3574 4a3c
000001f0: 20c6 7ebe 188b dfbe 583c 8e3e f654 e63c
00000200: 0e9b 353d f408 a7be 44e9 b83e 0e69 abbe
00000210: 7e15 933e b716 2abd fd04 aebe 46e1 e33e
00000220: d89e 23bd e81b 9abe 39fc 29bf ed76 afbe
00000230: 7205 913e 011b da3e e35a 0ebe 4fe5 e73d
00000240: c685 3d3e 3746 6c3e d97e 8abe 3a8e 323d
00000250: 5b50 dcbe 88cc 3ebd 7d18 03bd 3b67 33be
00000260: a2cd 9e3e ebb9 a7bd 3903 943e 6bab 4ebe
00000270: 01be 563d 2506 77be 5eb3 29bf df06 e8bd
00000280: 3753 b43d 1c6d 22be 3bc9 30bf 8b9f ac3e
00000290: 62b0 9dbe 8b69 b83d 2668 7cbf 4520 fb3d
000002a0: bed3 e7be e24a 23bf 518e 9b3e aa52 91be
000002b0: 53b8 0dbd d41a 22be 675d 3bbe 856e 963e
000002c0: e300 25bd 6cf6 f2be ddf5 14bf 6dfd 6fbe
000002d0: c97a 51be 2ebd 363e 8b0b 8ebe b7a4 b83c
000002e0: 9c01 a4be 5b6f a13e e4f2 413d abbb 04bc
000002f0: 257c ba3d 815a b73e 4a59 82bd 2337 b93d
00000300: 8978 eabc 0cf9 8ebe 1dae 443e d74a bcbe
00000310: 60f1 8abd 3c21 863e acb4 55bf 82af 673c
00000320: 0163 96be a249 32be 61ca 24bd 9016 63be
00000330: 4cbe 4abe 6614 b1be 6f11 c1be 3911 debd
00000340: b9f4 c73d de42 0fbe 438b 25be 452b 8bbe
00000350: 17ca 9fbe 3daf 873d d979 3abc d0a5 5a3d
00000360: 94f4 84be c7a7 7b3d 58a9 aabd 9c80 2abf
00000370: cece 09bf 548e e13d 3c37 cabd 4951 4ebe
00000380: 95a2 8bbd 3642 59bd 3c49 64be 5f82 21bf
00000390: 5bea d5be d504 3fbe cf46 10be a2b9 00bd
000003a0: a06c a83d a8c2 e7be 4b81 4fbe cc05 803e
000003b0: de01 2abe caae 813e 159d 11bf 155e a7be
000003c0: 14bc b43d f66a dcbe 0ca6 43ba c177 383e
000003d0: 74ea 053e 957c f83d 2dfa 85bf 6bed 23be
000003e0: d9d1 7b3e 3507 b1be 18c8 b33d f9e7 5dbe
000003f0: 7e45 c63e 22de 223e a3b9 22be 459f 86be
-0.35879698 0.112544 -0.24289298 -0.9525367 -0.41477117 -0.27173978 -0.31509826 -0.18825619
-1.093899 -0.29138592 -0.0867666 -0.53191054 0.36355394 -0.003590914 0.3212252 0.00024884226
-0.43002674 -0.16189829 0.20161988 0.032005638 0.083183415 -0.22463264 -0.19608809 0.3726494
-0.09375841 -0.023176903 -0.22903422 0.42167497 0.15075342 0.040506788 0.060549285 -0.75125915
0.13311073 0.1855087 0.09524908 0.12650031 -0.07674531 -0.040707503 0.13463745 -0.80369043
-0.05462893 -0.36310175 -0.18612196 0.21783781 0.0044047143 -0.4640241 -0.63566047 -0.42432916
0.20685065 -0.26764742 0.10833639 0.24641092 -0.03197323 -0.3212516 -0.03563829 -0.11012489
-0.26021427 -0.069337256 -0.27117148 0.10205374 -0.33899543 0.061413027 -0.099079214 0.20248322
-0.22287662 -0.5421679 -0.029895326 0.24632491 -0.052173857 0.15997301 -0.2702823 -0.41229084
0.08314864 -0.21217501 0.006408272 -0.42261857 -0.031677227 -0.54083496 -0.15061599 -0.5666537
-0.38212937 -0.15373029 -0.18936871 -0.21968415 -0.46047685 -0.110737376 -0.37837565 0.13264094
-0.25490642 -0.104674 -0.60059106 -0.04491456 -0.44104376 -0.08057758 0.15751137 -0.4368542
0.13638943 -0.08825802 -0.004262286 -0.9148514 -0.22302921 0.18461454 -0.1812271 -0.24584308
-0.06218756 -0.43221968 -0.035488825 0.12732461 -0.25547636 -0.3223658 0.08216458 0.34642872
-0.68788075 -0.36775675 -0.06553388 -0.0787277 0.20313567 -0.38226014 0.1262408 0.2889096
0.06421966 -0.056764387 -0.10768394 0.0123568075 -0.24880266 -0.43660808 0.27780414 0.028116684
0.044337325 -0.32624018 0.36115468 -0.33478588 0.28727335 -0.04152557 -0.3398818 0.44507807
-0.039946407 -0.30099416 -0.66400486 -0.3427042 0.28324467 0.42598727 -0.13901858 0.11323034
0.18508062 0.2307366 -0.27049902 0.04359267 -0.43030056 -0.046581775 -0.032005776 -0.17519848
0.3101626 -0.08189758 0.2890871 -0.20182578 0.052427296 -0.24123438 -0.6628932 -0.113294356
0.088049345 -0.15861934 -0.69057053 0.33715472 -0.30798632 0.09004506 -0.9859642 0.12262014
-0.45278734 -0.6378614 0.30382016 -0.2838338 -0.034599613 -0.15830547 -0.18297349 0.29381195
-0.04028405 -0.4745363 -0.5818766 -0.23436518 -0.20456995 0.17845604 -0.27743182 0.02253948
-0.32032478 0.3153027 0.04735078 -0.008101384 0.0910571 0.35811237 -0.06364687 0.090437196
-0.028621929 -0.27924383 0.19207044 -0.36775848 -0.0678432 0.2619723 -0.8347881 0.014140965
-0.2937241 -0.17410901 -0.040232066 -0.22176576 -0.19799155 -0.34585875 -0.37708613 -0.10843129
0.09763474 -0.13990352 -0.16166405 -0.2718145 -0.3120887 0.06625221 -0.01138159 0.053380787
-0.25967848 0.0614393 -0.08333081 -0.6660249 -0.53831184 0.11013475 -0.09873816 -0.20148195
-0.068181194 -0.05304166 -0.22293562 -0.63089556 -0.41780362 -0.18654187 -0.14089511 -0.031427033
0.082238436 -0.45265698 -0.20264165 0.25004423 -0.16602275 0.25328666 -0.56880313 -0.32688966
0.088249356 -0.43050355 -0.00074634026 0.18014432 0.13077718 0.12133137 -1.0466973 -0.16008537
0.2459177 -0.3457581 0.08778399 -0.21670522 0.38724893 0.1590505 -0.15891127 -0.26293388

fc_layers.2.bias f4 [128]
00000000: 00b1 b4be a1a4 cebd 0417 e83d b98e 97bc
00000010: 0ea0 86bd d154 2b3e 4c94 3c3f c477 3fbd
00000020: 1fd7 4bbe 17ae 9bbe 973b b7bd 9bf0 2f3f
00000030: 53d1 c03d 1e3e 133f 2910 19bf 50cd 01be
00000040: 8bfe 27be e427 26bf a2df a13e 78d3 c6bd
00000050: ff56 163f 07e6 373f 0385 6bbd d1c7 8fbe
00000060: e3d9 80be e68b 25be 7611 c03d 90b1 24be
00000070: a9a7 643e c0e6 82bd cb26 c5be f283 293f
00000080: 4592 2a3c 214c 8abc e2d7 943f 5f18 893e
00000090: 1d13 05be ed02 1abf 71d7 d1bd 1b50 d63f
000000a0: 16bb a63d f1be 3b3f e47e f9bc 9b9a 8f3f
000000b0: db96 82bd 6975 2fbe 493d 353f 881b efba
000000c0: 6baa fdbd 03a2 e3bc 2896 ecbe 5c85 d2bd
000000d0: f243 243f c9a4 9d3f ccdb dabd 86fc babd
000000e0: 63d4 01be 91f8 81be bc0c 50bd 0fb9 a5be
000000f0: db5a 40be ccec 1ebe 7cf8 dcbd 4b3b 2fbf
00000100: 5685 d2be e91f 19bf aa8d c5be cb25 eabe
00000110: d953 b4be 15f8 d53e 3dbc 37bd 8521 c4be
00000120: 992c 823f 9b7a 713f 74e5 7abc f4e0 703f
00000130: 1889 58be f811 36be ca34 1fbe 2b53 ff3e
00000140: b2bb d1bc 9aca aabd baff 193f ecd7 b4be
00000150: 096f 483e 3bdc c2bd 669d 6fbc c25a d9bd
00000160: 7c7b 083e 2ecf 843d 4383 f73d 2611 e23e
00000170: 0335 813f 8acf 3dbe 87c1 f5be a1e0 c43d
00000180: 42d3 c0bd cbcf b0bd a07b 02bf f3e5 dbbd
00000190: 20f1 31be 7821 b13e a24d a7bd eeab 913e
000001a0: 3614 8c3f f934 e13e cb37 8cbe c8a9 f83c
000001b0: d3b4 dcbd fd43 553e 6d99 08be c2d6 d8be
000001c0: 42c1 b2bd e572 af3d cba5 eabe 4b2e 813f
000001d0: 9e09 a2bd 479c 8b3d 5099 23bc e56c dcbd
000001e0: 25c4 073d 6229 8fbd 442c 42be 0e4c 1bbd
000001f0: 5aeb 49be 82ac a63e cfb1 63bd f8b5 fbbe
-0.3529129 -0.10089994 0.11332515 -0.018500673 -0.06573497 0.16731574 0.73663783 -0.046745077
-0.19906281 -0.30406258 -0.08946913 0.6872651 0.094149254 0.5751666 -0.59790283 -0.12675977
-0.16405694 -0.6490462 0.3161593 -0.09708303 0.58726496 0.7183537 -0.057499897 -0.28082135
-0.25166234 -0.16166648 0.093783304 -0.1608336 0.22329582 -0.06391668 -0.3850616 0.6621696
0.01041085 -0.016882004 1.1628382 0.26776406 -0.12995572 -0.60160714 -0.1024617 1.6743196
0.081411526 0.7333823 -0.030456014 1.1219057 -0.0637643 -0.17134632 0.7079664 -0.0018242458
-0.1238602 -0.027787214 -0.4620831 -0.102793425 0.64166176 1.2315913 -0.10686454 -0.09130196
-0.12678675 -0.25384954 -0.050793394 -0.3236775 -0.18784659 -0.15520018 -0.10789582 -0.6844985
-0.41117352 -0.59814316 -0.38584644 -0.4573196 -0.3522022 0.41790834 -0.044857252 -0.38306823
1.016986 0.94327706 -0.015313495 0.9409325 -0.21146047 -0.17780292 -0.15547481 0.4986814
-0.025602195 -0.083394244 0.6015583 -0.35320985 0.19573607 -0.09514662 -0.014624929 -0.10613014
0.13328356 0.06484829 0.12085583 0.44153708 1.0094303 -0.18536201 -0.47999212 0.09613157
-0.09415294 -0.08633383 -0.50969887 -0.10737219 -0.17377138 0.34595847 -0.08169104 0.28451484
1.0943668 0.43985727 -0.27386317 0.030354396 -0.10776677 0.20826717 -0.13339777 -0.42351347
-0.08728267 0.08566836 -0.45829615 1.0092252 -0.079119906 0.06816917 -0.009985283 -0.107629575
0.033146042 -0.06990315 -0.18962198 -0.03791433 -0.19718686 0.32553488 -0.055589493 -0.4916227

fc_layers.4.weight f4 [5, 128]
00000000: cf13 86be 6d08 a43d 0a03 573d 4af7 8a3d
00000010: 6fd1 353d 5c88 cb3d f15a 20be c91d 043e
00000020: da65 903e 0e65 353e 55c2 8e3d 1442 16be
00000030: dce4 1cbe 9823 b2bd 3a50 cc3e d3e1 e8bc
00000040: ab96 d53d babc ee3e 580b 92be a800 f13e
00000050: 8b60 1cbe c2cc 5bbe 7930 68be 4306 5bbd
00000060: a326 683e 6f0e 40be 6b74 04bd f56a b33a
00000070: a03e e4bd 9b5d bb3d 706d 9d3e 3ee1 2bbe
00000080: 59b3 5d3d 5c2c 21be fce4 92be 4962 413d
00000090: 0558 683e 01e6 a83e 6428 283d 1f39 89be
000000a0: 278e ac3c 4060 82be 5d39 a63d 3677 7bbe
000000b0: ef56 1dbd 9ced c53d 9cef 6bbe 743f c4bd
000000c0: 3699 993b c6e1 993c 845f 3b3e a0ef 193d
000000d0: dd1e 2cbe 66d6 95be 0419 793e b0cf 913e
000000e0: 7d8e 083f a723 83be 20c5 0c3e 1e94 62bd
000000f0: f253 26be faa5 b6bd 0185 cebd b1be 903e
00000100: 9fd2 ef3d 9076 a13e c207 823e 1d1e 8fbe
00000110: a04f ef3e a079 23be 4303 3f3d 1b3c ef3d
00000120: dc9c 87be 49ea 89be 9227 16bd 605e 5ebe
00000130: f1a5 423d 4c5a b13b 3e64 5abc 4721 87be
00000140: 0f90 533d 2794 0b3d 4376 3bbe 69a5 443e
00000150: 03bb 5ebe 6382 063d 90a2 a03e c9c8 cb3d
00000160: bb18 debd 488f 38be d1ca 7fbd a1be a5bd
00000170: c4ea 70be 8311 d1bd da6a da3e 39b6 34be
00000180: 9135 283d 749b 25bc ec56 603e e38e e7bc
00000190: 8532 49be 7a70 0fbd d8cc 883d 6a4a e7bd
000001a0: bee7 91be b14d c7bd 675b 453e ed06 4ebd
000001b0: 4395 6a3d 25f3 be3d cadb 8a3d 524a 873e
000001c0: f42e 96bd 1a52 f53d 0b68 6e3e 8633 82be
000001d0: a462 71bd 07f7 493e dd0b 50bd 95eb 173e
000001e0: 86e7 e03d ac40 953d a3fe 443e 12d7 ca3d
000001f0: ca18 e83d 5de2 82be 9336 79bd 9e2f 883d
00000200: 186a 44bd a5c2 beba 9a87 963d 4eb8 373d
00000210: d680 8c3d f683 88bd e6ea 72bd f571 143e
00000220: 8f7c 973e 6007 723d 94e3 febc 5aa7 1fbe
00000230: 9fa5 07be a8cb 363b 56b5 ce3e 1194 e7bb
00000240: 30bd 463e d156 b33e 0630 12be 17b9 e53e
00000250: 0947 32be 5072 edbd 7501 11be e7a2 2cbe
00000260: bb02 893e efc5 6a3e 7a3e d0bc 33c5 44bc
00000270: f4d4 a13e ceca d53b 6ce7 d93e 3e92 c6bd
00000280: 3143 73bc 7ac7 f3bd 7dd8 bdbe ab2b 88bd
00000290: 9689 503e dcba 663e 09a1 18bb f5be 82be
000002a0: 3fd1 ffbc ce36 43be 59a6 9cbd c07c 02be
000002b0: 71ca 1b3d 7b36 c83d 88af b5bd f633 2abe
000002c0: 6cb0 d0bd 6545 413c ee2c 083e d036 e83c
000002d0: 2263 09be ce20 2dbe a3e9 883e e429 e9bd
000002e0: c1a5 0a3f 845f 3fbe 4584 143e bc6d 05be
000002f0: c02e 40ba 8659 823d 213f d23d 62f9 873e
00000300: 454b 4e3e 5c22 9f3e 10e6 813e c901 8cbe
00000310: 179b 143e 1eca 07be 3367 893c c20b 323e
00000320: 352d f7bd 7aa4 92be d5b6 b2bd 0a7d 61be
00000330: afe6 f63d 9051 86bd 7496 fb3d 5b23 11be
00000340: 4689 583d 6804 07bc eec0 70be 62a1 5a3e
00000350: c4bd 88be 5437 5d3d 51f4 d53e 8770 2abd
00000360: 0db2 19be 830f 16be 06b8 053e 45d3 15be
00000370: a815 16bd 4fcc 57be 6153 e83e 97cc 5a3e
00000380: 3c5b bf3c 39d6 ad3d 8381 2a3e b050 debd
00000390: 6750 24be d266 a1bc cb71 f33b 667c 43be
000003a0: 8bc8 e6bd ab6b 8fbd 2c3d a83d 3784 4d3e
000003b0: 792e 31be 79d8 36be 1e06 1fbd 0af1 2b3e
000003c0: 779c e8ba ede1 9d3d f309 b33e 9fd3 afbe
000003d0: ae49 7ebc 400b 13be 778c 843d ee0c 103e
000003e0: beb3 473d 999e 40bd 3855 563e ad5c e73d
000003f0: 505f c83d 03e9 98bd 356d 833d 9670 2e3e
-0.26186988 0.080094196 0.052493133 0.06785448 0.044389185 0.09938118 -0.15659691 0.12901987
0.28202707 0.1771433 0.0697066 -0.14673644 -0.15321678 -0.08698195 0.39904958 -0.028427994
0.10429128 0.46628362 -0.2852428 0.47070813 -0.15271203 -0.21464828 -0.22674741 -0.05347277
0.22670989 -0.18755506 -0.032337587 0.0013688492 -0.11144757 0.09148713 0.30747557 -0.16785142
0.054126117 -0.15739578 -0.28690326 0.047212873 0.22689827 0.3298798 0.041054145 -0.26801392
0.021063877 -0.25464058 0.0811641 -0.24557194 -0.038412984 0.09664461 -0.23040622 -0.09582415
0.0046874536 0.018784415 0.18298155 0.03758204 -0.16808648 -0.29265136 0.24325949 0.28478765
0.5334242 -0.25613138 0.13747072 -0.055317037 -0.1624296 -0.08918376 -0.10083962 0.28270486
0.11710095 0.31535769 0.25396544 -0.27952662 0.46740437 -0.15964365 0.04663397 0.11681386
-0.26486862 -0.26936558 -0.03665883 -0.21715689 0.047521535 0.0054123756 -0.013329564 -0.26392576
0.051651057 0.034076836 -0.18306832 0.19203724 -0.21751027 0.03283919 0.31374025 0.09950406
-0.10844561 -0.18023407 -0.06244928 -0.08093 -0.23527056 -0.10208418 0.42659646 -0.17647637
0.04106671 -0.010107864 0.21908158 -0.028266376 -0.19648178 -0.035019375 0.06679696 -0.1129349
-0.28497118 -0.09731615 0.19273148 -0.050299574 0.057271253 0.0932372 0.06780203 0.2642389
-0.07333174 0.1197855 0.23281877 -0.25429934 -0.05893196 0.1972314 -0.050792564 0.14835961
0.109816596 0.07287726 0.19237761 0.09904303 0.11332853 -0.25563326 -0.06084306 0.06649707
-0.04795274 -0.0014553858 0.07350083 0.0448535 0.06860511 -0.066657946 -0.059306048 0.14496596
0.29587218 0.059089065 -0.031114377 -0.15591183 -0.13246773 0.0027892385 0.40372723 -0.0070672114
0.19408107 0.35027173 -0.14276132 0.44867775 -0.1740991 -0.11594069 -0.14160712 -0.16859017
0.26759896 0.22927068 -0.025420416 -0.012009907 0.31607783 0.0065244203 0.42559373 -0.09695862
-0.014847563 -0.119032815 -0.3707923 -0.06648954 0.20364985 0.22532219 -0.0023289344 -0.25536314
-0.031227706 -0.19063875 -0.07648916 -0.12742901 0.03803486 0.09776016 -0.088713706 -0.16621384
-0.101899 0.01179633 0.1329839 0.02834645 -0.13416722 -0.16907045 0.2674075 -0.11384943
0.5415917 -0.1868878 0.14503582 -0.13030142 -0.0007331185 0.063647315 0.10265947 0.2655745
0.201459 0.31080902 0.25370836 -0.27345112 0.14512287 -0.13260695 0.016772842 0.17387298
-0.120691694 -0.2864111 -0.08726279 -0.22020355 0.12055718 -0.065585256 0.12284556 -0.14173643
0.05286529 -0.008240797 -0.23511097 0.21350625 -0.2670728 0.054007843 0.4178796 -0.04161122
-0.15009327 -0.14654355 0.1305848 -0.14631374 -0.036641747 -0.21074031 0.45376113 0.21367107
0.023358934 0.08488125 0.16650967 -0.10855234 -0.16046296 -0.019702349 0.0074293367 -0.19090423
-0.11268719 -0.07002958 0.082147926 0.20069967 -0.17302884 -0.17856015 -0.038824193 0.16791168
-0.0017746825 0.077091075 0.34968528 -0.34341142 -0.015520496 -0.1435976 0.06472104 0.14067432
0.0487554 -0.04702625 0.20930946 0.112969734 0.097838044 -0.074663185 0.06417314 0.17035136

fc_layers.4.bias f4 [5]
00000000: e053 1dbf a510 31bf 9f0d 28bf aab7 22bf
00000010: 7b75 3ebf
-0.6145611 -0.6916602 -0.65645784 -0.635615 -0.7439801
