Existing_MARL-SimpleSpreadv3/dqn_models/final_agent_1.pt (torch, 156829 bytes, 6 tensors)

fc_layers.0.weight f4 [256, 18]
00000000: 1d27 a1be e685 253e cd77 e63c 8366 c83c
00000010: a3ab cc3f 09df f8be 0168 cdbd 422d 5f3c
00000020: d7c7 8bbd 2263 29bd d912 9e3d 1b89 b7bd
00000030: 0b8e 9f3d 782c debc 815f 493d 701e b6bd
00000040: e660 32bd ee38 003e b141 c8bc cfbc 3fbc
00000050: 87bb e53d 9dc2 ad3d 6ec0 f4be 3f32 d43e
00000060: 7330 413f 6465 d6be 06e7 0b3e f691 e1bd
00000070: 94de 803e 2b66 4ebc 4e20 14be 91bb 2d3e
00000080: 059b 4d3e b14a 53be 3e37 8bbc b37b bb3d
00000090: 3ce0 0dbe 4611 c9bd 2a3c f0bd b898 873e
000000a0: e9bd 7ebe 3dc7 fabd c75f b5bd c038 1bbd
000000b0: 6450 243c efde 11bc f74f 3dbd 293f af3d
000000c0: 7cc3 783e 2ebc 473e 8d7c 4cbe dcf0 203e
000000d0: f475 4c3e 360a 4e3e c65c 653e 0013 f9bd
000000e0: 07f8 a53d d7c4 5bbe 101c 5dbe 085a a73e
000000f0: d73e 31be 7570 343e 9cd9 a6be 3100 c1bc
00000100: bfd7 803e 3f19 9dbe 6099 803d 7f49 c3be
00000110: 1deb 583e 5e59 febd 0c52 23be 2605 2abe
00000120: 9516 a8be 6b23 76be 1820 813c 1ed7 bc3c
00000130: cf94 82bd fe26 443d 581e 763b 7e9a 56bd
00000140: 172d 9e3f bf2e a73f 56e4 153e 13a2 b23c
00000150: 076f 323d e10a 4e3c b33f 99bc 8a11 d4bb
00000160: 14a9 f73d 5412 1ebe 224e 0cbe 2a6b 8ebc
00000170: 20db 64be 7d90 f83d ea34 893d bd90 d83d
00000180: 5650 583d d6ed a93e c27f 123f 8c78 35bf
00000190: 824d 103e 70c1 ab3e 4342 e7bb ed18 283d
000001a0: df10 683e ed17 3a3e c569 5b3e e7aa 9b3d
000001b0: be24 d13e 582a c6be da54 44be 560b 8b3d
000001c0: 3281 993d d059 3e3d edcc 65be 9de1 9f3e
000001d0: eeca f73d 4471 d3bd 3256 58bd 462a 633d
000001e0: 63cc b2bf 12c2 a63f 15bf 5cbe b4d7 30be
000001f0: 1646 353e 37a5 1ebe de92 65bd 5413 633b
00000200: 090f f23d 85ee 863e 0ec0 61be 5ca7 57bf
00000210: 1fd4 d3bc 0b37 85bb f3ff 28bd 6309 f53c
00000220: 44c8 2d3f 749b 8a3f e5fc 27bd 0d0a 86bd
00000230: a725 263d 942e b43d 7706 833d fc9a c83d
00000240: 6b89 e33d c366 b43d 2ff0 fe3d 8209 93bd
00000250: ff97 2bbe e166 bbbe 6810 a63d 0df5 0c3e
00000260: 3dcb 483e c4fc c8be c9f2 a23e da5b e83d
00000270: 0d7c cb3d c35f 133e 018f 08bd db7d 223d
00000280: 293f 803d ae78 0f3e 4bc2 bbbd 41e6 82bd
00000290: ad65 adbe cca2 8b3c 1942 77be 18e0 ee3d
000002a0: 9f8e 9b3f c522 a0be 195b 1cbe fd2f 1e3e
000002b0: 447f 6abf fb93 493e 7aad a8bc 1a18 503e
000002c0: 71a8 253e f1c1 8d3d 09ae 223e 6e0e cdbc
000002d0: 0c06 8bbe 9263 953d fdbf 6f3e b256 0ebd
000002e0: d446 3abd 0d06 edbd becc 803e 81aa d0bd
000002f0: 579b 0dbe e8c0 0f3d 9ef5 5fbb 52cf b93c
00000300: 0e1d 913f 21b2 d6be 5848 503e 4f46 21be
00000310: 8b65 9f3d 825d f7bd 0f99 9fbe e2a7 013e
00000320: 5583 923e 3582 a6bd 7c59 443c a1a8 8b3d
00000330: 6355 dfbb 250c ae3d 7a0b afbe 10ad 62be
00000340: aaea f43e 4ed2 513e d04d 033d 1c05 9b3e
00000350: 5ce9 16be 7d46 123a a7e0 5a3e 2cad daba
00000360: 56a5 4b3e 4a48 953e e2dd 98bd def0 3a3d
00000370: 4461 81bc 5faf bd3e ecf2 993d 3ce7 34be
00000380: 632a 9cbe 149c ffbb 1cb8 bbbe 87b0 d5be
00000390: 6671 333e e017 1c3d 4803 4e3e 026c 5e3e
000003a0: 55a6 df3d adfd 523d a11d dc3e eaee 02be
000003b0: f376 debe 761e 653e 9e4c 9b3c 30ae 5fbe
000003c0: 3e99 d23e 0748 3a3e 68b4 9bbe b651 b0bd
000003d0: 6bd6 cbbe 7774 c93d 9cb1 5ebe 532d 433d
000003e0: 7de1 6ebe 5f75 193e 4ca4 0ebe 56bd 31be
000003f0: 72d7 cd3d 4743 193e cc81 09be 5a3d f5bd
-0.31475154 0.1616436 0.028133297 0.024462944 1.5989879 -0.48607662 -0.10029603 0.01362163
-0.06825226 -0.041354306 0.07718439 -0.08961698 0.077907644 -0.027120814 0.049163345 -0.08892524
-0.04354944 0.12521717 -0.024445387 -0.01170273 0.112174086 0.08484385 -0.47803062 0.41444585
0.7546455 -0.4187423 0.13662347 -0.11014168 0.25169814 -0.012597601 -0.14465448 0.16966082
0.20078667 -0.20633961 -0.016994115 0.09154453 -0.1385507 -0.09817748 -0.117302254 0.26483703
-0.24877132 -0.12245033 -0.08856159 -0.037895918 0.010028932 -0.008903249 -0.04621884 0.08556969
0.24293321 0.19505379 -0.19969387 0.1571688 0.1996687 0.20121083 0.22398672 -0.12161827
0.08103948 -0.21461807 -0.21592736 0.32685876 -0.17309128 0.17621024 -0.32587898 -0.023559662
0.251646 -0.30683324 0.06279254 -0.3814201 0.21183439 -0.12419389 -0.15949267 -0.16603526
-0.3282973 -0.24036948 0.015762374 0.023051795 -0.06376039 0.04788875 0.0037554707 -0.05239343
1.235751 1.3061141 0.14637884 0.021805799 0.043562915 0.012575836 -0.018707132 -0.0064718174
0.12092796 -0.15436679 -0.1370168 -0.017385084 -0.22349215 0.12136934 0.06699546 0.10574482
0.05281099 0.33189267 0.5722619 -0.70887065 0.14092067 0.3354602 -0.0070574596 0.041039396
0.22662686 0.1817319 0.21427067 0.076009564 0.40848345 -0.3870418 -0.19172993 0.067892715
0.07495345 0.04647237 -0.22441454 0.31226817 0.12099253 -0.10324338 -0.052816577 0.055460237
-1.3968624 1.3027976 -0.21557267 -0.17269784 0.17702517 -0.15492712 -0.056048267 0.0034648972
0.11819274 0.2635385 -0.2204592 -0.84239745 -0.025857983 -0.0040653995 -0.041259717 0.029911702
0.67883706 1.082869 -0.041012663 -0.06544886 0.04056325 0.087979466 0.063977174 0.09795186
0.11110195 0.08808663 0.12448155 -0.07179548 -0.167572 -0.36601928 0.08108598 0.13765354
0.19608779 -0.39255345 0.31825855 0.11345644 0.0993577 0.14391999 -0.033339504 0.039670806
0.06262047 0.1401088 -0.09167918 -0.06391574 -0.33866635 0.017045401 -0.24146308 0.11663836
1.21529 -0.31276527 -0.15269126 0.15447994 -0.9160044 0.19685356 -0.020590533 0.20321694
0.16177537 0.06921757 0.15886702 -0.025031295 -0.2715305 0.07294382 0.23413081 -0.034750648
-0.045477703 -0.1157342 0.25156206 -0.10188771 -0.13828789 0.03509608 -0.00341735 0.022681866
1.1336992 -0.41932777 0.20340097 -0.15749477 0.0778304 -0.12078382 -0.31171462 0.12661698
0.28615823 -0.08130304 0.011984225 0.06819273 -0.006815599 0.0849841 -0.34188443 -0.2213633
0.47835284 0.20490381 0.03205663 0.30277336 -0.14737457 0.00055799616 0.2137476 -0.0016683689
0.1988729 0.29156715 -0.07464196 0.045639865 -0.01579345 0.3704786 0.07517037 -0.17666334
-0.30501089 -0.0078005884 -0.36663902 -0.41736242 0.17523727 0.038108706 0.20118439 0.21720889
0.10920397 0.051511455 0.42991355 -0.12786451 -0.43450126 0.22374901 0.018957432 -0.21843791
0.4113254 0.18191539 -0.30411077 -0.08609335 -0.39812025 0.09836667 -0.2174744 0.047650646
-0.23328204 0.1498618 -0.13929862 -0.17357382 0.100508586 0.1496707 -0.1342842 -0.119745925

fc_layers.0.bias f4 [256]
00000000: 9f27 d53b c754 c7be d1f6 82bf eb24 6fbf
00000010: 6672 90bc e3d8 6abf 9101 7a3b b30d 9ebe
00000020: aed7 81bf 7add 5fbe 8b84 72be 6c2a 2abf
00000030: 7aab 60bf 1159 59bf 3b9a 16be 7085 5dbf
00000040: cf1d 98bf 85db 3ebf af63 78bf 4111 0abf
00000050: 530e 6cbf 41bc 4fbf 75b1 b13d e0ea 97bf
00000060: f6d2 3bbd c314 21bf ac46 9dbf fac1 87bf
00000070: e6bd 80bf 4917 3bbf 354d 46be 0a34 6abf
00000080: de1e 84bf e414 58bf 090f 69bf e339 8abf
00000090: 3a4a 93bf c6c5 8fbf 5da7 32bf ca6f 9bbf
000000a0: 0db6 96bf 7b35 77bf e516 88bf f0c5 84bf
000000b0: 1ecc 8abf 3882 95bd ba53 14be 7a14 67bf
000000c0: a476 73bf 9f1b 44bf d03a 1cbe 61a5 17bf
000000d0: be72 42bf 5008 4abe d56c 4fbf 6b67 89bf
000000e0: 24aa 62bf e0d5 90bf f52b 15bf 4085 84bf
000000f0: c4ac 3e3d 6b9b 0cbe 77f2 87bf 5fda 7abf
00000100: d0e3 66bf 0807 26be 8d51 8abf 8cd7 38be
00000110: 360d 49bf e9f8 9ebf 78b8 84bf a39a 7fbf
00000120: 650e 84bf 8a02 30be 4c26 68bf 0f0e 42bf
00000130: 29d6 80bf bee6 90bf 05d7 86bf 31d0 85bf
00000140: e1e4 94bf 8f55 53be ff62 7fbf 9937 51bf
00000150: dcbf acbc 1eb1 61bf ce30 46bf 2330 32bf
00000160: e767 25be c82f 87bf ba83 34bf 92e7 16bf
00000170: 395c 01bf 3bef 19bf 2627 7ebf 0e4f e2be
00000180: f69a 5bbf c592 95bf e32e 96bf aa1d 34bf
00000190: 1dd7 85bf a909 8dbf 4455 babd 1338 87be
000001a0: 8e10 61bf 9865 d7be 883b 88bf 1a78 73bf
000001b0: ac3f 4abf a386 5dbf 2609 96bf b890 97bf
000001c0: d3f7 74bf f3fb eebe 19ef 66bf eaa2 78bf
000001d0: f3ff 63bf 7c0a 77bf 0441 64bf bcc1 50bf
000001e0: 30bf 5dbf f660 10bf e7c5 a1be f745 93bf
000001f0: 9739 8cbf 6a68 59bf 3739 b9be d18c 7fbf
00000200: 722c 76bf c936 82be fc63 6dbf fbcd 43be
00000210: dd8b 96bf 3eac 3dbf 9856 73be 17d3 95bf
00000220: 0159 4abe d3b1 71bd 2002 93bf 5d71 4bbf
00000230: d2b6 91bf 6868 77bd db12 85bf bdc3 85bf
00000240: 9a45 5fbe 4971 c4bd b658 72bf e9f1 87bf
00000250: 8477 a2bf 45e7 42bf a28c 7dbf 2b2e 32be
00000260: 95e5 7dbf 63a4 a3bf 4293 81bf 3d25 fcbd
00000270: 015e 50bf 4263 67bf b843 8dbf e912 e2be
00000280: d2c9 7abf c4db 74bf c48c c0bd 3f7b 8bbf
00000290: f742 93bf 8045 80bf 51b2 63bf ff2b 63bf
000002a0: bfa2 8ebf 5bd7 83bf d3f2 d1bd 74e4 c4bd
000002b0: d086 90bf fa6d f6be 7b31 9cbf 5a47 53bf
000002c0: 2b6e 88bf c750 bdbd 22a7 98bf e351 43be
000002d0: a145 12bf 69f7 86bf 2966 9cbf 6f1d 9ebf
000002e0: 4079 dbbd 4852 93bf b0b1 80bf f926 81bf
000002f0: 0cd7 8bbf 9fb3 93bf 6f63 a8bf 6612 22bf
00000300: 6aa0 d5bd 8e1d 51bf 08b9 7cbf 4da3 5ebf
00000310: fafa 71bf bca0 89bf 72d7 6dbf 6e64 73bf
00000320: b2c8 e2bd ad8a 6dbf b624 8ebf 2a86 6dbf
00000330: 79cb 8fbf 3200 66be 52c9 80bf 8f57 5abf
00000340: 245e 8dbf 5feb e1be 5c50 5dbf 5223 a2bf
00000350: 1d48 6dbf 9da2 45be 03f8 7fbf 8b68 57bf
00000360: a235 51bf f8fa 833e d814 83bf 01c3 8abf
00000370: f618 5dbf 4577 96bf 3c6c f7be 77c6 c3be
00000380: ded3 4a3d 22dc 45be 1fa3 47bf 1f85 7ebf
00000390: a8e2 88bf 9a7d 12bc 867a 59bf b156 2bbf
000003a0: 69e6 8cbf 2255 63bf 26d2 69bf f5e7 c0bd
000003b0: 36f8 86bf 566b e3bd 3b99 dbbd c2f2 3ebe
000003c0: 0bcd ebbe cc22 63bf 5a60 5ebf 009f 6dbf
000003d0: 22f0 aabf f477 2abe ad35 debd 5906 38bf
000003e0: cd8d 94bf 9f92 76be d412 0bbf fdc6 88bf
000003f0: b2a3 53bf ce2f ae3c 6209 8fbf 17e1 cfbd
0.0065049673 -0.38931867 -1.0231572 -0.9341571 -0.017632674 -0.9173719 0.0038147906 -0.30869827
-1.0143945 -0.2186183 -0.23683374 -0.6647098 -0.8776165 -0.8490153 -0.14707272 -0.86531734
-1.1884097 -0.7455371 -0.97027105 -0.5393258 -0.9220936 -0.8114663 0.08676425 -1.1868553
-0.045855485 -0.62922305 -1.2287192 -1.0606072 -1.0057952 -0.73082405 -0.1936539 -0.91485655
-1.032192 -0.84406877 -0.91038567 -1.0798916 -1.1507027 -1.1232231 -0.69786626 -1.214349
-1.1774307 -0.9656598 -1.0631987 -1.0372906 -1.0843542 -0.07300228 -0.14485064 -0.9026562
-0.95102906 -0.76604646 -0.1525681 -0.59236723 -0.7595633 -0.19729733 -0.8102544 -1.0734686
-0.88540864 -1.131527 -0.582702 -1.0353165 0.04655148 -0.13731162 -1.0620869 -0.9798946
-0.90191364 -0.1621362 -1.0806137 -0.18050975 -0.78535783 -1.2419711 -1.0368795 -0.9984533
-1.0316893 -0.17188469 -0.90683436 -0.758027 -1.0065356 -1.1320417 -1.0534369 -1.045416
-1.1632348 -0.20638107 -0.9976043 -0.8172546 -0.02108758 -0.88160884 -0.7741822 -0.696047
-0.16152917 -1.0561457 -0.705135 -0.589471 -0.50531346 -0.6013066 -0.99278486 -0.4420094
-0.85783327 -1.1685416 -1.1733059 -0.70357764 -1.0456272 -1.1018573 -0.090982944 -0.2640997
-0.87915885 -0.42069697 -1.0643167 -0.95105135 -0.79003406 -0.86533564 -1.1721542 -1.184104
-0.9569065 -0.46676597 -0.90208584 -0.9712359 -0.8906242 -0.9650037 -0.89161706 -0.81545615
-0.86619854 -0.5639795 -0.315963 -1.1505727 -1.0955075 -0.8492495 -0.36176464 -0.99824244
-0.9616157 -0.25432423 -0.9273069 -0.19121544 -1.1761433 -0.74090946 -0.23763502 -1.1705045
-0.19760515 -0.059007477 -1.1485023 -0.79469854 -1.1383917 -0.060402304 -1.0396379 -1.045036
-0.21803895 -0.0959192 -0.9466661 -1.06207 -1.2692723 -0.7613414 -0.99042714 -0.17400424
-0.9917844 -1.2784542 -1.0123065 -0.1231179 -0.8139344 -0.9038583 -1.1036291 -0.44155052
-0.97964203 -0.95647836 -0.09401849 -1.0896987 -1.1504811 -1.002121 -0.88943964 -0.8873901
-1.1143416 -1.0300096 -0.10251393 -0.096138865 -1.1291142 -0.4813078 -1.22026 -0.8253075
-1.065862 -0.09243923 -1.1926005 -0.19074206 -0.57137495 -1.0544254 -1.2218677 -1.2352732
-0.10716486 -1.1509485 -1.0054226 -1.0090019 -1.0925002 -1.1539191 -1.3155345 -0.63309324
-0.10430987 -0.8168572 -0.98719835 -0.8696793 -0.94523585 -1.0752177 -0.9290687 -0.9507512
-0.11073436 -0.9278973 -1.1104953 -0.92782843 -1.123397 -0.22461012 -1.0061438 -0.85289854
-1.1044354 -0.44124886 -0.86450744 -1.2667029 -0.9268816 -0.19300313 -0.9998781 -0.84143895
-0.8172246 0.2577741 -1.0240736 -1.084076 -0.8636621 -1.1755148 -0.48324764 -0.38237354
0.04951846 -0.19322255 -0.7798328 -0.99421877 -1.069417 -0.008941079 -0.8495258 -0.66929156
-1.1007816 -0.8880178 -0.91336286 -0.09419242 -1.0544498 -0.11104457 -0.10722586 -0.18647292
-0.46054873 -0.8872497 -0.8686577 -0.9282074 -1.3354533 -0.16647321 -0.108500816 -0.71884686
-1.1605774 -0.24079369 -0.54325604 -1.0685726 -0.82671654 0.02126303 -1.1174738 -0.10150354

fc_layers.2.weight f4 [128, 256]
00000000: d95b cbbe 6450 f6bd 50aa 02be 4c19 3bbd
00000010: f593 c9bd 6e14 02be 73d2 0abd 6403 183d
00000020: 7e71 6dbc 8294 45be 53ff 05be 7d92 f8bd
00000030: 235e 673c 8535 8cbe 7433 a3be 02ef 03be
00000040: 09e5 8a3c 012b b43d ddfc f63b 31b2 8abe
00000050: f45a 2dbd 6507 aabd 919a 5abe 2da5 cfbc
00000060: 79d0 88bc d4ae 21be 81c6 41be 8076 c5bc
00000070: 90f9 763d e5d2 44be 73bd 2dbe 81bc 8c3d
00000080: 6c1c b63c 2556 42be c704 efbe a267 c0bd
00000090: b390 093d 0bed c6bd 4428 6abd 0eed 1f3e
000000a0: 9095 6bbe 0ec2 893e 290c b7bd 38e5 a7bc
000000b0: a711 913d 5f8e b6bd 1ced 34be a6de c139
000000c0: 66f6 90bc 80a2 ddbe aa6c 0dbe 0b6c d23d
000000d0: 9780 6abd 9779 9a3d 217d 9cbe 8b29 f83c
000000e0: e0b1 833e 3ee6 8ebd dcbf 8bbd b6e7 1dbe
000000f0: 4d67 6abc 6e4a aebd b5f6 84bd 328f bdbc
00000100: d45f 113a 5875 bebd bee1 7e3e 2550 83be
00000110: 2964 15be 0d9f c0bd 94ff 12be 4a9d ccbd
00000120: d88f 7abe 2d5f e8bd 2b35 7fbe 43f4 163d
00000130: bf71 61be 8037 05be f8f9 b6be 8ce6 853d
00000140: 7999 2e3c e16e 2cbe 88f6 193d b3c9 9abc
00000150: d7df bfbb ccfc 5fbe 11ed 0f3d f593 443e
00000160: 185d 84be 7a87 123c aa2f 8f3b 3e46 a0be
00000170: a108 b5be 6510 9abe 3c9d f4bd 390c 663d
00000180: 37b0 8abd 7a4b 4d3e 6ad9 ecbd 2355 733e
00000190: 33da eabd d180 67bd 1fcf fdbd f890 2cbe
000001a0: de01 30bd db7a bdbe dfb6 b6be f9dc 19bd
000001b0: 67fb 423e 0afc 03be 2e32 d73d 7bc6 303e
000001c0: d278 e6bd 5098 87be f39d 39be 31fd f0bd
000001d0: 873d 5cbe 8ad6 93bd b486 283c 6b09 8bbe
000001e0: 3f91 b43d ad8a 0f3d b088 9e3b f44f 45be
000001f0: d556 2f3e fccd 0abe 0551 64be 0651 c3ba
00000200: 0c62 78bd 26a3 dfbe 1faa 303d 8937 80bd
00000210: d2b1 cebd 616e 49be 124d acbc 5b5c 81be
00000220: dbb5 3cbd b43d acbe dde7 b73d a45d f43d
00000230: ba3b 503e 5527 253e eeeb fa3d 0c1a 12bd
00000240: 3473 d2be 2d43 40be d841 80bc c13a aaba
00000250: fc89 0a3e 97d9 41be 23ef 40b8 5194 54be
00000260: 6ed2 a03c 046c 9cbd ffee 1bbe 0e79 b6be
00000270: f66b 4fbd 0b77 b4be dc55 863d f82f 1abe
00000280: 7bc8 053e abd7 1bbd 050c 643e 5a47 273e
00000290: 61a2 983d 9cfa 6b3e cebb 15be 438b 29be
000002a0: b84e 34bb c7e2 483e b719 03bc 19dd d8be
000002b0: e53d 923d faa8 d23d c130 523d f963 bdbd
000002c0: 5464 4cbe 1528 883d 2964 933d 3264 e8bd
000002d0: 5ff1 f23d 00c4 eabc a59f aebd c944 253e
000002e0: d3ec 86bd d7ff 9abc 979f c7bd 56e5 bc3d
000002f0: 87fe b73b 0998 323e b7f0 10be bc67 5ebe
00000300: 9199 a5bd 30ad b5bd 631a c03d d4fa 4ebe
00000310: 64d3 233e 5dcb 9abd ac7a e03d a157 afbd
00000320: c295 46bd 011f 00be 3c68 ad3d 5520 88be
00000330: 4d73 1a3e 2846 003d 549d 5dbe 00b2 89bc
00000340: 7de6 94be 5b6c 45be ca0e e63d 0afb 843d
00000350: 6e51 423e d216 97be fb63 793e 68f4 debc
00000360: a32d 25be 22af 93be d3f6 7d3d 20b7 0bbe
00000370: 1926 a3bd a5af 46bd 60f7 983d a2b4 88be
00000380: 02ad 3cbe 1b72 4dbe 672f 3cbe 7f5e adbc
00000390: 810a 3d3e 8a5a 9cbe 7d8f 9a3e 445e 3abe
000003a0: 04c8 d5be 1f02 d4bd aa09 803e 5eee 82be
000003b0: e34f dd3d 5906 febd 86fa dc3c 1bdd 6bbe
000003c0: 50e4 c1bd ef0c dc3d 3dab ad3d 7800 313e
000003d0: 488b 2c3e 3791 89be 5bc9 7dbe 1fde b0bd
000003e0: 2e87 04be aa33 303e 5848 eabd 05b0 18bd
000003f0: 9842 49be e0af 903a bf69 d63d 422d 0b3e
-0.39718512 -0.12027052 -0.12760282 -0.04567842 -0.09842674 -0.12703106 -0.033892106 0.03711261
-0.014492391 -0.19294932 -0.1308568 -0.121373154 0.014121565 -0.27384582 -0.31875193 -0.12884143
0.016954916 0.08797265 0.007537468 -0.27089074 -0.042323068 -0.08302192 -0.21348025 -0.025347317
-0.01670097 -0.15789348 -0.1892338 -0.024104357 0.060296595 -0.19221075 -0.169668 0.06871892
0.02223035 -0.18978174 -0.46683332 -0.093947664 0.03358526 -0.09713181 -0.057167307 0.15617773
-0.23006272 0.26905864 -0.08937866 -0.020495042 0.07083445 -0.08913874 -0.17668575 0.00036977715
-0.017695617 -0.4328804 -0.13810983 0.10274514 -0.05725154 0.07542723 -0.30564216 0.030293247
0.25721645 -0.06977509 -0.06823704 -0.15420422 -0.014306855 -0.0851029 -0.06492368 -0.02313957
0.00055455905 -0.09299725 0.24890801 -0.25647083 -0.1458899 -0.094053365 -0.14355308 -0.09990938
-0.24468935 -0.11346278 -0.24922626 0.03685404 -0.22016047 -0.13009453 -0.35737586 0.06538114
0.010656708 -0.16839172 0.037588626 -0.018895006 -0.005855541 -0.21873778 0.035138194 0.19197066
-0.25852275 0.008943433 0.0043696957 -0.3130359 -0.35358146 -0.30090633 -0.119440526 0.056164
-0.067718916 0.20048323 -0.11564906 0.23762946 -0.114673994 -0.056519333 -0.12393021 -0.16852176
-0.04297053 -0.37007794 -0.35686395 -0.03756425 0.19041215 -0.12889114 0.10507618 0.17263214
-0.112535134 -0.26483393 -0.18126659 -0.117670424 -0.21507846 -0.072186545 0.010286022 -0.27155623
0.08816766 0.03504436 0.0048380718 -0.19268781 0.17122968 -0.1355514 -0.22296531 -0.0014901466
-0.06064038 -0.4367916 0.04313099 -0.062605925 -0.1009251 -0.19671012 -0.021032844 -0.25265774
-0.04607187 -0.33640826 0.08979771 0.11931923 0.20335284 0.16128285 0.12252031 -0.03566937
-0.41103518 -0.18775626 -0.015656397 -0.0012987481 0.135292 -0.1893066 -4.599908e-05 -0.20759703
0.01963159 -0.0763779 -0.15227889 -0.35639232 -0.05064007 -0.35247073 0.06559345 -0.15057361
0.13064758 -0.038047474 0.2227021 0.16335812 0.07452846 0.23044819 -0.14622423 -0.1655703
-0.002751274 0.19617759 -0.008001736 -0.42356184 0.07140712 0.10286136 0.051316027 -0.09247584
-0.19960147 0.0664827 0.071968384 -0.11347236 0.11862444 -0.028657913 -0.085265435 0.1613952
-0.065881394 -0.018920822 -0.09747236 0.0922343 0.005615059 0.1744081 -0.14154325 -0.21719259
-0.08085931 -0.088709235 0.09380033 -0.20212871 0.15998608 -0.0755832 0.10960898 -0.08561636
-0.048482664 -0.12511827 0.08467147 -0.26587167 0.15083046 0.031316906 -0.21642047 -0.01680851
-0.290821 -0.19279616 0.112332895 0.064931944 0.18976375 -0.29509598 0.24354546 -0.027216151
-0.1613069 -0.28844553 0.062002968 -0.13644075 -0.07966251 -0.04850735 0.07469058 -0.26700312
-0.18425372 -0.20063059 -0.18377458 -0.021163223 0.18461038 -0.30537826 0.30187598 -0.18200022
-0.41754162 -0.10351967 0.25007373 -0.25572485 0.10806253 -0.124035545 0.026974928 -0.23033564
-0.09467375 0.107446544 0.08479927 0.17285335 0.16850007 -0.26868603 -0.24783842 -0.08636116
-0.12942192 0.17207208 -0.1143958 -0.03727724 -0.1965431 0.0011038743 0.10469388 0.13591483

fc_layers.2.bias f4 [128]
00000000: 7850 fdbd 6891 89be 13d4 bebd b9f9 0b3f
00000010: 7ddd 09bd e954 9d3f b573 8cbd 13c7 b9be
00000020: a60c 793f d9d7 4cbe cf31 003f c0e0 033f
00000030: 4c57 1ebf c492 bb3f 5903 0f3f 8484 83be
00000040: ae1f 8abe cd36 1cbe ce9d 963c b48f 31be
00000050: 0869 99be 2630 bfbd 9664 3ebe 99de 20be
00000060: 6b3d dcbe 88d3 5d3c 8692 febe 7457 35be
00000070: ff62 29bc 790a 353d 788c adbd f01c c63f
00000080: dca8 b2be 997d 4fbe a98e 9c3d 9f04 22bd
00000090: ad2d 05bd 1379 88bd 7f1a 983e 11c6 8abd
000000a0: 566c 25bd 5790 93bd d4e9 353f d7a9 c7bd
000000b0: 05a6 033f 26df 9abe d1ab e13b 86cb 03bd
000000c0: 6e66 7abe 2938 80be 4cc3 01bf a152 0d3f
000000d0: a3c4 ebbe 6c56 bebd 2d6b 4d3e 2013 afbe
000000e0: bf46 8dbd a08d 163f 4c79 2d3f af64 cbbd
000000f0: 3a9a 74be 7afe 50be 944b 35bd 3233 a83e
00000100: b651 293d f67a fc3d 57e1 233e 9289 763e
00000110: ab69 613f 574e e6be 56ef 80be 0dd0 b8bb
00000120: 697a 0ebe 63f2 ff3e 4f2f f9bd 8afd 8dbd
00000130: 8e98 dbbe 2c9d 56bc 5d12 633f d31b a83e
00000140: 04fe 69bc 0329 22bd c42d 2dbd 2fb6 c1bd
00000150: b154 963d a81a 86bd c581 a4bd 7d53 99bc
00000160: 3382 943e eb9c 8a3f 27ec 87be 5bf7 03be
00000170: 9721 0cbf 01c8 26be e0c1 743e a9d8 dd3d
00000180: 04d8 5abd ad57 873d b01a 34be 650e 42be
00000190: 5bba 383f 5d34 22bc 62ef de3c e94c 7e3f
000001a0: e7bc 5dbe 1ee5 7ebd 9ada debe d93d 883f
000001b0: 12db debd 3d98 f4bd 7ff1 e0bd 3fa3 82ba
000001c0: b86c 87bd e9e2 a93e 26cb 0a3e 1763 bdbc
000001d0: e915 94be f8e0 8ebe 1400 213f 2088 493e
000001e0: 051a 6c3f cbf1 d9be d453 c239 9721 4d3f
000001f0: 2d2f 043c 589d 30be 1384 86bd a9f7 e93e
-0.12368864 -0.2686875 -0.09317794 0.5467792 -0.033658493 1.2291538 -0.06858007 -0.36284694
0.97284925 -0.20004214 0.50076 0.51514816 -0.61851954 1.4654164 0.55864483 -0.2568704
-0.26977295 -0.1525528 0.018385794 -0.17339975 -0.29962945 -0.093353555 -0.18593058 -0.15709914
-0.43015608 0.0135392025 -0.49721164 -0.17709142 -0.010338544 0.04419944 -0.08474058 1.5477581
-0.34894454 -0.20262755 0.07644398 -0.03955519 -0.032514263 -0.06663718 0.29707715 -0.067760594
-0.04038652 -0.07205265 0.7105992 -0.09749191 0.514252 -0.30248374 0.006886937 -0.032176517
-0.24453136 -0.25042847 -0.50688624 0.55204207 -0.4604846 -0.092938274 0.20060416 -0.3419428
-0.06898259 0.5880985 0.6776321 -0.09931313 -0.23886958 -0.20409575 -0.04426153 0.3285156
0.04133769 0.123281404 0.16003929 0.24075916 0.8805186 -0.44981644 -0.251826 -0.005640036
-0.13913883 0.49989614 -0.121672265 -0.06933124 -0.42889827 -0.013098996 0.88699895 0.32833728
-0.014281753 -0.039589893 -0.042279974 -0.09458577 0.07340372 -0.06548053 -0.08032564 -0.018716568
0.29005584 1.0829138 -0.26547357 -0.12887327 -0.54738754 -0.16287233 0.23902082 0.1083234
-0.053428665 0.0660852 -0.17588305 -0.18950804 0.72159356 -0.00990018 0.027213756 0.99336106
-0.21654092 -0.062230222 -0.43526155 1.0643874 -0.10881628 -0.119431 -0.10983562 -0.0009966864
-0.06612533 0.3318093 0.13554057 -0.023118539 -0.28922966 -0.27906013 0.62890744 0.19680834
0.922272 -0.42567286 0.0003706502 0.8012938 0.008067888 -0.17247522 -0.0656816 0.45696762

fc_layers.4.weight f4 [5, 128]
00000000: 3b0a 283e 5a12 a63e cdb1 b1bc 77fa 6abe
00000010: 0d3e 92bd 0fe8 73be cc54 043d 6efd f73e
00000020: c3c9 8bbd c9d8 a63e cc65 c2bd 34bd e4bd
00000030: 8259 f53e 2a71 95be 75c5 bbbe cdd7 80be
00000040: b95e 9d3e bc97 bf3c ffb4 6dbe 922a b4bd
00000050: c246 a33e 15cd ebbd 8293 ec3d 1aad aebc
00000060: 5f92 3e3d bd38 893d 5381 c83e 247b e53d
00000070: 0ba1 0abd 64ca 7ebd ee15 d63c 0491 e6be
00000080: 1176 0e3f 7a94 67be b0a2 12ba 4733 8e3a
00000090: 106b abbc 5ce7 173d a327 96bd 0003 053e
000000a0: e807 fb3d 1ab0 5fbe 2d1a 3ebe 2c0b 65bd
000000b0: 4710 8fbd 655e 7cbc 1787 7c3c 37d2 843b
000000c0: f265 353d 6612 e43d b1ab 443e 771a e3bd
000000d0: b11d 0a3e f11e 41bd 5717 8bbd 9974 5e3b
000000e0: b64f 883a d28c 7abd 377c 15be 6530 e63d
000000f0: 7758 30bd 1ab2 033e b83f 5d3d d4e7 56be
00000100: 3403 49be d2cb 37be c807 34be 959e 11be
00000110: e482 70be 8ee5 7f3e 3e99 07bd 7565 2cbd
00000120: 87c9 30bd a891 833c b5da 533e 0f01 aa3d
00000130: 0813 0a3e f14b 6e3d c336 08be 83fa babd
00000140: 1fbb a23d 7913 a83d ffdc ea3b 92e8 e0bd
00000150: 9b9b 0f3b fd40 673c fa32 f53c 3e5c 6cbb
00000160: 3de5 92be 8048 b1bd 2350 4ebe 169f a13d
00000170: b597 2f3e bdc2 133d f0f5 e53b 04d8 ae3d
00000180: ef4b 763d f747 0dbe 0f34 fa3d 9226 41be
00000190: de2f 1abe 8ed4 1a3c 6e26 fd3c 58b8 68be
000001a0: ee57 07be eea8 533c f1c3 a7be 67e3 47be
000001b0: a718 5d3d b53d f23c 3506 77bc f24f f63b
000001c0: 9686 833e 55e2 00be 0ad8 65be efba d33c
000001d0: a11e 143e 6aa7 953e 5de6 adbd 8a23 c53c
000001e0: 50ca 5bbe 177b 8f3e d0a2 2fbe 2436 22be
000001f0: 31ff de3d 9f8b 003d 175a 603c bac1 a1bd
00000200: e0dc 9a3d 018d c53e 8452 333e 7593 92be
00000210: 999e 42be 1597 90be 70d6 ee3c 7538 ee3e
00000220: 41d9 abbd 1b32 a53e e55a 1fbe 7050 75bd
00000230: 9a4b 8b3e c592 30be 3f05 4bbe e9ce 37bd
00000240: 367d b53e 0316 55bd e18c 00be 770a 8dbc
00000250: 6a79 823e be06 a6bd 511d db3d 8209 1b3d
00000260: 2975 bd3d f065 8ebc 6d97 ae3e 83a3 8f3d
00000270: e8b0 183d 68e1 3ebe 6529 093d 6e2c 4fbe
00000280: 3459 ee3e 6776 36be 2ef9 2fbe c582 b53c
00000290: bf93 99bd c740 a03c 9f9d 933b d3ad 683d
000002a0: ea9a e6bd a873 e83d 2314 1bbe f4c1 f03c
000002b0: 628c 7bbd 5fad c73e f0a5 603d 976c 28bd
000002c0: 245b 853e ab82 813e ce56 943e 91e6 1bbe
000002d0: 5477 a43e 7e99 37bc a1df bcbd 3cda 2dbe
000002e0: 70c5 4d3d 9329 f2bd 15f4 e2bd 7d3a 3cbc
000002f0: cb95 713e 4194 cc3d 3a5f 6f3e cd4b bcbc
00000300: 2113 d03d 625c 23be 0a1a 7fbe e48e 82bd
00000310: a226 edbd 4db4 c23e fa3f 3abe 7c71 9c3d
00000320: 8fc3 4bbd 964c a7bb 6d97 823e fd9c 043d
00000330: f3c4 2a3e d96c 38bd 3b10 d1bd 51af 09be
00000340: bfa6 883d 69b3 393e b78d 49bd 4589 3dbc
00000350: 310a d13c 0eb6 06bd 68fb 2c3e 3948 283d
00000360: 9680 d8bd b649 27be 2c7b 67be 9ed8 f5bc
00000370: 9fd7 723e 2a4a 0e3e 6780 4cbc 645b acb9
00000380: bb61 3bbc 24dc 7fbe 55aa 9f3e e1c1 8a3d
00000390: 5c75 10be fe6c 56bd f2c7 e33d 84a2 5bbe
000003a0: 92d7 8a3d 8a41 93bd 1162 56be 2d4e 93bd
000003b0: ac54 ea3d f9f3 b33d a5b3 8c3b 892d 6e3b
000003c0: ddfa 8a3d 682a 06be 0f1c 60be 2293 70bd
000003d0: 05a4 8f3d d927 8f3e 3004 d1bd d75b 153e
000003e0: aee6 8abe 4d00 3b3e 2f0b 49be 63f2 94bd
000003f0: 5831 143e 6e6e 633d 43b4 13bb b2be 28be
0.16410153 0.32435876 -0.021691227 -0.22947107 -0.071407415 -0.23818992 0.03230743 0.4843554
-0.06825592 0.3258727 -0.094920725 -0.111689 0.47919852 -0.291879 -0.36674085 -0.25164643
0.3073633 0.023387782 -0.23213576 -0.08797182 0.3188992 -0.11513726 0.115515724 -0.021322776
0.04652631 0.06700275 0.39161167 0.11205128 -0.03384499 -0.062204733 0.026133504 -0.45032513
0.55648905 -0.22615233 -0.00055937003 0.0010849022 -0.020925075 0.037085876 -0.07331779 0.12989426
0.12257367 -0.21844521 -0.18564673 -0.055918857 -0.069855265 -0.015403365 0.015413067 0.00405338
0.044286676 0.11136322 0.1920612 -0.11089032 0.13487889 -0.04714865 -0.06791561 0.003394401
0.0010399732 -0.061169453 -0.14598165 0.11239699 -0.043053117 0.12860909 0.054015845 -0.20986873
-0.19630128 -0.17948845 -0.17581093 -0.1422065 -0.23487431 0.24989912 -0.033105128 -0.042088944
-0.04316094 0.016060665 0.20688899 0.08300983 0.13483822 0.058177892 -0.1330214 -0.091298126
0.07945847 0.08206839 0.007167458 -0.10981859 0.0021912816 0.0141146155 0.029931534 -0.0036065723
-0.2869052 -0.086564064 -0.20147757 0.07891671 0.17147715 0.03607439 0.0070178434 0.085372955
0.06013101 -0.13796984 0.12216961 -0.1886237 -0.15057322 0.009450091 0.030902114 -0.22726572
-0.13217136 0.012918694 -0.3276668 -0.19520341 0.05397859 0.02957044 -0.015077163 0.0075168544
0.25688618 -0.12586339 -0.22445694 0.025845973 0.14464809 0.2922929 -0.08491204 0.024064798
-0.21463895 0.28023598 -0.17151952 -0.15840966 0.10888518 0.031383153 0.013693354 -0.078982785
0.0756166 0.3858414 0.17511946 -0.28628126 -0.19005813 -0.28240266 0.029154986 0.46527448
-0.08391047 0.3226479 -0.15562017 -0.059891164 0.27206117 -0.17243488 -0.1982622 -0.04487506
0.3544709 -0.052022945 -0.12553741 -0.017216904 0.25483257 -0.08106755 0.10698951 0.037850864
0.09250862 -0.017382592 0.34099904 0.07013609 0.037278086 -0.18640673 0.033486743 -0.20231792
0.46552432 -0.17818604 -0.17184898 0.022157082 -0.074988835 0.019562138 0.004504874 0.056806397
-0.11260016 0.11350185 -0.151444 0.029389359 -0.061413176 0.3899946 0.05484575 -0.041119184
0.26046097 0.25295004 0.28972477 -0.15224673 0.3212229 -0.011206029 -0.09222341 -0.16977781
0.05023712 -0.11824336 -0.11081711 -0.011488554 0.23592298 0.09989215 0.2337617 -0.022985363
0.101598985 -0.1595321 -0.24912277 -0.063749105 -0.11579634 0.38028184 -0.18188468 0.07638833
-0.049747046 -0.0051055653 0.25506154 0.03237628 0.16676693 -0.04502568 -0.10208174 -0.13445784
0.06672429 0.18134846 -0.049207415 -0.011568372 0.025517555 -0.032888465 0.16892779 0.041084502
-0.10571401 -0.16336712 -0.2260558 -0.030010518 0.23715065 0.13895479 -0.012481785 -0.00032874488
-0.011436875 -0.2498632 0.3118464 0.06775261 -0.14107269 -0.052350037 0.11122121 -0.21448714
0.06779398 -0.07190235 -0.20935847 -0.07192645 0.11441931 0.087867685 0.0042938762 0.003634306
0.067861296 -0.13102114 -0.21885704 -0.058734067 0.07013706 0.2796009 -0.10205877 0.14585815
-0.2712912 0.18261833 -0.19633172 -0.07272794 0.14471948 0.055525236 -0.0022537864 -0.16478994

fc_layers.4.bias f4 [5]
00000000: 5892 2cbf 2357 34bf cd9b 33bf 9b21 31bf
00000010: 4a55 41bf
-0.674108 -0.7044546 -0.7015961 -0.691919 -0.75520766
