Custom_MARL-DroneDelivery/pickle/DQN.pth (torch, 353716 bytes, 6 tensors)

net.0.weight f4 [256, 49]
-0.3600733 -0.42250273 -0.39281505 -0.2742953 0.054130416 1.5548614 0.37058967 0.47325605
-1.4952981 0.49626616 0.41500762 -0.63045526 -0.09232309 0.053025726 0.041525126 -0.011221443
-0.019279635 0.01619477 0.047930565 0.36554593 0.071320795 -0.0034834999 0.56247807 0.016402263
-0.008734721 0.036592893 0.043321017 0.4400543 -0.11640968 -0.03344657 0.5495144 -0.0035261598
-0.081160545 0.056013674 0.11961457 0.33259702 -0.076809645 -0.004821948 0.40862942 0.03576219
0.5056472 -0.07530647 0.03743664 0.0767942 -0.106979154 -0.07129991 0.12278709 -0.03050806
-0.003911284 0.054433037 0.08773934 -1.1892686 0.22839218 -0.8836122 0.922691 -0.22932437
-0.19833127 -0.9670406 -0.20010407 -0.17258607 0.2183025 0.14077249 0.098780684 -0.006027869
0.108119495 -0.09675305 0.11856117 -0.085386366 -0.23188671 0.1074886 0.021825723 -0.19862309
0.124762185 -0.050734367 0.07898203 -0.12938195 -0.21812338 -0.12401702 0.05978181 -0.019361073
-0.11672237 0.13871068 0.009457759 0.09776392 -0.035992 -0.014862538 0.13220936 -0.18979344
-0.07041102 -0.04594216 0.100947216 0.09116003 0.13043638 0.14171158 -0.044484977 -0.05212256
-0.09587549 -0.05176888 -0.08343239 0.07378166 -0.049878743 0.059464756 -0.10849617 -0.09393648
0.0060154772 0.06202868 0.015668092 -0.1833372 -0.13345674 0.016039856 -0.12689269 -0.06043683
-0.116070464 0.13504061 0.033331156 0.11939324 -0.10316716 0.06861565 -0.10947076 0.07849138
-0.11419187 0.03663259 0.07611117 0.07766988 -0.12827075 0.08754649 0.07791679 0.07246931
-0.07005148 0.043945078 -0.12451726 -0.086549096 0.010299563 0.020742724 0.13987723 -0.10814987
-0.16750883 -0.12871355 -0.16758375 -0.09009166 0.03633746 0.041056618 0.07398854 -0.12110726
-0.06756878 0.037251253 0.002173046 -1.3014295 -0.049225282 1.7555083 -1.3986069 0.53486323
2.0317926 -0.08568553 -0.01377662 0.04553272 -0.051981952 0.13028598 -0.6845312 0.018620951
-0.11861492 -0.12793845 0.08682796 0.015524064 -0.04929231 0.03676493 0.12653105 -0.08137741
-0.003687995 0.02442739 0.057363205 -0.109479636 -0.0005020074 0.036333393 -0.11872081 0.12820756
0.11058498 0.064892255 -0.039359163 -0.01835016 -0.09263281 -0.023951242 -0.039430674 0.07207379
0.042883977 0.13665733 -0.042702354 0.0685154 -0.066439204 -0.0648519 -0.04339697 0.10247701
-0.0010226455 0.00026215828 0.06510234 -1.3940258 -0.0038453299 -0.106070414 0.106947534 -0.117780074
-0.16069566 -0.04408227 0.09738498 -0.113022216 0.16526146 -0.16433907 -0.12255032 -0.04811807
0.019357955 0.07512577 -0.1361664 -0.123359956 -0.06675508 0.12287161 -0.048563246 -0.06266591
-0.11484848 0.01632464 -0.001999991 0.084051356 0.010309339 0.004031284 0.069045566 -0.0036076854
0.038401436 -0.07849268 0.09516213 0.0368371 0.0807993 -0.02519686 0.1381851 -0.06647668
0.02486476 -0.036031537 -0.03379222 -0.02472629 -0.12258486 0.13423458 0.068852514 -0.005256551
-0.11173721 0.09779389 -0.13343498 -0.04112484 0.10164222 -0.07858002 -0.13926731 0.0945775
0.03886794 0.025594765 -0.049542975 0.08160888 -0.1551797 -0.024690373 -0.09607865 -0.12616298
00000000: 875b b8be 4752 d8be 0e1f c9be 6f70 8cbe
00000010: dbb7 5d3d b305 c73f eebd bd3e 9e4e f23e
00000020: ee65 bfbf 9916 fe3e e17b d43e 8465 21bf
00000030: e313 bdbd 8131 593d 4016 2a3d 25da 37bc
00000040: 53f0 9dbc e5aa 843c d752 443d d628 bb3e
00000050: a310 923d 6e4b 64bb 90fe 0f3f 0a5e 863c
00000060: 131c 0fbc 6ee2 153d 6171 313d cc4e e13e
00000070: 3368 eebd 45ff 08bd faac 0c3f 2517 67bb
00000080: 8037 a6bd 986e 653d 7cf8 f43d 284a aa3e
00000090: 604e 9dbd 6e01 9ebb e037 d13e 607b 123d
000000a0: 1872 013f 473a 9abd 2a57 193d 4746 9d3d
000000b0: e317 dbbd b005 92bd cc77 fb3d 0aec f9bc
000000c0: 3a2a 80bb 2df5 5e3d afb0 b33d f439 98bf
000000d0: a4df 693e 6934 62bf 7a35 6c3f 02d4 6abe
000000e0: 5a17 4bbe f98f 77bf 15e8 4cbe 67ba 30be
000000f0: b18a 5f3e aa26 103e 874d ca3d 6e85 c5bb
00000100: c16d dd3d 7726 c6bd 33d0 f23d 0cdf aebd
00000110: b673 6dbe fc22 dc3d dccb b23c da63 4bbe
00000120: 5183 ff3d d7ce 4fbd 55c1 a13d b47c 04be
00000130: bc5b 5fbe a3fc fdbd c5dd 743d 1d9b 9ebc
00000140: 230c efbd 2c0a 0e3e b7f4 1a3c 7338 c83d
00000150: 596c 13bd 0182 73bc e461 073e 3659 42be
00000160: a733 90bd d92d 3cbd 6abd ce3d 1cb2 ba3d
00000170: 1d91 053e d71c 113e e135 36bd 777e 55bd
00000180: 5e5a c4bd 9b0b 54bd 9ade aabd d71a 973d
00000190: a74d 4cbd 5191 733d 3d33 debd c561 c0bd
000001a0: 7b1d c53b c911 7e3d 5f5a 803c bfbc 3bbe
000001b0: e2a8 08be 0466 833c 28f0 01be 9c8c 77bd
000001c0: 5ab6 edbd 1648 0a3e 4086 083d 7184 f43d
000001d0: 4e49 d3bd 5d86 8c3d 3532 e0bd 17c0 a03d
000001e0: 6ddd e9bd 0e0c 163d 2ce0 9b3d 6311 9f3d
000001f0: 6859 03be 934b b33d d792 9f3d ca6a 943d
00000200: 2677 8fbd c1ff 333d e802 ffbd a740 b1bd
00000210: 80bf 283c a5ec a93c fa3b 0f3e ae7d ddbd
00000220: 6f87 2bbe 7ccd 03be 139b 2bbe fa81 b8bd
00000230: 97d6 143d fc2a 283d 4e87 973d 1507 f8bd
00000240: 8061 8abd c594 183d aa69 0e3b 3e95 a6bf
00000250: 73a0 49bd 7fb4 e03f 8d05 b3bf ccec 083f
00000260: e408 0240 e57b afbd 55b7 61bc 8480 3a3d
00000270: 07eb 54bd b069 053e 703d 2fbf f78a 983c
00000280: 61ec f2bd 4c02 03be dcd2 b13d a558 7e3c
00000290: bce6 49bd d396 163d 5b91 013e 33a9 a6bd
000002a0: 4ab2 71bb f31b c83c aef5 6a3d dc36 e0bd
000002b0: 2599 03ba 53d2 143d e523 f3bd d848 033e
000002c0: 617a e23d 3be6 843d 1337 21bd 1353 96bc
000002d0: 45b6 bdbd 6535 c4bc 0f82 21bd 6c9b 933d
000002e0: 1ca7 2f3d e6ef 0b3e aae8 2ebd cd51 8c3d
000002f0: 4711 88bd 13d1 84bd 05c1 31bd 77df d13d
00000300: 4a0a 86ba 4a72 8939 6054 853d 706f b2bf
00000310: ee01 7cbb 723b d9bd 4f07 db3d ae36 f1bd
00000320: 678d 24be 9c8f 34bd c771 c73d 3178 e7bd
00000330: 4d3a 293e 8048 28be aafb fabd 7417 45bd
00000340: 9394 9e3c 8adb 993d 346f 0bbe 25a4 fcbd
00000350: e3b6 88bd 1ca4 fb3d 41ea 46bd fc56 80bd
00000360: ae35 ebbd 40bb 853c 4812 03bb 1e23 ac3d
00000370: 80e8 283c dc18 843b c367 8d3d eb6e 6cbb
00000380: d34a 1d3d c5c0 a0bd 5de4 c23d 80e2 163d
00000390: 1a7a a53d a569 cebc 6580 0d3e ed24 88bd
000003a0: 2eb1 cb3c ce95 13bd b669 0abd ca8e cabc
000003b0: c50d fbbd ca74 093e 8c02 8d3d 253f acbb
000003c0: 7ad6 e4bd 2a48 c83d 2ea3 08be 8572 28bd
000003d0: cc29 d03d 90ee a0bd 179c 0ebe d9b1 c13d
000003e0: fd33 1f3d 1dac d13c 93ed 4abd 8e22 a73d
000003f0: 6de7 1ebe 7743 cabc e2c4 c4bd de30 01be

net.0.bias f4 [256]
0.38099214 -0.13518855 0.0348279 0.09577998 0.01822027 -0.13911027 -0.11257895 -0.50302434
-0.07383366 -0.15365306 -0.4615787 -0.04576264 -0.24053293 -0.20779873 0.29687294 -0.22133851
0.23379576 -0.07351142 0.13786575 -0.5155061 -0.18165661 -0.06742816 0.21535493 0.08175485
0.058522645 -0.37972933 -0.29304963 -0.03969183 0.005275584 -0.081767246 0.116759494 0.5712275
-0.10126747 -0.14101599 -0.050525703 0.18530111 -0.6867444 -8.568415e-05 0.3150873 -0.4929782
-0.031631283 -0.056203917 -0.23650783 0.17040768 -0.30815816 -0.5726937 -0.11283209 0.01236254
-0.15186575 -0.28206724 0.14892131 0.07172914 -0.3939151 -0.056912016 -0.042519726 -0.4557867
-0.062470797 0.22121206 -0.26410738 -0.19883908 -0.035716817 0.22276327 0.043463368 -0.16440675
-0.14189242 -0.35116807 0.18178351 0.035937894 -0.24349245 -0.18313994 -0.06538632 0.27980974
-0.077163525 0.03331106 -0.043534126 0.28020668 -0.026119601 -0.4708189 -0.24888603 -0.40710685
-0.78891355 -0.07493076 0.07304118 -0.071236506 0.03052609 -0.14070894 -0.16117454 0.112072885
-0.032749306 -0.49142545 0.18284377 0.05235513 -0.2395549 0.15713026 -0.29649025 -0.3608292
-0.12604868 -0.4625396 -0.25633448 -0.1293262 -0.21599032 -0.3840278 -0.3047002 -0.10929231
-0.12509142 -0.074490495 -0.49865788 -0.26620156 0.14137153 0.33277255 0.00508313 -0.21390142
-0.09259849 0.088029236 -0.14363737 -0.03563756 -0.15706545 -0.13658974 -0.6032922 -0.2796847
-0.110093534 -0.5579724 -0.009577407 0.07723391 0.018764662 -0.38833046 0.12559153 -0.17835218
-0.39419067 0.12520142 0.0162592 -0.056531347 0.15923738 -0.08190915 0.048023686 -0.04972692
-0.1733253 -0.5220709 0.27285182 0.26565713 -0.37296838 -0.49169615 -0.51887405 -0.019836187
-0.4375535 -0.0046250327 0.5492624 -0.3913716 -0.2351308 -0.045053605 -0.4335887 -0.15670945
-0.19558282 -0.15413201 -0.3198058 -0.2554877 -0.004963529 -0.14779931 0.13299985 0.03944652
-0.1505161 -0.10704663 -0.46125287 0.0034121107 0.20231085 -0.08638118 -0.29315516 -0.101583555
-0.68333596 -0.18297209 -0.080861986 -0.0061694863 -0.61674565 0.33914945 -0.15406345 -0.52558273
-0.3726248 0.33829066 -0.16103348 -0.22878052 0.0763478 -0.012558653 -0.4216828 -0.45212263
-0.23249093 -0.0127216885 -0.6642205 0.10188494 -0.22996204 -0.11411218 -0.092784666 -0.44351953
-0.12761718 0.2183303 -0.12935302 -0.16821028 -0.41208854 0.016553538 -0.44095334 0.037787404
-0.017114675 -0.20665325 -0.10045707 -0.08128133 -0.44443122 0.12519626 0.2060566 0.09645446
0.3151617 -0.53036624 -0.053201232 -0.28196055 0.012239678 0.13362284 0.12855095 -0.059114818
0.25160283 0.019417252 0.059909064 0.33208928 0.3055497 0.11132941 0.5564513 -0.028982958
-0.34358642 0.11133 -0.10537961 -0.36485383 -0.532116 0.3885625 0.24377131 0.16895318
-0.21566357 -0.5183402 -0.48817855 0.30339646 0.52140355 -0.16766772 -0.40283275 -0.30806673
-0.093922146 0.3513394 -0.17084026 -0.0075387787 -0.4086034 -0.30344397 -0.18671007 0.057437822
-0.46313816 0.34032875 -0.15894774 -0.2099472 0.0025961942 -0.027839849 -0.09840584 0.1090162
00000000: 6711 c33e de6e 0abe b3a7 0e3d 4b28 c43d
00000010: ad42 953c ec72 0ebe cb8f e6bd 34c6 00bf
00000020: 1a36 97bd 3a57 1dbe 0b54 ecbe 9b71 3bbd
00000030: 444e 76be 31c9 54be bbff 973e 90a6 62be
00000040: 2868 6f3e 288d 96bd ae2c 0d3e 35f8 03bf
00000050: 3104 3abe c617 8abd 0186 5c3e 166f a73d
00000060: 71b5 6f3d e26b c2be 9a0a 96be e693 22bd
00000070: cede ac3b 9675 a7bd 9a1f ef3d f73b 123f
00000080: 5265 cfbd 7f66 10be 0af4 4ebd 93bf 3d3e
00000090: 7bce 2fbf 54b1 b3b8 1f53 a13e a367 fcbe
000000a0: ce8f 01bd 1436 66bd 1c2f 72be 5a7f 2e3e
000000b0: e8c6 9dbe 0e9c 12bf 8314 e7bd 408c 4a3c
000000c0: b282 1bbe 1e6b 90be d47e 183e bae6 923d
000000d0: 3daf c9be 931c 69bd 2a29 2ebd e05c e9be
000000e0: 61e1 7fbd 6a85 623e 1539 87be 799c 4bbe
000000f0: cc4b 12bd 0e1c 643e a506 323d 3e5a 28be
00000100: 3f4c 11be 4dcc b3be 7525 3a3e 9d33 133d
00000110: 1656 79be 0989 3bbe 43e9 85bd 3943 8f3e
00000120: e907 9ebd 2e71 083d d750 32bd 4077 8f3e
00000130: c6f8 d5bc 2d0f f1be fbdb 7ebe 4f70 d0be
00000140: 3df6 49bf 4c75 99bd 9d96 953d 72e4 91bd
00000150: da11 fa3c 0116 10be f00a 25be 7886 e53d
00000160: 2324 06bd 1e9c fbbe 663b 3b3e 5572 563d
00000170: e14d 75be c1e6 203e 92cd 97be 9bbe b8be
00000180: e812 01be fed1 ecbe 463e 83be 166e 04be
00000190: 912c 5dbe 4b9f c4be aa01 9cbe a6d4 dfbd
000001a0: f717 00be 798e 98bd 1650 ffbe 924b 88be
000001b0: b3c3 103e 2a61 aa3e 6390 a63b f908 5bbe
000001c0: 47a4 bdbd ac48 b43d ad15 13be b1f8 11bd
000001d0: c4d5 20be 2ede 0bbe 5c71 1abf d532 8fbe
000001e0: b878 e1bd 47d7 0ebf 8eea 1cbc d02c 9e3d
000001f0: 59b8 993c 40d3 c6be 119b 003e f4a1 36be
00000200: 5cd3 c9be cd34 003e 0432 853c 6a8d 67bd
00000210: 200f 233e fcbf a7bd 7cb4 443d 74ae 4bbd
00000220: 307c 31be 70a6 05bf 3cb3 8b3e 3604 883e
00000230: b6f5 bebe 99bf fbbe eed4 04bf 807f a2bc
00000240: 0307 e0be 968d 97bb 769c 0c3f dc61 c8be
00000250: 21c6 70be 218a 38bd 57ff ddbe 7178 20be
00000260: dd46 48be c8d4 1dbe 96bd a3be 49cf 82be
00000270: 19a5 a2bb b458 17be 1d31 083e ad92 213d
00000280: e420 1abe 433b dbbd 5629 ecbe b89d 5f3b
00000290: 932a 4f3e 9ee8 b0bd 6f18 96be 0a0b d0bd
000002a0: 1bef 2ebf 095d 3bbe f89a a5bd 6729 cabb
000002b0: 0be3 1dbf ffa4 ad3e cfc2 1dbe 978c 06bf
000002c0: aec8 bebe 6f34 ad3e f6e5 24be 7145 6abe
000002d0: 3c5c 9c3d cfc2 4dbc cfe6 d7be 9e7c e7be
000002e0: 1a12 6ebe a16e 50bc 5b0a 2abf 0da9 d03d
000002f0: 2b7b 6bbe a6b3 e9bd e305 bebd fe14 e3be
00000300: 14ae 02be fa91 5f3e 1e75 04be 513f 2cbe
00000310: 45fd d2be 499b 873c a3c4 e1be f7c6 1a3d
00000320: 1334 8cbc e99c 53be 70bc cdbd d376 a6bd
00000330: 7d8c e3be 7333 003e 8000 533e ea89 c53d
00000340: e05c a13e 15c6 07bf 89e9 59bd 225d 90be
00000350: ee88 483c 6dd4 083e dca2 033e 6122 72bd
00000360: 16d2 803e ee10 9f3c 3563 753d 9b07 aa3e
00000370: 0371 9c3e ac00 e43d 9873 0e3f ab6d edbc
00000380: 8fea afbe fc00 e43d 44d1 d7bd 1fce babe
00000390: c138 08bf aaf1 c63e 309f 793e 1002 2d3e
000003a0: e9d6 5cbe f1b1 04bf 8af2 f9be c856 9b3e
000003b0: b47a 053f 16b1 2bbe 1840 cebe ecba 9dbe
000003c0: 415a c0bd c2e2 b33e c0f0 2ebe dc07 f7bb
000003d0: 7734 d1be 025d 9bbe ed30 3fbe ec43 6b3d
000003e0: 7220 edbe 923f ae3e 32c3 22be 66fc 56be
000003f0: e924 2a3b 6510 e4bc 0089 c9bd e343 df3d

net.2.weight f4 [256, 256]
0.16089348 -0.6047069 -0.031857975 0.33291966 0.01566493 -0.04901643 0.028420435 -1.169638
-0.006647922 0.851456 0.0038471713 0.63811105 0.22667912 0.0644024 -0.09324894 1.1727827
-4.1749787 0.062304694 -1.4010394 -1.5731928 -1.2609768 -3.3461065 -0.26110062 0.05183172
0.84725267 -2.1872082 -0.51198596 0.6532814 0.3776128 -0.0030722928 -0.08350905 -3.665682
-0.11364787 0.056491353 0.039424896 -1.0395434 -0.95777345 0.10079125 -0.5558741 0.05334038
0.1303837 0.0060367314 -0.035314124 -0.42600638 0.84514546 -2.143746 0.24160518 0.28634772
-1.5346438 -0.6194029 1.3662233 0.74328345 -5.2835 -0.011106983 0.04081689 0.024314784
0.022985496 -2.456345 -2.2223897 -0.6302981 0.14166345 0.06978131 -0.055934884 -0.014028937
-0.046950426 -0.7128246 0.18923989 -0.28451225 0.77731466 1.434082 0.04886607 1.3502656
-0.21760848 -0.7015943 0.0028418228 -4.9558043 -0.41788495 -0.57430196 -1.3505838 -0.51339126
0.16901372 -4.219694 -0.52355856 0.021836156 -0.90643597 -0.85213214 0.06902003 0.036310934
0.20551923 -2.7349486 -0.67629987 -3.295644 0.16752802 -0.061238773 -0.2962528 -0.1294618
-2.4877272 0.35212326 -0.37465325 0.3422871 -0.22239633 -4.4257293 0.2545089 -0.028844483
0.049623337 -0.012072198 -1.4903613 -0.8590398 -0.94312376 -0.40684998 -0.29130962 0.34259278
0.022676602 -0.5452544 0.034320496 0.8808153 -0.83012265 -1.3584963 -0.8045598 0.74827725
0.03089393 -0.35699087 -1.3091581 0.02579311 -0.044123016 -2.461117 -0.29896635 1.23446
-1.4585353 0.11742795 0.46658364 -0.0048564672 -0.53285575 -0.0023247919 -0.59769535 -0.046164718
-2.6118042 1.2382655 0.64962226 -0.11012809 -0.07161565 -2.3790433 -3.6485438 -1.7378212
0.7492623 -0.3783102 -0.88066965 -1.1618669 -1.0635915 -0.0011005286 -2.1364055 -0.8091883
-2.628952 -0.010116808 0.2735673 1.670572 0.010763841 -0.029699177 -0.024916008 -2.2636552
0.031927314 0.05856005 -2.4174159 0.001912991 -1.0818651 0.02551274 -0.36946955 0.98190755
-0.32535765 -4.478997 -0.90652126 0.055978797 1.550479 0.035361286 -0.080071546 -0.91789144
0.059016787 0.19576082 -2.2069786 0.2952557 0.057034507 -0.90027493 -1.8988811 -0.87691605
0.5081725 0.01826457 -1.2518376 -0.010051369 -0.38050285 0.006196188 0.0021868125 1.4430448
1.386306 -0.16899602 -0.059417307 -1.1933678 -0.7158764 -0.652113 0.6564475 -0.001652658
-0.013182744 0.10226192 1.5323195 0.0034827217 -2.4413607 -0.81357014 0.00096363656 -0.044854112
1.29793 -0.20567556 -0.8971373 -1.8144717 -3.4890077 -0.061223373 -0.17323971 0.053664736
0.07720567 0.06255844 -0.019207893 2.3563852 1.2773503 1.2067152 -0.06625841 0.009406054
1.1115359 -0.8304888 0.05960276 -3.3237236 -0.45317277 -0.11423344 -0.4244514 0.09253412
-1.0114416 -0.73659086 1.3956119 -1.0526661 0.28464806 -0.66044766 -5.431143 -2.1358325
0.026283298 -0.0115520395 0.07016706 0.045859694 0.27725303 -0.80887157 -2.6050036 -0.023746982
-2.8910546 0.8926937 -3.2699103 -3.202052 0.32166782 -0.00038275123 0.06139747 -0.039206803
00000000: 43c1 243e 12ce 1abf 827d 02bd 7274 aa3e
00000010: bd53 803c 74c5 48bd f9d1 e83c b3b6 95bf
00000020: d0d6 d9bb 05f9 593f d320 7c3b 3f5b 233f
00000030: 921e 683e 68e5 833d 4df9 bebd be1d 963f
00000040: 6d99 85c0 3533 7f3d 4255 b3bf 625e c9bf
00000050: b067 a1bf 9c26 56c0 fbae 85be 7f4d 543d
00000060: 8de5 583f 38fb 0bc0 8311 03bf 733d 273f
00000070: 7756 c13e 8558 49bb cb06 abbd 899a 6ac0
00000080: 37c0 e8bd 7a63 673d 007c 213d c20f 85bf
00000090: a430 75bf a56b ce3d c44d 0ebf 717b 5a3d
000000a0: 4e83 053e c6cf c53b 8ba5 10bd 821d dabe
000000b0: 745b 583f 2233 09c0 5967 773e 2b9c 923e
000000c0: 356f c4bf 3091 1ebf 68e0 ae3f d347 3e3f
000000d0: 6f12 a9c0 10fa 35bc 9c2f 273d cc2f c73c
000000e0: 144c bc3c c234 1dc0 a23b 0ec0 375b 21bf
000000f0: 3910 113e 81e9 8e3d fa1b 65bd a0d9 65bc
00000100: 174f 40bd ac7b 36bf 1ac8 413e 97ab 91be
00000110: 18fe 463f 0090 b73f ca27 483d 81d5 ac3f
00000120: c2d4 5ebe af9b 33bf e03d 3a3b f395 9ec0
00000130: 04f5 d5be 7405 13bf eedf acbf 9c6d 03bf
00000140: ef11 2d3e bc07 87c0 ef07 06bf bde1 b23c
00000150: 300c 68bf 5525 5abf 605a 8d3d c6ba 143d
00000160: a273 523e 6609 2fc0 fd21 2dbf d5eb 52c0
00000170: 778c 2b3e 82d5 7abd 72ae 97be a291 04be
00000180: ec36 1fc0 8049 b43e 8dd2 bfbe 4140 af3e
00000190: ddbb 63be 939f 8dc0 fe4e 823e 444b ecbc
000001a0: d741 4b3d 78ca 45bc 29c4 bebf 08ea 5bbf
000001b0: 8f70 71bf a44e d0be 8926 95be 5268 af3e
000001c0: 48c4 b93c cb95 0bbf a693 0c3d 1d7d 613f
000001d0: eb82 54bf 35e3 adbf a2f7 4dbf 198f 3f3f
000001e0: 4415 fd3c 82c7 b6be 7e92 a7bf 124c d33c
000001f0: 56ba 34bd f182 1dc0 1e12 99be c902 9e3f
00000200: 49b1 babf 117e f03d 0de4 ee3e 0023 9fbb
00000210: 3c69 08bf 895b 18bb 9002 19bf 3717 3dbd
00000220: cd27 27c0 7c7f 9e3f a54d 263f d68a e1bd
00000230: 3aab 92bd 3f42 18c0 be81 69c0 ed70 debf
00000240: a7cf 3f3f e0b1 c1be 9173 61bf 0eb8 94bf
00000250: c423 88bf 9d3f 90ba deba 08c0 f726 4fbf
00000260: c040 28c0 f8c0 25bc 0311 8c3e 4ed5 d53f
00000270: d25a 303c b04b f3bc a81c ccbc badf 10c0
00000280: 37c6 023d aadc 6f3d f1b6 1ac0 54bd fa3a
00000290: 8e7a 8abf 1800 d13c 1d2b bdbe 4b5e 7b3f
000002a0: 4795 a6be f253 8fc0 c711 68bf 064a 653d
000002b0: 1976 c63f ffd6 103d 8dfc a3bd effa 6abf
000002c0: 96bb 713d 8675 483e 233f 0dc0 c12b 973e
000002d0: 049d 693d 6b78 66bf 890e f3bf 927d 60bf
000002e0: 9817 023f 949f 953c 373c a0bf 7fae 24bc
000002f0: 45d1 c2be 6409 cb3b a050 0f3b b1b5 b83f
00000300: 7a72 b13f 4b0d 2dbe 905f 73bd 47c0 98bf
00000310: ad43 37bf e1f0 26bf f20c 283f 009e d8ba
00000320: 70fc 57bc b36e d13d 0c23 c43f 603e 643b
00000330: 413f 1cc0 2246 50bf 8e9c 7c3a f2b8 37bd
00000340: 9222 a63f 9d9c 52be caaa 65bf 9c40 e8bf
00000350: e74b 5fc0 5cc5 7abd c065 31be 8ecf 5b3d
00000360: 021e 9e3d a41e 803d df59 9dbc 04cf 1640
00000370: 3780 a33f a575 9a3f 7db2 87bd da1b 1a3c
00000380: cf46 8e3f ea9a 54bf 0622 743d e3b7 54c0
00000390: 4306 e8be 39f3 e9bd b251 d9be 8782 bd3d
000003a0: eb76 81bf 3891 3cbf 69a3 b23f c3bd 86bf
000003b0: 64bd 913e 1913 29bf eccb adc0 7bb1 08c0
000003c0: 1250 d73c c444 3dbc bfb3 8f3d 60d7 3b3d
000003d0: 1cf4 8d3e 3512 4fbf 61b8 26c0 0889 c2bc
000003e0: 0a07 39c0 9387 643f 3646 51c0 6cee 4cc0
000003f0: a5b1 a43e 00ac c8b9 ea7b 7b3d 5097 20bd

net.2.bias f4 [256]
0.033991475 0.00033320213 -0.103620164 -0.0068102614 -0.057054583 -0.07207716 -0.027919555 -0.29827768
-0.6053778 -0.35385334 -0.034047768 0.9874304 -0.039512087 0.80423325 0.495516 -0.06330576
-0.24385557 -0.124731936 -0.06519058 0.015534376 -0.04840623 0.14136702 -0.057728644 -0.034515847
-0.013536472 -0.029106375 -0.61609846 0.012802154 -0.069515765 -0.07801671 -0.061933164 0.057118718
-0.0143946875 0.01332013 -0.041250788 0.10834241 0.018864438 -0.40000194 -0.056278285 0.071557865
-0.007052636 -0.058527082 -0.08939624 -0.01152606 -0.01565894 -0.05575345 0.448166 -0.08100744
-1.0175257 0.018711764 -0.24268024 0.36296842 -0.08461343 -0.50360245 0.52115613 0.41674086
0.5847581 -0.022485806 -0.010299289 0.0016562535 0.39326885 -0.25195503 1.1330194 -0.010916944
0.33036274 -0.08033787 -0.21920933 -0.34514314 -0.07482919 0.0030333665 -0.021114023 -0.580545
0.46516767 -0.07566176 0.9532327 -0.13167275 0.17279892 0.024263503 -0.108336195 0.00651019
0.80408823 0.0108209355 -0.009812999 0.43093562 0.012239095 0.38291976 -0.14901936 -0.016418649
-0.08879621 -0.21909212 0.32801548 -0.3396007 0.2330001 0.0030528202 -0.038217425 -0.023263967
-0.069608435 0.6632794 -1.0618407 0.0012274093 -0.10369929 0.026651535 0.041832805 0.028091386
0.23215131 -0.09578767 0.060966678 -0.306539 0.98830885 0.9979541 0.009820951 -0.041857626
0.026192727 0.29912156 0.44970667 -0.034918524 -0.16953309 0.0074247625 -0.03288431 -0.6651349
-0.075709 -0.094707794 0.32165378 0.2804912 0.025900563 -0.5568841 0.08907607 0.10137402
0.17384593 0.0202099 -0.4103658 -0.17808655 -0.8753339 -0.04931312 0.024390092 0.5098606
-0.113574885 0.0029321993 0.13737153 -0.008126934 -0.08667673 0.27556512 0.036121365 0.04563203
0.21986476 0.49359116 0.007365123 0.03956488 -0.051092323 -0.35441566 0.16188022 -0.014643469
-0.072129965 0.80848294 0.027215695 0.042496484 -0.3285684 0.17283638 -0.82198167 -0.19401525
0.2183783 0.039420582 0.081682175 0.018431026 0.12169053 0.13757768 -0.0806203 -0.08819398
0.015939277 -0.047786914 -0.021069482 0.57948107 0.32468563 -0.21411471 0.01003878 -0.02270136
-0.07641631 -0.4145551 -0.016730249 -0.074859254 -0.12728646 0.3319279 0.62540966 -0.03925804
0.29611287 -0.035379592 -0.057031285 -0.44973072 -0.07969508 1.2388464 -0.32427028 -0.08948777
-0.0520269 -0.07551637 0.013757995 -0.018628435 -0.12732452 -0.02925111 -0.07798523 0.9981928
0.45583192 -0.04733395 -0.0018675486 -0.2935404 -0.55485445 0.99510944 -0.23594753 -0.07389223
-0.077137925 -0.059547972 0.3528453 -0.005397053 -0.77309823 -0.06205667 0.24606913 0.10994191
0.2414025 0.03678353 0.80045676 0.38777083 0.026274838 0.05982257 0.03668202 0.2626285
0.13796902 0.19280863 0.04571226 -0.04979379 -0.07848578 0.27491036 -0.017110616 -0.050459433
0.54285115 -0.07124887 -0.0655406 -0.0036096575 0.022261899 -0.06943968 0.015932847 -0.09363937
-0.36377716 -0.045623347 -0.038788877 1.4421666 0.014744029 -0.4449682 -0.089879915 -0.033889495
-0.03567333 -0.05058556 -0.22877389 0.37919012 0.0095418375 -0.037021287 -0.04932665 0.9513863
00000000: a53a 0b3d a2b1 ae39 cf36 d4bd 9d28 dfbb
00000010: 11b2 69bd 319d 93bd 8db7 e4bc dab7 98be
00000020: 0afa 1abf 442c b5be ac75 0bbd 3dc8 7c3f
00000030: 6dd7 21bd 3be2 4d3f 46b4 fd3e 73a6 81bd
00000040: 46b5 79be 7573 ffbd a482 85bd e583 7e3c
00000050: 9c45 46bd 84c2 103e df74 6cbd 7d60 0dbd
00000060: 14c8 5dbc 7e70 eebc a1b8 1dbf 20c0 513c
00000070: 485e 8ebd 3ac7 9fbd a1ad 7dbd 51f5 693d
00000080: b2d7 6bbc ad3c 5a3c 96f6 28bd a0e2 dd3d
00000090: 9889 9a3c 0ecd ccbe 0f84 66bd ee8c 923d
000000a0: cc19 e7bb 18ba 6fbd 6015 b7bd cdd7 3cbc
000000b0: 2d47 80bc bb5d 64bd 0476 e53e 3be7 a5bd
000000c0: 483e 82bf 6a49 993c 2b81 78be ffd6 b93e
000000d0: ce49 adbd 17ec 00bf 7d6a 053f 0f5f d53e
000000e0: b5b2 153f 2734 b8bc 59be 28bc a516 d93a
000000f0: 895a c93e 4000 81be c806 913f fbdc 32bc
00000100: 4e25 a93e 2e88 a4bd 6978 60be 9ab6 b0be
00000110: 0c40 99bd 72cb 463b 51f7 acbc 999e 14bf
00000120: 752a ee3e 8ef4 9abd 0f07 743f 39d5 06be
00000130: 33f2 303e 41c4 c63c 5edf ddbd 6f53 d53b
00000140: bad8 4d3f 4b4a 313c b3c6 20bc 98a3 dc3e
00000150: 7c86 483c 0f0e c43e 8898 18be 6780 86bc
00000160: cada b5bd af59 60be a5f1 a73e 25e0 adbe
00000170: 9497 6e3e d311 483b e089 1cbd 1394 bebc
00000180: de8e 8ebd aecc 293f 65ea 87bf 06e1 a03a
00000190: 4b60 d4bd 5254 da3c e058 2b3d e81f e63c
000001a0: 13b9 6d3e 532c c4bd 32b8 793d aef2 9cbe
000001b0: cf01 7d3f eb79 7f3f 0ee8 203c e772 2bbd
000001c0: 2192 d63c 7626 993e f43f e63e ba06 0fbd
000001d0: 159a 2dbe 6c4b f33b b3b1 06bd 4846 2abf
000001e0: 520d 9bbd 29f6 c1bd ceaf a43e 8b9c 8f3e
000001f0: 6b2d d43c f58f 0ebf 846d b63d 2f9d cf3d
00000200: ab04 323e 3b8f a53c 771b d2be 525c 36be
00000210: e215 60bf 8efc 49bd bbcd c73c 3986 023f
00000220: f399 e8bd 242a 403b 1fab 0c3e d526 05bc
00000230: 9283 b1bd df16 8d3e fff3 133d a7e8 3a3d
00000240: 3a24 613e fbb7 fc3e 2157 f13b c90e 223d
00000250: 2f46 51bd f875 b5be eec3 253e 29eb 6fbc
00000260: e0b8 93bd bdf8 4e3f 73f3 de3c cb10 2e3d
00000270: 1e3a a8be 05fc 303e 646d 52bf efab 46be
00000280: 909e 5f3e 7a77 213d fc48 a73d aafc 963c
00000290: e238 f93d 2ae1 0c3e 411c a5bd 0c9f b4bd
000002a0: 1693 823c 36bc 43bd e899 acbc df58 143f
000002b0: 323d a63e e340 5bbe b279 243c 34f8 b9bc
000002c0: 2880 9cbd 9140 d4be e00d 89bc cf4f 99bd
000002d0: 6257 02be 74f2 a93e d91a 203f 0acd 20bd
000002e0: 1b9c 973e 31ea 10bd a399 69bd 1b43 e6be
000002f0: 2d37 a3bd 8592 9e3f c106 a6be 5d45 b7bd
00000300: 291a 55bd 54a8 9abd 3769 613c a99a 98bc
00000310: 5c61 02be 06a0 efbc b8b6 9fbd 9089 7f3f
00000320: cd62 e93e 3ee1 41bd 88c8 f4ba ed4a 96be
00000330: f10a 0ebf 7ebf 7e3f 3b9c 71be cf54 97bd
00000340: 7dfa 9dbd 93e8 73bd 24a8 b43e c3d9 b0bb
00000350: c4e9 45bf 232f 7ebd 8cf9 7b3e 3929 e13d
00000360: 3832 773e 54aa 163d bcea 4c3f e689 c63e
00000370: 543e d73c 8308 753d e33f 163d 3e77 863e
00000380: c047 0d3e a06f 453e c73c 3b3d 93f4 4bbd
00000390: 27bd a0bd 0dc1 8c3e 902b 8cbc 8dae 4ebd
000003a0: 4bf8 0a3f edea 91bd 263a 86bd 0190 6cbb
000003b0: 965e b63c 6436 8ebd 9a85 823c ffc5 bfbd
000003c0: 0041 babe 8cdf 3abd 16e1 1ebd ea98 b83f
000003d0: f190 713c dfd2 e3be f612 b8bd b6cf 0abd
000003e0: 331e 12bd ce32 4fbd b443 6abe 3525 c23e
000003f0: 5e55 1c3c a2a3 17bd be0a 4abd 0d8e 733f

net.4.weight f4 [36, 256]
0.3469003 0.091206625 0.05369716 0.016177222 -0.013434991 -0.08342007 -0.03871683 -0.52971154
0.10032136 -1.0387028 -0.014306031 0.70393497 0.4618462 0.70840687 0.56766963 -0.048112676
-0.37643784 1.4983816 -0.03207886 -0.02564758 0.014127063 0.44213432 -0.038924076 -0.0013359148
-0.06320965 0.03769764 0.047180906 0.3612303 0.01710441 -0.009004786 0.0835753 0.4279666
0.030126654 -0.01975216 -0.038993947 -0.48006114 0.37846076 0.77000874 -0.05698854 -0.020471737
-0.057437975 -0.9990501 -0.101001665 0.099324994 -0.02677615 -0.044998083 -0.648749 0.046999007
0.07881977 0.040921792 -1.310031 -0.07377878 -0.020353526 -0.08591381 0.74802786 0.50494474
0.5370362 0.021522962 0.06576335 0.027969927 0.7976922 0.94831586 1.0474322 -0.057488136
0.034939438 0.02177046 0.08804285 -0.21823134 0.0025112317 0.012148698 -0.046929955 0.88395804
0.44216973 -0.04885868 0.8562165 0.018861046 0.5156975 0.002749569 0.07042085 -0.05872287
0.7959535 -0.017820574 0.02520868 0.98395514 0.017329765 0.0764057 1.0794718 0.042190798
0.016791545 -0.08145949 0.30637863 -0.14064255 0.5194103 -0.02379904 -0.0062322244 0.036985755
0.0018913448 -0.35617092 -0.03767608 -0.06799132 -0.039015263 -0.014762282 -0.030766029 0.0174396
0.9095402 0.03046164 0.01015151 1.8739662 0.83966106 0.7351576 -0.047400586 0.1351986
0.009986273 0.7513189 0.46987858 0.014185703 1.2561647 0.02831044 0.0027364192 0.15527435
0.050481178 -0.04375092 0.40812185 0.5780281 -0.0065405145 -0.47656026 -0.19359998 -0.0308005
0.45280713 0.023224667 -0.39321637 -0.15110165 -0.24465142 -0.41894916 0.019105282 0.720066
0.2335815 0.04240091 0.39512357 -0.008199647 -0.020309221 0.5249191 -0.022014206 0.5698853
0.50837684 0.77356565 -0.020646969 0.1921363 -0.054732233 -0.6435896 0.22213112 0.010911231
0.017742861 0.65204495 -0.06073243 0.022786217 0.38908628 -0.020590961 -1.011913 -0.17440009
0.25007114 0.493257 1.1395422 -0.012440033 0.7166252 0.61013055 0.28470364 0.060675167
0.030058324 -0.0332259 -0.021818347 -0.7843388 0.61662096 0.57968086 -0.013498753 0.028758444
-0.029878825 0.20951541 -0.019133542 0.034254223 1.7941064 0.77157867 0.7599744 -0.011672247
-0.6767187 -0.04408034 0.041595943 0.28577214 0.9593771 0.787458 0.89093864 -0.034569643
-0.019633375 -0.03961236 -0.01936394 0.014123711 0.08141172 0.079293735 -0.03920238 0.7120733
-0.52222383 0.058422446 0.024474943 0.81410986 -0.0650765 0.75012267 0.19741385 0.009872938
0.024501719 -0.06511252 -1.7555815 -0.38272786 0.31670117 -0.006515354 0.09801308 0.54318285
-0.10087427 0.24454331 0.5853362 0.69280356 -0.04440182 0.14431325 -0.04666294 -0.80069673
0.5821694 -0.3347568 0.09317142 0.025859773 -0.22266737 -0.13164388 -0.0027512123 0.02596024
0.30561292 -0.028570425 0.017771259 0.012147272 0.061511427 -0.011791494 -0.023720967 0.005309021
-0.2553478 0.40493605 0.0053771576 1.2502592 -0.0147097325 0.2835246 0.77444106 0.02450477
-0.045067795 0.043165907 0.08392404 -0.119586214 -0.04024163 0.07360826 0.053433813 0.73769116
00000000: eb9c b13e 8aca ba3d 8ef1 5b3d 1886 843c
00000010: 701e 5cbc 24d8 aabd 8a95 1ebd 2d9b 07bf
00000020: 4975 cd3d 37f4 84bf d863 6abc 1535 343f
00000030: 1b77 ec3e 275a 353f cc52 113f cc11 45bd
00000040: 76bc c0be f8ca bf3f 1f65 03bd e01a d2bc
00000050: 3275 673c 6e5f e23e da6e 1fbd dd19 afba
00000060: 1074 81bd d768 1a3d c440 413d 2ef3 b83e
00000070: 8c1e 8c3c cf88 13bc 8729 ab3d 701e db3e
00000080: 2ccc f63c 48cf a1bc 1eb8 1fbd 93ca f5be
00000090: 9cc5 c13e 4b1f 453f d16c 69bd 58b4 a7bc
000000a0: 1544 6bbd bfc1 7fbf f6d9 cebd e76a cb3d
000000b0: a859 dbbc e94f 38bd 6a14 26bf 0882 403d
000000c0: 426c a13d 9c9d 273d 19af a7bf 5419 97bd
000000d0: 70bc a6bc 94f3 afbd c17e 3f3f 0f44 013f
000000e0: 347b 093f ec50 b03c efae 863d 3021 e53c
000000f0: 8e35 4c3f d4c4 723f 4212 863f ae78 6bbd
00000100: a81c 0f3d f757 b23c cf4f b43d 0978 5fbe
00000110: 7a93 243b 550b 473c a039 40bd 134b 623f
00000120: 1264 e23e 0a20 48bd 0131 5b3f 7b82 9a3c
00000130: c004 043f 1d32 343b ce38 903d 6487 70bd
00000140: 9cc3 4b3f 74fc 91bc 6f82 ce3c 7ce4 7b3f
00000150: 27f7 8d3c 977a 9c3d 222c 8a3f 42d0 2c3d
00000160: 6c8e 893c 3cd4 a6bd a9dd 9c3e 9a04 10be
00000170: 13f8 043f 34f6 c2bc b037 ccbb 607e 173d
00000180: 00e7 f73a 095c b6be 3c52 1abd 083f 8bbd
00000190: 78ce 1fbd 80dd 71bc 0a09 fcbc 7edd 8e3c
000001a0: a0d7 683f b08a f93c 8552 263c 20de ef3f
000001b0: 07f4 563f 4a33 3c3f 1e27 42bd 8071 0a3e
000001c0: 779d 233c 6f56 403f ed93 f03e 276b 683c
000001d0: 01ca a03f 4ceb e73c 7f55 333b 3d00 1f3e
000001e0: 5ac5 4e3d 2a34 33bd 59f5 d03e a6f9 133f
000001f0: d051 d6bb b5ff f3be 133f 46be 5551 fcbc
00000200: 56d6 e73e a841 be3c a853 c9be 64ba 1abe
00000210: e785 7abe 8180 d6be ae82 9c3c 3f56 383f
00000220: fd2f 6f3e 94ac 2d3d a34d ca3e d057 06bc
00000230: 865f a6bc 1961 063f 2357 b4bc 01e4 113f
00000240: fc24 023f 6608 463f d523 a9bc 61bf 443e
00000250: e82e 60bd 4ac2 24bf 5776 633e 05c5 323c
00000260: 7a59 913c 6bec 263f 92c2 78bd 29aa ba3c
00000270: 5136 c73e 60ae a8bc 5d86 81bf f095 32be
00000280: 5309 803e 2e8c fc3e 85dc 913f 48d1 4bbc
00000290: c074 373f 8431 1c3f adc4 913e 8686 783d
000002a0: e03c f63c e217 08bd 64bc b2bc 6dca 48bf
000002b0: dfda 1d3f f765 143f e029 5dbc d496 eb3c
000002c0: 70c4 f4bc 358b 563e f2bd 9cbc 284e 0c3d
000002d0: 47a5 e53f 2e86 453f af8d 423f f43c 3fbc
000002e0: 703d 2dbf 968d 34bd 8260 2a3d ba50 923e
000002f0: bd99 753f d996 493f 8e14 643f e698 0dbd
00000300: 2cd6 a0bc 9240 22bd 20a1 9ebc 2367 673c
00000310: 30bb a63d c164 a23d ad92 20bd 704a 363f
00000320: 76b0 05bf 604c 6f3d ad7f c83c 8169 503f
00000330: d446 85bd 0a08 403f db26 4a3e 1ac2 213c
00000340: d4b7 c83c b659 85bd e5b6 e0bf e8f4 c3be
00000350: a826 a23e c07e d5bb 15bb c83d 080e 0b3f
00000360: 2b97 cebd 9069 7a3e 98d8 153f 935b 313f
00000370: afde 35bd dac6 133e a421 3fbd 76fa 4cbf
00000380: 0e09 153f 3e65 abbe a8d0 be3d e0d7 d33c
00000390: ea02 64be a7cd 06be af4d 34bb 92aa d43c
000003a0: 4c79 9c3e 860c eabc 0895 913c 5a05 473c
000003b0: 68f3 7b3d 1c31 41bc 7952 c2bc 4cf7 ad3b
000003c0: f2bc 82be c753 cf3e de32 b03b 7e08 a03f
000003d0: 1701 71bc 232a 913e c541 463f 3abe c83c
000003e0: 0299 38bd bcce 303d 5ee0 ab3d 9ee9 f4bd
000003f0: 68d4 24bd edbf 963d 6add 5a3d 54d9 3c3f

net.4.bias f4 [36]
1.0835347 1.0760643 0.863596 1.0374799 -0.3017104 0.8867945 0.95681083 1.5681713
1.0998521 1.2728962 0.20969158 0.8585364 1.0575093 1.2407104 1.397792 1.1319809
-0.096416056 1.0694364 1.0735768 0.97766376 1.4414685 0.6744742 -0.3782863 0.8642665
-0.15477404 0.16157624 0.4463654 1.0399523 -0.43953753 0.018965617 0.8209178 0.56200314
0.7860729 0.9161987 0.13402309 0.85365
00000000: 44b1 8a3f 7abc 893f a114 5d3f 24cc 843f
00000010: c979 9abe f704 633f 8ef1 743f d6b9 c83f
00000020: f4c7 8c3f 43ee a23f 64b9 563e 0bc9 5b3f
00000030: 775c 873f 99cf 9e3f d9ea b23f c0e4 903f
00000040: c875 c5bd 4be3 883f f76a 893f 2c48 7a3f
00000050: 0a82 b83f 57aa 2c3f beae c1be 9240 5d3f
00000060: 167d 1ebe 3e74 253e 018a e43e 281d 853f
00000070: 100b e1be c85d 9b3c ab27 523f 70df 0f3f
00000080: 133c 493f ff8b 6a3f 593d 093e ce88 5a3f
