Custom_MARL-DroneDelivery/pickle/QMIX_model.pt (torch, 36210 bytes, 12 tensors)

net.0.weight f4 [64, 3]
-0.39774913 -0.038542565 -0.3521286 0.60284907 -0.8631091 0.5358484 -0.620134 0.25146765
0.24466792 -0.5309665 -0.47851944 -0.4228166 -0.0022733063 -0.050156694 -0.028963689 -0.3317462
0.001330238 -0.26582992 -0.20568416 0.03867237 -0.055272713 -0.051414717 0.25337777 -1.2909374
-0.24912703 0.2052378 -1.2613772 -0.208741 -0.0969377 -0.94353235 -0.55562705 -0.16357602
0.19433999 0.037207536 0.1384535 -0.07035771 -0.37649408 -0.41315797 -0.05614641 0.09412951
-0.09354142 -0.54522026 -0.43959138 -0.13946608 0.6767959 -0.9239116 0.43937844 0.9682451
-0.33710063 0.024623757 -0.9371668 -0.4884298 -0.29625344 -0.24658613 -0.021631401 -0.059063926
0.35919005 0.5765177 -0.68141437 0.73438364 -0.2828769 -0.12655452 1.1337458 -0.18710844
-0.58343786 0.33646047 0.57710916 -0.83512306 -1.5766021 0.19502817 -0.051356673 -1.0252752
-0.2856212 0.028386123 -0.08207769 -0.003288821 -0.68397784 -1.1920315 -0.71081984 0.35925543
-0.77414197 -0.27629358 0.104264304 -0.2914219 -0.15907097 -0.5721398 0.6532932 -0.07239583
-0.43948108 0.4029605 -0.98638725 0.19156602 -1.0314943 -0.53573173 0.21466827 0.8467465
0.60756123 -1.696419 0.10532967 -0.7670877 0.09374804 -0.9952129 -0.90828407 0.27318242
0.65200514 -0.14297748 -0.056822143 -1.5584096 -0.18641971 0.04479494 -1.2301172 0.4950544
-0.7740903 0.8448402 -0.7707702 -0.324008 0.55400914 0.5844043 -0.7420808 -0.6222696
0.29571587 -0.23055051 -0.992479 -0.58308244 0.3007751 -0.6629541 -0.4209575 -0.1755475
-0.0064885095 0.04479614 0.124664776 0.13637766 -1.5502639 0.42729875 0.4877037 0.00096824626
-0.53133076 0.3765856 -0.09167061 -0.7998297 0.7641634 0.004937754 -0.6573007 -1.5460651
-0.4690015 -0.00017921365 1.058767 -0.25116646 0.14004733 -0.26317146 -0.77003074 0.1368508
1.7560998 0.1803127 -0.8948312 -0.4086928 -0.18878976 0.014310751 -1.3026264 -0.50839347
0.039580826 1.0183986 0.14797008 -0.4013297 0.07442174 0.70333195 -0.8308439 -0.44417024
0.10448835 -0.70213956 0.23043427 -0.00014507072 0.08900781 -1.1646153 0.4435305 0.18030947
-1.6595619 0.049236603 -0.372347 -0.55821705 0.28623444 0.027098902 -1.2119445 0.694701
-0.27876568 0.25797808 -0.7089208 0.7798648 -0.45215932 -0.6091151 0.08475588 0.090155385
00000000: c6a5 cbbe cfde 1dbd 334a b4be 5154 1a3f
00000010: b8f4 5cbf 5c2d 093f 1ac1 1ebf 5ec0 803e
00000020: 3a8a 7a3e 6ced 07bf 8000 f5be 6b7b d8be
00000030: c0fb 14bb 1b71 4dbd 4245 edbc a3da a9be
00000040: 615b ae3a dc1a 88be de9e 52be eb66 1e3d
00000050: a465 62bd 3d98 52bd bbba 813e 703d a5bf
00000060: 281b 7fbe dc29 523e cf74 a1bf 33c0 55be
00000070: 4687 c6bd 568b 71bf 933d 0ebf 7980 27be
00000080: 1001 473e ee66 183d c1c6 0d3e b417 90bd
00000090: d5c3 c0be 7189 d3be c7f9 65bd f9c6 c03d
000000a0: a592 bfbd 8e93 0bbf 1f12 e1be 32d0 0ebe
000000b0: 7f42 2d3f 7885 6cbf 36f6 e03e e9de 773f
000000c0: 7498 acbe c3b7 c93c 2aea 6fbf 7913 fabe
000000d0: 88ae 97be 1381 7cbe 5634 b1bc 04ed 71bd
000000e0: c2e7 b73e aa96 133f 2c71 2ebf 9100 3c3f
000000f0: 3ed5 90be 8297 01be 951e 913f 5b99 3fbe
00000100: 2f5c 15bf 8c44 ac3e 6dbd 133f a0ca 55bf
00000110: 19ce c9bf 77b5 473e 605b 52bd 383c 83bf
00000120: f13c 92be 048a e83c 5918 a8bd 4389 57bb
00000130: 2c19 2fbf 7d94 98bf 4af8 35bf 54f0 b73e
00000140: 2b2e 46bf 5a76 8dbe 8688 d53d 4035 95be
00000150: 80e3 22be c177 12bf 393e 273f 4444 94bd
00000160: aa03 e1be d750 ce3e e083 7cbf e229 443e
00000170: 0108 84bf b725 09bf 00d2 5b3e 61c4 583f
00000180: 2289 1b3f 4224 d9bf 15b7 d73d dc5f 44bf
00000190: f9fe bf3d 46c6 7ebf 4e85 68bf 91de 8b3e
000001a0: cfe9 263f b068 12be 56be 68bd f779 c7bf
000001b0: cfe4 3ebe e67a 373d 7b74 9dbf c577 fd3e
000001c0: c82a 46bf 7347 583f 3251 45bf 60e4 a5be
000001d0: 8bd3 0d3f 859b 153f 02f9 3dbf 0f4d 1fbf
000001e0: 1268 973e 6f15 6cbe 1b13 7ebf e444 15bf
000001f0: 32ff 993e 5cb7 29bf be87 d7be b9c2 33be
00000200: 909d d4bb 287c 373d 3f50 ff3d 96a6 0b3e
00000210: 0c6f c6bf e7c6 da3e 4db4 f93e e8d1 7d3a
00000220: 4b05 08bf d4cf c03e cdbd bbbd a4c1 4cbf
00000230: 36a0 433f e2cc a13b dc44 28bf 76e5 c5bf
00000240: f720 f0be 4ceb 3bb9 ad85 873f e498 80be
00000250: 9168 0f3e 69be 86be bc20 45bf 9e22 0c3e
00000260: e1c7 e03f e4a3 383e a813 65bf 2f40 d1be
00000270: 1a52 41be a477 6a3c 76bc a6bf 1326 02bf
00000280: 811f 223d e35a 823f 7885 173e 167b cdbe
00000290: 6d6a 983d 900d 343f 30b2 54bf 486a e3be
000002a0: fdfd d53d 6bbf 33bf f6f6 6b3e 201e 18b9
000002b0: ba49 b63d 1d12 95bf 6e16 e33e 0ca3 383e
000002c0: 866c d4bf 52ac 493d 44a4 bebe 50e7 0ebf
000002d0: 528d 923e 84fe dd3c ff20 9bbf edd7 313f
000002e0: 60ba 8ebe b415 843e d57b 35bf 38a5 473f
000002f0: 6d81 e7be f8ee 1bbf 7e94 ad3d 63a3 b83d

net.0.bias f4 [64]
-0.535374 0.34425762 0.9122955 -0.28156015 -0.00013358294 -0.01384719 -0.30390543 -1.0289172
0.40283385 1.3593242 -0.5023263 -0.89661574 -0.029878395 -0.47238052 0.8003642 -0.023738096
0.5904773 -0.33138087 0.9856715 0.53998536 1.1572438 0.24426636 0.46559498 -0.4693506
-0.03364325 0.10589032 -0.36127958 -0.5315364 0.41470328 -0.11449507 -0.77975667 1.002614
-1.5400273 0.8935971 0.035223495 -0.009632646 -0.27018058 -0.112626396 0.66999024 0.57000893
-0.6401686 0.5087502 0.24864805 -0.87483716 -0.36230066 0.07581709 -0.0069353203 -0.12222034
0.77052695 -0.25669467 -0.12213568 -0.22117382 0.3681719 0.7590031 -0.44106993 -0.6770923
0.19098689 -0.577285 -1.2780583 -0.2869373 -0.96008754 -0.6398093 -0.33961052 0.31055862
00000000: 450e 09bf 8942 b03e 338c 693f a728 90be
00000010: 6612 0cb9 53df 62bc 7e99 9bbe 8fb3 83bf
00000020: 3d40 ce3e 56fe ad3f 7598 00bf 9c88 65bf
00000030: 89c3 f4bc dcdb f1be abe4 4c3f 6576 c2bc
00000040: 8529 173f c1aa a9be f854 7c3f 7b3c 0a3f
00000050: 9120 943f f620 7a3e 7762 ee3e b94e f0be
00000060: 81cd 09bd 06dd d83d a3f9 b8be c512 08bf
00000070: fd53 d43e 647c eabd 229e 47bf a855 803f
00000080: 9d1f c5bf c8c2 643f 8346 103d 3fd2 1dbc
00000090: 1c55 8abe aba8 e6bd 7b84 2b3f 1bec 113f
000000a0: 17e2 23bf 743d 023f 989d 7e3e 54f5 5fbf
000000b0: 797f b9be fe45 9b3d af41 e3bb a84e fabd
000000c0: 4141 453f 7c6d 83be 4522 fabd 647b 62be
000000d0: 0781 bc3e 074e 423f ebd3 e1be ec55 2dbf
000000e0: 1192 433e f3c8 13bf 6a97 a3bf 72e9 92be
000000f0: 4cc8 75bf 8bca 23bf 6ee1 adbe 8a01 9f3e

net.2.weight f4 [6, 64]
0.10068226 0.47585824 -0.36989775 -0.0095309615 -0.050330102 0.041049477 -0.05568319 -0.171368
0.37510398 0.6831164 0.085712835 0.010274684 -0.09199177 -0.01141333 -0.3684914 -0.06588854
-0.08930179 0.08781414 0.16997012 0.13162056 -0.90300685 0.3260128 0.037802186 -0.029861262
0.20318016 -0.062802635 -0.45536998 0.046198297 0.16907772 -0.17748159 0.013067331 0.09256514
0.20166492 -0.4274878 0.29566458 -0.16970009 -0.119685195 -0.18168516 0.28084373 -0.41686007
0.023558086 -0.674583 -0.38708237 0.052849993 -0.024049006 0.065183096 -0.015311166 0.13794777
1.2931817 0.24867891 -0.37906867 0.3516554 -0.38131842 0.40985933 0.62563044 0.06635589
-0.020336386 0.071872845 -0.38314113 0.05241254 -1.0971773 0.42957652 -0.042410452 0.3737019
-0.022680417 -0.013854951 -0.15478472 -0.015258461 -0.19728446 0.0062491703 0.027858345 -0.2923903
0.22088106 0.108778335 0.04268323 0.040776428 -0.111712664 -0.026166426 0.25058314 0.10998889
-0.38251087 -0.00022819638 0.05675942 0.0047788867 -0.264151 -0.10516269 -0.008631094 -0.07513534
0.13254519 -0.023188928 -0.0486552 -0.64793617 0.31572065 -0.19448681 0.108981736 0.3936189
-0.23921475 -0.22504574 0.41101938 -0.18223219 -0.06901406 0.27057368 0.37885514 0.04940983
0.26624858 -0.43733215 -0.34551287 0.020559885 -0.023534792 -0.37100625 0.0034331824 -0.18730842
-0.5842282 -0.099688955 0.35044172 0.0064374274 -0.5193629 -0.2607438 -0.019907368 -0.02654355
0.29977468 0.00671401 -0.35997337 0.0049347878 -0.6832069 0.27100024 0.09576972 0.042128697
-0.048951 0.07074755 -0.19841409 -0.027436793 -0.15710312 -0.024069041 -0.19179124 -0.25621703
0.21512917 0.096334085 -0.067709014 -0.15146944 -0.1178119 0.019748518 -0.5836729 -0.06666347
-0.22762603 0.019207656 -0.14625092 0.45138174 -0.29481027 -0.08039629 0.091794044 -0.4099909
-0.15770365 -0.51690376 -0.085837856 0.07929457 -0.3036012 -0.2695289 0.006835121 0.3238633
-0.18462996 0.31820607 -0.11465469 -0.122997336 0.1760358 -0.401642 0.60828733 -0.22921428
-0.2845528 0.15469989 -0.20868006 0.01008085 0.08887361 -0.41280815 0.11957425 -0.08785487
0.3594181 -0.019606197 0.05544518 -0.15203641 -0.24551913 -0.30388418 -0.11762852 -0.051169362
-0.27748603 0.11174882 -0.24791886 -0.00904949 -0.38153082 0.26213202 0.072570845 0.081213765
-0.04885134 -0.13999225 -0.26761067 -0.08520284 -0.0063441857 -0.08006118 -0.051720638 -0.42184734
0.23117584 0.41417012 -0.11663501 0.022419076 -0.04458165 -0.020791378 0.56730235 -0.012680537
-0.20491548 -0.0913582 0.072334215 0.28895852 0.23688792 0.17097756 0.15977365 -0.19307376
-0.04709319 -0.22555836 -0.15870667 -0.009877571 0.013389992 0.15827176 0.21814679 0.37592486
-0.3334451 -0.15945701 -0.2837187 -0.07277082 -0.057474986 -0.36091596 0.7407738 -0.32803735
0.36580688 -0.20059644 -0.023907773 0.060491875 -0.5486527 0.043893218 0.0012466321 -0.10376943
-0.504978 -0.08308199 0.9690798 -0.7625957 -0.11299397 -0.36356762 0.014797057 0.061607476
0.31943744 0.021024143 -0.40885636 0.0758844 -0.32604593 0.2535201 0.39130533 -0.35972267
00000000: 8032 ce3d b1a3 f33e 3d63 bdbe c027 1cbc
00000010: f026 4ebd 7f23 283d 0e14 64bd 187b 2fbe
00000020: a10d c03e b7e0 2e3f 368a af3d 2657 283c
00000030: 2e66 bcbd fafe 3abc e8aa bcbe 92f0 86bd
00000040: dbe3 b6bd e6d7 b33d a60c 2e3e 8ac7 063e
00000050: 752b 67bf 26eb a63e 77d6 1a3d 9b9f f4bc
00000060: 760e 503e ab9e 80bd 4126 e9be 6d3a 3d3d
00000070: b622 2d3e bcbd 35be 5c18 563c cb92 bd3d
00000080: 4081 4e3e aedf dabe 5961 973e dcc5 2dbe
00000090: 831d f5bd ad0b 3abe c0ca 8f3e af6e d5be
000000a0: e3fc c03c 79b1 2cbf a92f c6be 3c79 583d
000000b0: 6c02 c5bc b77e 853d afdb 7abc 2e42 0d3e
000000c0: fa86 a53f afa5 7e3e 4a15 c2be 2d0c b43e
000000d0: 2b3c c3be 15d9 d13e 5129 203f 99e5 873d
000000e0: 7e98 a6bc 1232 933d 132b c4be 88ae 563d
000000f0: 4e70 8cbf 74f1 db3e 95b6 2dbd db55 bf3e
00000100: 48cc b9bc e0ff 62bc e37f 1ebe a0fe 79bc
00000110: f004 4abe d7c5 cc3b 2f37 e43c 2eb4 95be
00000120: a52e 623e 2dc7 de3d 9cd4 2e3d 2f05 273d
00000130: 9cc9 e4bd f95a d6bc 6f4c 803e db41 e13d
00000140: 77d8 c3be 0048 6fb9 917c 683d 3598 9c3b
00000150: cd3e 87be 895f d7bd 6f69 0dbc 8fe0 99bd
00000160: edb9 073e b5f6 bdbc ad4a 47bd 25df 25bf
00000170: 23a6 a13e 8d27 47be d131 df3d 6b88 c93e
00000180: b6f4 74be 6472 66be 2271 d23e 139b 3abe
00000190: 3e57 8dbd a288 8a3e 4df9 c13e f661 4a3d
000001a0: bc51 883e 00ea dfbe 10e7 b0be 346d a83c
000001b0: 09cc c0bc 88f4 bdbe 3eff 603b c7cd 3fbe
000001c0: fb8f 15bf b929 ccbd 196d b33e 0ef1 d23b
000001d0: f8f4 04bf 3680 85be c714 a3bc dc71 d9bc
000001e0: 117c 993e 3301 dc3b 6e4e b8be 00b4 a13b
000001f0: a6e6 2ebf 8bc0 8a3e ea22 c43d 248f 2c3d
00000200: d880 48bd 17e4 903d 102d 4bbe 20c3 e0bc
00000210: a4df 20be 702c c5bc ec64 44be e12e 83be
00000220: d24a 5c3e ce4a c53d 06ab 8abd ce1a 1bbe
00000230: 5e47 f1bd a5c7 a13c 966b 15bf db86 88bd
00000240: cc16 69be 6059 9d3c cdc2 15be 821b e73e
00000250: 5ff1 96be cfa6 a4bd 84fe bb3d 54ea d1be
00000260: 117d 21be ce53 04bf c2cb afbd 3165 a23d
00000270: 9e71 9bbe b1ff 89be 27f9 df3b 69d1 a53e
00000280: a30f 3dbe e8eb a23e 14d0 eabd 07e6 fbbd
00000290: bb42 343e 05a4 cdbe b8b8 1b3f 26b7 6abe
000002a0: e8b0 91be a669 1e3e 3ab0 55be 262a 253c
000002b0: 5e03 b63d 975b d3be 58e3 f43d 41ed b3bd
000002c0: a605 b83e 2d9d a0bc 7c1a 633d 6faf 1bbe
000002d0: 5e69 7bbe b596 9bbe 39e7 f0bd f796 51bd
000002e0: a612 8ebe 91dc e43d 71de 7dbe 5044 14bc
000002f0: 0258 c3be 2b36 863e 06a0 943d 6753 a63d
00000300: 5818 48bd 215a 0fbe 4404 89be d47e aebd
00000310: e3e2 cfbb 1ef7 a3bd 05d9 53bd 60fc d7be
00000320: 5cb9 6c3e 1b0e d43e 56de eebd 36a8 b73c
00000330: 409b 36bd ae52 aabc ba3a 113f 07c2 4fbc
00000340: 5dd5 51be 021a bbbd f623 943d 5ff2 933e
00000350: bf92 723e be14 2f3e b49b 233e 21b5 45be
00000360: cae4 40bd c5f8 66be 0084 22be 89d5 21bc
00000370: b261 5b3c fe11 223e df61 5f3e 3979 c03e
00000380: 51b9 aabe b348 23be 9443 91be de08 95bd
00000390: e46a 6bbd fac9 b8be 5aa3 3d3f 83f4 a7be
000003a0: 0a4b bb3e 2769 4dbe 3cda c3bc 54c6 773d
000003b0: 8174 0cbf 60c9 333d 0866 a33a 1185 d4bd
000003c0: 3d46 01bf e426 aabd 9d15 783f 7939 43bf
000003d0: 6269 e7bd 8925 babe 5b6f 723c 1f58 7c3d
000003e0: 4e8d a33e d33a ac3c 9f55 d1be 4869 9b3d
000003f0: 7eef a6be 63cd 813e 2c59 c83e 922d b8be

net.2.bias f4 [6]
-0.02034087 -0.03307108 -0.19039097 -0.09044395 0.69248426 -0.12393937
00000000: e5a1 a6bc 8a75 07bd daf5 42be ad3a b9bd
00000010: a646 313f edd3 fdbd

net.0.weight f4 [64, 3]
0.1731512 -0.1613818 0.17246103 0.39540878 -0.4770832 -1.2295868 -0.30368817 0.16483045
0.41599572 -0.0057904744 -0.21226962 -0.58876103 -0.38537526 0.23045525 0.86898255 -0.04551288
-0.23149285 -0.36935613 -0.3469789 0.031466052 0.6383322 -0.19990325 0.098484054 1.1585147
-0.5011484 -0.13802443 -0.28633422 -0.5643348 0.21197833 -0.7479157 0.2558641 -0.082834646
0.9231073 -0.2297791 -0.30988964 0.77033496 -0.53514874 0.10295726 0.5726816 -0.41386738
0.10291633 0.70960456 0.15060757 0.07371427 -0.37094662 -0.1434442 -0.07445693 -0.261204
-0.8734962 0.521312 -0.07344946 0.6265759 -0.31203014 0.22196975 -0.5737014 -0.014531323
-0.24769267 -0.38070178 -0.540243 -0.4673646 -0.40208513 0.32687294 1.1358086 0.247261
-0.44642532 -0.5781958 -0.64828146 -0.0591867 0.30378675 0.49686277 -0.6222639 0.00039024395
-0.14979975 -0.41402 0.28381932 -0.23371008 -0.06907505 0.7783471 -0.481252 0.2793427
-0.858192 -0.4797634 -0.12905307 -0.06923702 0.037277386 -0.17100495 0.50022984 0.31687203
-0.9324802 -0.95284176 0.17253757 -0.06378076 0.27914014 0.45231843 -0.46511206 1.1404588
-0.15536311 -0.21572696 1.174573 -0.5332253 0.2865036 -1.0241826 -0.05881403 -0.19003645
1.0907377 -0.018733535 0.0113925245 0.71910393 -0.33563378 0.30486915 1.217173 0.44132742
-0.19182375 0.4013519 -0.31476694 -0.114074044 -1.0419223 0.002499957 -0.062144727 -0.43967432
-0.40089148 -0.11596459 0.4909385 -0.24088077 -0.01443507 -0.49967805 0.34123033 -0.3087079
0.6263329 -0.576968 -0.44670415 0.16304104 -0.24499114 0.574321 -0.5114745 -0.50922906
-0.32996562 -0.41609153 -0.25963917 -0.38346335 -0.5425567 -0.31039372 -0.5733508 -0.34677646
0.11642354 -0.1059427 0.65497357 -0.38019916 -0.14033405 0.62877613 -0.09452737 -0.5077496
-0.4940857 -0.43483967 -0.14653344 -0.2625305 0.6128131 -0.2259387 -1.1656606 0.0022027607
-0.16861473 -0.48014453 0.16840385 -0.41351005 1.0990084 -0.48091176 0.2713901 1.0513765
-0.5616557 -0.08772902 -0.31380835 0.21412715 0.1308158 -0.9576128 0.38219446 -0.47209525
-0.67203414 -0.49227214 -0.35156202 -0.061694983 0.20240746 -0.56102437 0.40585297 0.14106426
-0.03196804 0.6772588 0.23804925 -0.2816633 -0.17476174 -0.60789055 0.1566603 -0.6985853
00000000: 8c4e 313e 4541 25be a099 303e 0573 ca3e
00000010: 4044 f4be 1a63 9dbf 047d 9bbe 50c9 283e
00000020: 64fd d43e 05be bdbb 355d 59be 0bb9 16bf
00000030: e84f c5be 76fc 6b3e a475 5e3f b76b 3abd
00000040: 760c 6dbe 3f1c bdbe 38a7 b1be 8ce2 003d
00000050: bd69 233f 70b3 4cbe 02b2 c93d 364a 943f
00000060: 434b 00bf 4756 0dbe 669a 92be 3f78 10bf
00000070: d910 593e 6777 3fbf 9f00 833e 36a5 a9bd
00000080: c350 6c3f 364b 6bbe dba9 9ebe ac34 453f
00000090: 82ff 08bf 42db d23d 439b 123f 6de6 d3be
000000a0: ccc5 d23d a5a8 353f df38 1a3e 82f7 963d
000000b0: b7ec bdbe 09e3 12be e07c 98bd 88bc 85be
000000c0: 729d 5fbf b474 053f ac6c 96bd 4767 203f
000000d0: 6ac2 9fbe 0a4c 633e 18de 12bf c914 6ebc
000000e0: 26a3 7dbe 58eb c2be 5e4d 0abf 6a4a efbe
000000f0: 1ade cdbe e45b a73e 2d62 913f fd31 7d3e
00000100: dc91 e4be a404 14bf c6f5 25bf c16d 72bd
00000110: f089 9b3e cc64 fe3e b04c 1fbf a899 cc39
00000120: 1b65 19be 6efa d3be c450 913e b251 6fbe
00000130: 3877 8dbd c141 473f aa66 f6be 0206 8f3e
00000140: 79b2 5bbf 8ca3 f5be 7d26 04be 24cc 8dbd
00000150: 2cb0 183d ec1b 2fbe 100f 003f 0d3d a23e
00000160: 06b7 6ebf 70ed 73bf b0ad 303e 7d9f 82bd
00000170: 75eb 8e3e 4896 e73e 2b23 eebe 8efa 913f
00000180: 8217 1fbe 87e7 5cbe 6858 963f 7481 08bf
00000190: 9ab0 923e 6a18 83bf fbe6 70bd ea98 42be
000001a0: 4b9d 8b3f 1277 99bc b6a7 3a3c 3217 383f
000001b0: 31d8 abbe cf17 9c3e 53cc 9b3f abf5 e13e
000001c0: 726d 44be ff7d cd3e 2229 a1be a79f e9bd
000001d0: b65d 85bf 52d6 233b 788b 7ebd fe1c e1be
000001e0: a641 cdbe d87e edbd 4b5c fb3e 73a9 76be
000001f0: 1281 6cbc cdd5 ffbe beb5 ae3e f60e 9ebe
00000200: 5a57 203f 2db4 13bf 68b6 e4be 3bf4 263e
00000210: f5de 7abe b306 133f feef 02bf d65c 02bf
00000220: 41f1 a8be f309 d5be 6def 84be 4f55 c4be
00000230: ffe4 0abf edeb 9ebe 1ec7 12bf af8c b1be
00000240: 776f ee3d 7cf8 d8bd 59ac 273f 77a9 c2be
00000250: bbb3 0fbe 79f7 203f 9197 c1bd e1fb 01bf
00000260: cdf8 fcbe 4ea3 debe dd0c 16be 666a 86be
00000270: 52e1 1c3f 795c 67be 5e34 95bf 315c 103b
00000280: 57a9 2cbe 81d5 f5be 0f72 2c3e 97b7 d3be
00000290: 4fac 8c3f 113a f6be a5f3 8a3e 8193 863f
000002a0: abc8 0fbf 46ab b3bd 7dab a0be 2644 5b3e
000002b0: 94f4 053e 1d26 75bf feae c33e 78b6 f1be
000002c0: 6e0a 2cbf 180b fcbe f0ff b3be e1b3 7cbd
000002d0: e743 4f3e 4b9f 0fbf f6cb cf3e 2673 103e
000002e0: ebf0 02bd d560 2d3f 2fc3 733e 2c36 90be
000002f0: bef4 32be b79e 1bbf 8f6b 203e 7cd6 32bf

net.0.bias f4 [64]
-0.061709937 -0.42532223 -0.83392596 0.2038303 0.35236177 0.21690024 0.4800629 -0.51831025
0.5151456 -1.0634573 -0.7755804 0.7597491 0.6606023 0.28362975 -1.052687 0.11289638
-0.42619422 -0.6691502 0.5426645 -0.4692465 -0.6239878 -0.2957276 0.17511658 -0.62146544
0.9663075 0.2028084 -0.92637503 -0.23759276 -0.18887214 -0.68544966 -0.103325404 0.42247018
0.5656305 -0.6952876 0.7201884 -0.05904719 -0.026507549 -0.7715003 0.54054356 0.18563822
-0.5738657 -0.014178048 0.1609045 -0.342432 0.364762 -0.38657728 -0.4209124 -0.3278136
-0.73173416 0.5079051 -0.56260425 -0.012924484 -0.42330486 -0.4280667 -0.2033655 -0.15480137
0.30516407 -0.77846354 0.47966677 -0.31824127 -0.5218431 0.3302546 0.3063967 0.14587037
00000000: 8fc3 7cbd d6c3 d9be 2c7c 55bf e4b8 503e
00000010: c368 b43e 191b 5e3e ceca f53e fbaf 04bf
00000020: 95e0 033f 5e1f 88bf 708c 46bf eb7e 423f
00000030: 3b1d 293f eb37 913e 73be 86bf 3836 e73d
00000040: 2136 dabe 6d4d 2bbf 10ec 0a3f 1441 f0be
00000050: aabd 1fbf 9c69 97be c351 333e 5c18 1fbf
00000060: ee5f 773f 01ad 4f3e ea26 6dbf 844b 73be
00000070: b367 41be a179 2fbf 459c d3bd 034e d83e
00000080: 29cd 103f 5efe 31bf 445e 383f 77db 71bd
00000090: 5c26 d9bc 0b81 45bf 1061 0a3f f217 3e3e
000000a0: dde8 12bf 0b4b 68bc 26c4 243e 3f53 afbe
000000b0: 16c2 ba3e 75ed c5be d581 d7be 2fd7 a7be
000000c0: ee52 3bbf 1206 023f d506 10bf 37c1 53bc
000000d0: 6abb d8be 8f2b dbbe 0c3f 50be 4084 1ebe
000000e0: 773e 9c3e 6349 47bf e296 f53e 85f0 a2be
000000f0: 8297 05bf 2217 a93e 07e0 9c3e 0b5f 153e

net.2.weight f4 [6, 64]
0.1476676 -0.042143673 0.057793405 0.19542326 0.11013733 0.2460886 0.0866592 0.17185472
-0.1486354 0.030949011 0.09677784 -0.080167934 0.036550462 0.054953486 -0.110353135 0.0040274714
-0.09579962 0.14493163 -0.105339125 0.08195959 -0.038944274 0.24076211 -0.036898807 0.084572166
-0.06438822 -0.023096569 0.08177724 -0.09301983 0.2797587 0.10687182 0.064747706 0.2876601
-0.0041069677 -0.079143025 -0.40044618 0.07940011 0.06925587 0.25851727 -0.055309005 0.04932137
0.11341514 0.039204292 0.14515527 -0.03777139 0.15787798 0.087662295 -0.10048117 0.01206845
0.5239914 0.1470952 -0.11049509 0.040902026 0.3249767 0.07656869 0.24104425 -0.25491214
-0.042184718 0.12391014 0.045788664 0.012223899 0.078739196 0.2207435 0.03555671 -0.010661564
-0.10199586 -0.2821088 0.023056976 0.006049786 0.16334382 0.03042041 0.15148847 0.06381697
-0.1321738 -0.08741161 0.07772867 0.17462918 -0.0016124719 0.116177596 -0.27594802 0.07327979
-0.32506737 0.45107874 -0.38773906 0.070628494 -0.08640244 -0.00018488544 -0.30647546 -0.1831275
-0.16329347 0.14979413 -0.00885057 -0.04348804 0.05281205 -0.17944324 0.01230753 0.46327057
0.02072974 0.006873871 -0.44270113 0.07259905 0.42412585 0.25810546 0.0074041993 0.089249805
-0.05854638 0.03184922 0.42436177 0.014368594 0.06421242 -0.03026776 0.0444642 -0.089724764
0.23942621 -0.39241892 -0.07803264 -0.026244715 -0.3773109 0.00974147 -0.0017025671 -0.035017822
-0.10667231 0.100579776 0.4784742 0.05210969 -0.1386287 0.2894045 -0.2568308 0.01886474
0.18087994 -0.15787931 -0.0044487757 0.109842524 0.08608534 0.14340872 0.2749494 0.12086464
-0.012754165 0.046919357 0.39314795 0.10844085 -0.2619637 0.1455558 0.232611 0.062056985
-0.10307778 0.51879376 0.05529008 0.11328423 -0.421074 0.20290145 -0.06002927 -0.21286418
-0.44003546 0.05577068 0.20554172 -0.06703368 -0.0065185567 -0.047508396 0.20932803 0.19484346
0.17350376 -0.09487045 -0.52789295 0.118986055 0.3800267 0.11388549 -0.10569327 0.03870665
0.0919909 -0.015556658 0.13491152 0.021532997 0.11684539 -0.08479306 0.053294897 0.016330391
0.09754806 0.43366632 -0.09771748 -0.07858376 0.5158214 -0.031393662 0.042995837 -0.17920148
-0.06475303 0.01870804 -0.29701266 -0.00055892766 -0.061469723 0.0533559 0.37549454 0.003009268
0.013669827 0.0783009 0.13465491 -0.09631603 0.11103019 -0.17068247 0.008520931 0.0064535886
-0.0069963457 -0.019519113 0.14666629 0.3598708 -0.050628476 -0.10503032 -0.3310899 0.020370064
0.17419204 -0.16039683 -0.04912817 -0.12114969 -0.1173053 0.23880045 -0.026467372 -0.28802565
0.6401831 0.011124264 0.016908905 -0.120151475 -0.003134212 -0.00765107 0.024771912 -0.060460202
-0.069077745 -0.097037785 0.8183675 0.06910116 0.22039795 0.150873 -0.046538197 0.02987962
-0.10496734 0.08865291 0.251025 -0.07940464 0.17337112 0.025219366 -0.04433532 0.10388343
0.32523268 0.151687 0.02836597 0.014227182 0.537103 0.112052634 0.37225565 -0.05359627
-0.04682059 0.1556896 0.7116308 0.05672525 -0.018903967 0.14881669 -1.5061269 -0.32956493
00000000: 2d36 173e d89e 2cbd c7b8 6c3d 091d 483e
00000010: ae8f e13d a6fe 7b3e 617a b13d affa 2f3e
00000020: e133 18be c888 fd3c 7633 c63d 162f a4bd
00000030: f0b5 153d e816 613d d300 e2bd e1f8 833b
00000040: 9732 c4bd f568 143e 0abc d7bd 6eda a73d
00000050: 0884 1fbd 588a 763e 3423 17bd 2c34 ad3d
00000060: f9dd 83bd 0435 bdbc d37a a73d 2e81 bebd
00000070: 883c 8f3e 9ddf da3d 729a 843d 2f48 933e
00000080: be93 86bb bd15 a2bd 4807 cdbe 869c a23d
00000090: 06d6 8d3d 605c 843e b28b 62bd 3405 4a3d
000000a0: 3246 e83d ae94 203d 95a3 143e 2cb6 1abd
000000b0: c4aa 213e 4a88 b33d 12c9 cdbd c0ba 453c
000000c0: 4d24 063f 20a0 163e 404b e2bd e288 273d
000000d0: 5963 a63e 0cd0 9c3d 4ed4 763e d883 82be
000000e0: e2c9 2cbd 99c4 fd3d e58c 3b3d c046 483c
000000f0: 0442 a13d 960a 623e eaa3 113d d7ad 2ebc
00000100: 35e3 d0bd 9170 90be fce1 bc3c 493d c63b
00000110: 9a43 273e 3934 f93c cb1f 1b3e 79b2 823d
00000120: 9258 07be dc04 b3bd 3530 9f3d fed1 323e
00000130: 9459 d3ba 85ee ed3d 0f49 8dbe b713 963d
00000140: 3b6f a6be cbf3 e63e bc85 c6be aca5 903d
00000150: c3f3 b0bd cfdd 41b9 5aea 9cbe c685 3bbe
00000160: 6736 27be a263 193e fb01 11bc 8420 32bd
00000170: 7351 583d f8bf 37be 86a5 493c cd31 ed3e
00000180: 6ad1 a93c 363e e13b b9a9 e2be d0ae 943d
00000190: 0627 d93e 6626 843e ed9e f23b 9ac8 b63d
000001a0: 54ce 6fbd 5474 023d f245 d93e 406a 6b3c
000001b0: cd81 833d 18f4 f7bc 1820 363d 9ec1 b7bd
000001c0: 252c 753e 22eb c8be 94cf 9fbd 28ff d6bc
000001d0: e52e c1be b09a 1f3c ac28 dfba d96e 0fbd
000001e0: 0377 dabd c5fc cd3d 92fa f43e f870 553d
000001f0: aff4 0dbe d42c 943e 547f 83be 3a8a 9a3c
00000200: 9738 393e 1dab 21be 09c7 91bb 1ef5 e03d
00000210: 834d b03d bcd9 123e 2bc6 8c3e e187 f73d
00000220: d8f6 50bc 832e 403d b04a c93e 3d16 de3d
00000230: 1b20 86be 940c 153e 9431 6e3e 772f 7e3d
00000240: 711a d3bd abcf 043f da77 623d 9001 e83d
00000250: 0397 d7be 66c5 4f3e 40e1 75bd 11f9 59be
00000260: 544c e1be cc6f 643d 8779 523e f448 89bd
00000270: 9e99 d5bb 2a98 42bd 165a 563e 0b85 473e
00000280: f8aa 313e 704b c2bd fe23 07bf f6ae f33d
00000290: dc92 c23e cc3c e93d b775 d8bd dd8a 1e3d
000002a0: ba65 bc3d 5ae1 7ebc 3f26 0a3e f865 b03c
000002b0: a34c ef3d fca7 adbd c04b 5a3d 50c7 853c
000002c0: 47c7 c73d 8309 de3e 1a20 c8bd 86f0 a0bd
000002d0: df0c 043f a496 00bd 671c 303d 9880 37be
000002e0: 3d9d 84bd 9a41 993c 0b12 98be 0085 12ba
000002f0: adc7 7bbd b78b 5a3d d240 c03e 2437 453b
00000300: 69f7 5f3c 395c a03d fae2 093e 5741 c5bd
00000310: cc63 e33d 63c7 2ebe 609b 0b3c a078 d33b
00000320: 9a41 e5bb 8ce6 9fbc b02f 163e fc40 b83e
00000330: ce5f 4fbd 231a d7bd 9e84 a9be 1fdf a63c
00000340: 665f 323e 113f 24be 9f3a 49bd 541d f8bd
00000350: c33d f0bd 1b88 743e 1ad2 d8bc 1978 93be
00000360: 0ae3 233f 8c42 363c 8b84 8a3c fa11 f6bd
00000370: 5a67 4dbb d4b5 fabb 77ee ca3c 1ea5 77bd
00000380: a278 8dbd bfbb c6bd 8880 513f e984 8d3d
00000390: 00b0 613e 747e 1a3e d69e 3ebd 1bc6 f43c
000003a0: 1ef9 d6bd a88f b53d 5986 803e e69e a2bd
000003b0: 3388 313e d898 ce3c f498 35bd d6c0 d43d
000003c0: e684 a63e d653 1b3e c05f e83c 2019 693c
000003d0: 957f 093f da7b e53d 4b98 be3e c387 5bbd
000003e0: f2c6 3fbd 186d 1f3e 702d 363f bc58 683d
000003f0: 7edc 9abc 6763 183e c4c8 c0bf bcbc a8be

net.2.bias f4 [6]
0.36039475 0.30121222 0.34634894 0.07394397 0.07441123 -0.034526106
00000000: a985 b83e 7d38 9a3e a654 b13e f06f 973d
00000010: ea64 983d 3f6b 0dbd

fc1.weight f4 [128, 49]
-0.3530786 0.009393851 1.5992684 0.25637463 0.33372146 -0.6301656 0.17142448 0.3296378
-0.86351234 0.3151669 0.36723202 -2.4489443 -0.13255614 0.05769573 -0.03286706 -0.034165673
0.10999254 0.08714254 -0.09180594 0.09114365 0.0681729 0.11170322 0.12581024 0.08848582
-0.014189738 -0.027567253 -0.10501831 0.15507422 0.109766096 -0.0049349414 0.3691449 0.053580645
-0.13953094 -0.12121334 0.061895628 0.23239313 -0.07382594 -0.09764104 0.103489324 -0.06287924
0.23564367 0.041764144 -0.13732629 0.1333148 0.14003699 -0.040441703 0.087441005 0.07754507
-0.2360948 0.1739755 0.0482693 0.7871215 0.19703467 0.07053035 -0.09029789 0.060802232
0.22495785 1.1904709 0.07411388 0.17022902 1.0092801 0.01600344 0.087347545 -0.072250165
0.10672157 -0.07454651 -0.002454877 -0.030174837 0.16811244 0.029743554 0.054295372 0.088189624
-0.030755827 -0.14073794 0.06453228 -0.13064761 0.07855981 -0.031681336 0.1066555 0.31223848
-0.051409964 -0.0209557 -0.078739956 -0.041604828 0.043476637 -0.08757408 -0.0183849 0.113953896
0.08822719 0.076294996 -0.089840926 0.08838044 0.06967249 -0.01154697 0.019456098 0.015126365
0.044978756 0.1893443 -0.3752123 -0.27943322 -2.1512773 -0.46588302 0.32089967 0.3493617
0.004086109 -0.16060941 1.7298142 -0.062024076 -0.2243414 1.9507031 0.09660388 0.014472145
-0.11164659 -0.067736864 -0.004462174 -0.0410666 -0.07962501 -0.03117198 -0.058399968 -0.07213862
-0.17063159 -0.02001519 -0.050640482 -0.10640465 -0.12476538 -0.07908998 0.10352557 0.08651941
-0.15211177 0.08676366 -0.07765898 -0.017328536 0.018340452 -0.062149905 -0.010809762 0.087165736
-0.06445006 0.10200976 -0.10674351 -0.132786 0.0016649792 0.02361766 0.10085879 0.04838317
0.12088565 -0.033999395 -0.40843794 0.24756972 0.05283499 0.66107565 0.31476948 0.61901796
-0.15174307 -0.2359821 -0.03441167 -0.39424282 -0.16721357 -0.036935087 0.17077485 -0.08893054
-0.029269816 -0.042250637 0.04644275 -0.07518641 -0.071098685 0.11035572 -0.22532593 0.09713844
-0.13007131 -0.25700185 -0.10407544 0.020373344 0.082791656 -0.07484367 -0.14515863 0.0385247
-0.018624835 -0.24118823 -0.093889154 -0.026366252 0.10688493 -0.06040691 -0.018927945 -0.09588717
-0.08596942 -0.035819307 0.02788532 -0.27838144 0.10356503 -0.123994716 -0.09851258 0.03098953
0.10817174 0.019416265 0.015153222 0.064903714 0.14079133 -0.2398544 -0.04247947 0.59556067
0.37605384 -1.1729752 -0.093821235 0.056248326 -0.26398113 0.027765231 -0.1320623 2.10537
-0.006831323 -0.07382076 -0.06271322 -0.013928141 -0.053620223 -0.03083878 0.050124936 0.03438304
0.1241659 -0.006364261 0.08403353 0.024587614 0.007559385 -0.14161885 -0.033469748 0.05070219
-0.07564942 0.0028412344 0.10535184 -0.06871578 -0.026379826 -0.14051275 -0.04205467 0.11079312
0.13215333 0.036662564 -0.099047996 -0.13418119 -0.045309614 -0.0049517667 0.07561956 -0.06543408
-0.112271555 0.12493093 0.11653727 -0.09007876 -0.16223395 -0.88455135 0.3899652 1.5111716
-0.058373768 -0.031540927 -1.066468 -0.21902534 -0.18650928 2.1577659 -0.023123788 -0.19501482
00000000: b8c6 b4be abe8 193c d4b4 cc3f 8943 833e
00000010: 8add aa3e 8852 21bf e689 2f3e 49c6 a83e
00000020: 250f 5dbf 8e5d a13e d605 bc3e 81bb 1cc0
00000030: ccbc 07be 5c52 6c3d 9c9f 06bd 4ef1 0bbd
00000040: c543 e13d ca77 b23d c104 bcbd 86a9 ba3d
00000050: 3c9e 8b3d a8c4 e43d 66d4 003e 0e38 b53d
00000060: 137c 68bc b8d4 e1bc d713 d7bd c7cb 1e3e
00000070: 0ccd e03d 4ab5 a1bb 8f00 bd3e 6177 5b3d
00000080: 33e1 0ebe b33e f8bd 4586 7d3d 77f8 6d3e
00000090: 0e32 97bd 07f8 c7bd 36f2 d33d d5c6 80bd
000000a0: 934c 713e e110 2b3d 439f 0cbe ad83 083e
000000b0: db65 0f3e 33a6 25bd 4514 b33d f3cf 9e3d
000000c0: d6c2 71be a226 323e 08b6 453d cb80 493f
000000d0: 75c3 493e 3772 903d 1aee b8bd c30b 793d
000000e0: 5a5b 663e 5a61 983f 05c9 973d 8450 2e3e
000000f0: 1730 813f a519 833c 45e3 b23d e5f7 93bd
00000100: d790 da3d d7ab 98bd 00e2 20bb 3831 f7bc
00000110: ab25 2c3e c1a8 f33c d364 5e3d c39c b43d
00000120: a5f3 fbbc 9b1d 10be 8029 843d 7dc8 05be
00000130: f7e3 a03d 4ac4 01bd 336e da3d b9dd 9f3e
00000140: 4193 52bd 4aab abbc 6a42 a1bd d369 2abd
00000150: 8f14 323d 0a5a b3bd ee9b 96bc a960 e93d
00000160: 75b0 b43d 8d40 9c3d 85fe b7bd ce00 b53d
00000170: 73b0 8e3d 812f 3dbc 6562 9f3c 93d4 773c
00000180: a53b 383d 79e3 413e d41b c0be df11 8fbe
00000190: 87ae 09c0 3888 eebe f64c a43e 89df b23e
000001a0: c4e4 853b cb76 24be 8d6a dd3f f50c 7ebd
000001b0: c1b9 65be a4b0 f93f 41d8 c53d 931c 6d3c
000001c0: f8a6 e4bd a0b9 8abd 6e37 92bb 7335 28bd
000001d0: 7012 a3bd 615c ffbc ce34 6fbd 6abd 93bd
000001e0: 0cba 2ebe e5f6 a3bc 656c 4fbd aeea d9bd
000001f0: fe84 ffbd edf9 a1bd 3705 d43d 1731 b13d
00000200: 30c3 1bbe 25b1 b13d ac0b 9fbd 93f4 8dbc
00000210: b73e 963c e690 7ebd 6e1b 31bc f383 b23d
00000220: 65fe 83bd 7eea d03d 579c dabd 0ef9 07be
00000230: 6e3b da3a d379 c13c 0e8f ce3d 6e2d 463d
00000240: e592 f73d f342 0bbd c71e d1be eb82 7d3e
00000250: 8169 583d 413c 293f 7729 a13e f677 1e3f
00000260: 8962 1bbe 4ba5 71be 40f3 0cbd 32da c9be
00000270: 093a 2bbe 3f49 17bd 9adf 2e3e 3721 b6bd
00000280: 41c7 efbc 010f 2dbd c13a 3e3d 55fb 99bd
00000290: 309c 91bd 2e02 e23d d7bb 66be 85f0 c63d
000002a0: 6a31 05be bf95 83be 8125 d5bd 00e6 a63c
000002b0: ac8e a93d a347 99bd 77a4 14be 13cc 1d3d
000002c0: 1c93 98bc 0cfa 76be f548 c0bd 0afe d7bc
000002d0: 7ce6 da3d 3c6d 77bd c70e 9bbc 7e60 c4bd
000002e0: bc10 b0bd 44b7 12bd c16f e43c 0388 8ebe
000002f0: e719 d43d f1f0 fdbd f7c0 c9bd c1dd fd3c
00000300: 2589 dd3d dc0e 9f3c 3845 783c 3dec 843d
00000310: 9a2b 103e 649c 75be f4fe 2dbd aa76 183f
00000320: 218a c03e 0d24 96bf 5925 c0bd a564 663d
00000330: 8928 87be e973 e33c 573b 07be 62be 0640
00000340: 4ad9 dfbb 572f 97bd ca6f 80bd dc32 64bc
00000350: e1a0 5bbd 9ca1 fcbc ce4f 4d3d 3bd5 0c3d
00000360: b14a fe3d 4a8b d0bb c519 ac3d f76b c93c
00000370: b8b4 f73b 8804 11be 9317 09bd 19ad 4f3d
00000380: 15ee 9abd 0134 3a3b b5c2 d73d dcba 8cbd
00000390: 811a d8bc 93e2 0fbe 8541 2cbd 81e7 e23d
000003a0: 3453 073e 7c2b 163d add9 cabd cb66 09be
000003b0: 9396 39bd 6e42 a2bb 6ede 9a3d 4e02 86bd
000003c0: a1ee e5bd cadb ff3d 18ab ee3d 377b b8bd
000003d0: a820 26be f571 62bf 85a9 c73e 126e c13f
000003e0: 5519 6fbd 0f31 01bd 0682 88bf 2e48 60be
000003f0: 4afc 3ebe d618 0a40 196e bdbc f7b1 47be

fc1.bias f4 [128]
0.10753026 0.21139121 -0.005983107 -0.21060422 0.027013777 0.061129272 0.010935294 -0.0450944
0.03626545 -0.16621208 0.010479759 -0.02025957 0.041143242 0.121704265 0.22179735 0.09548466
-0.049858484 -0.112985045 -0.20293124 -0.033307917 0.03664792 -0.22461742 0.00055770995 0.14594005
-0.17416866 0.04206542 -0.16900249 -0.08168119 -0.12145316 -0.3230982 -0.009044075 -0.12790824
-0.52123046 -0.18132022 -0.10633189 -0.18056165 -0.22250533 -0.07830533 0.31175345 -0.19448347
-0.06560986 -0.0029286481 0.005565986 0.12407147 0.25853655 -0.22116292 0.2563689 0.21366858
-0.10621779 -0.09514899 -0.14929844 0.024739126 -0.02332155 0.08093023 -0.16056284 -0.03210542
-0.085164376 0.09641226 0.23798369 -0.13685644 -0.1294203 -0.07532236 -0.076402456 0.052230567
0.19109371 -0.030528996 -0.04317982 0.106578074 0.058561444 0.0113286115 0.07668345 0.03299103
-0.18963929 -0.24993138 0.1436064 0.08848963 -0.14173387 -0.026546728 0.25856918 -0.014062654
0.16475047 0.0434187 0.15769832 0.043839063 0.099004254 -0.28834537 0.09127504 0.26407322
0.00024467817 0.03647609 0.06581207 0.045815863 -0.34331 0.19899271 0.38998693 -0.19437426
0.38372546 0.09754338 -0.19599701 -0.26842764 -0.07538783 -0.3083795 -0.07954056 -0.116827324
0.03767755 -0.22261885 0.14918613 0.1903321 -0.14230101 0.18550049 0.2021584 0.07936374
0.02932261 0.38592046 0.090099595 -0.09122336 -0.116508685 -0.08524424 0.20535329 0.10510503
0.0677812 -0.053597018 -0.08786373 -0.02572533 0.03597238 -0.17229567 0.35550773 -0.2422849
00000000: d338 dc3d f076 583e f00d c4bb a2a8 57be
00000010: ff4b dd3c b062 7a3d f329 333c e8b4 38bd
00000020: 158b 143d 8033 2abe 4cb3 2b3c 66f7 a5bc
00000030: d185 283d 1640 f93d d81e 633e 768d c33d
00000040: 6938 4cbd b464 e7bd 35cd 4fbe e26d 08bd
00000050: 211c 163d 1c02 66be 4833 123a 4f71 153e
00000060: 4559 32be ca4c 2c3d fd0e 2dbe 7848 a7bd
00000070: 6fbc f8bd 216d a5be 9a2d 14bc 61fa 02be
00000080: 5c6f 05bf 02ac 39be 89c4 d9bd 27e5 38be
00000090: 70d8 63be 8b5e a0bd 269e 9f3e ad26 47be
000000a0: 765e 86bd 90ee 3fbb e062 b63b 2f19 fe3d
000000b0: e75e 843e 8878 62be c942 833e f0cb 5a3e
000000c0: b688 d9bd 79dd c2bd b1e1 18be b5a9 ca3c
000000d0: d60c bfbc c0be a53d 966a 24be f980 03bd
000000e0: a96a aebd ca73 c53d ffb1 733e 1824 0cbe
000000f0: c186 04be 9c42 9abd e478 9cbd b8ef 553d
00000100: 12ae 433e f217 fabc 53dd 30bd 9b45 da3d
00000110: 20de 6f3d a49b 393c 360c 9d3d 9a21 073d
00000120: cd30 42be 03ee 7fbe 8e0d 133e 0d3a b53d
00000130: af22 11be 8678 d9bc 2e63 843e 0c67 66bc
00000140: 59b4 283e cfd7 313d ab7b 213e 9790 333d
00000150: bec2 ca3d 01a2 93be 68ee ba3d 9b34 873e
00000160: 2648 8039 f467 153d 7bc8 863d 6aa9 3b3d
00000170: 54c6 afbe bfc4 4b3e 5eac c73e 0c0a 47be
00000180: aa77 c43e d3c4 c73d 71b3 48be 596f 89be
00000190: ef64 9abd ebe3 9dbe 29e6 a2bd 2a43 efbd
000001a0: c653 1a3d 32f6 63be 40c4 183e 6be6 423e
000001b0: 5bb7 11be d7f3 3d3e 9d02 4f3e 7589 a23d
000001c0: f835 f03c 5e97 c53e 2386 b83d 50d3 babd
000001d0: 1b9c eebd 8894 aebd 2248 523e 4e41 d73d
000001e0: dfd0 8a3d 8c88 5bbd e6f1 b3bd edbd d2bc
000001f0: c657 133d 476e 30be 1c05 b63e 8819 78be

fc2.weight f4 [2, 128]
0.5665146 0.8044322 0.41447464 0.090076864 -0.097140774 -1.8158386 0.12047967 -0.045951635
0.26935396 0.39864373 0.6497632 0.061588474 0.32449448 0.08239774 -0.19926013 0.06494718
0.12912397 -1.6577691 0.28875884 1.2103024 -0.35425547 0.33980235 -0.30382445 0.40044618
0.18309142 -0.50016326 0.34058234 -0.21910214 0.69356835 0.6288073 0.1666458 -0.23714884
0.6560613 0.26491842 0.33787945 0.28359336 -0.4979635 0.14370498 0.54871804 0.32353115
0.3739944 0.056784745 -1.6197978 0.1608062 0.13580595 0.25897595 -0.5017253 0.3922225
-0.082703464 0.3575809 -0.004540366 0.057920612 0.038427643 0.39635447 1.0010539 0.25314337
0.87663686 0.04168433 -0.11103154 -1.1631314 -0.29346058 -0.37554646 -0.28289643 0.3217096
0.6195698 0.20666105 0.41599253 0.67414314 -0.33817196 0.16287164 0.29836023 -2.1105278
0.3584788 0.13825414 0.46435454 -0.32329464 -0.184082 -0.0075588278 -0.11235451 0.20987076
0.10386505 0.43206453 -0.27749065 0.38560927 -0.009766513 -0.042312294 -0.083903 0.41966093
0.40861613 -0.267683 -0.1473581 0.1745888 0.42252606 0.2876866 0.6145569 0.092699304
-0.15703227 0.36446843 0.13575466 -0.038145434 0.005532146 -0.07529533 -0.19036824 0.10100704
-1.9306495 -0.046945825 0.2922817 0.21366052 0.1481673 0.4031004 -0.14143765 0.3012873
-0.40575856 0.95924515 0.0948689 -0.27496886 0.37886748 -0.10036009 -0.19799787 -0.038905118
0.4446398 -0.26372582 0.06880435 0.17828001 -0.1406478 0.52377725 -0.382117 -0.15398501
1.1154693 0.0033007504 1.6319124 0.27360758 -1.0118157 -0.6142252 0.51840675 -1.0176626
0.08057269 1.2398974 1.8138853 -0.9346547 -1.8913547 -1.0664538 1.4989882 0.20029609
2.039655 1.5801557 0.26797798 -1.0552979 -0.35440192 -1.580294 -1.4962955 -1.504373
0.67869943 -1.0757403 0.26889518 -2.326442 0.3678458 0.7717624 0.1818217 -2.5422587
1.4217322 1.3891999 1.3765346 1.1392276 -1.3949364 1.5433658 2.4444387 0.62750685
-0.5953418 -1.1135894 0.5972466 0.34572557 0.53262174 1.26027 0.14546731 0.63025516
-0.098587714 0.90710163 -0.3951005 -0.7122457 -4.998931 0.1755535 -1.128864 0.24102597
-0.67387813 0.5038068 2.809341 -2.4848125 -0.06969495 -0.30355757 -1.4144577 1.3141139
-0.5326742 1.4274265 1.1834025 -0.022509888 0.72946054 1.21954 1.9621538 -1.0415937
1.20906 -1.37465 0.14344822 -0.77243125 -0.60330975 -0.7396639 -0.5138193 0.6240243
1.293491 1.1179962 1.6187096 0.20987904 -0.7137068 1.6689672 0.6125523 0.6027839
1.0932454 0.25602084 -1.5403095 0.72906816 0.68734056 0.41595313 0.9253321 2.8397458
1.3985016 -0.08218572 0.058092915 -1.0397375 0.018354664 0.7138897 -1.2468984 0.30543885
-2.458989 -1.0711169 1.4269518 1.2627356 1.5839084 1.0591835 -0.83818656 -2.671907
-1.0643852 0.8395448 2.5707946 -1.7795099 0.65875196 1.2431388 -0.5907978 0.61768514
1.376114 3.6127892 2.28537 1.2602317 -0.7641282 1.5135425 -1.4806167 1.0785028
00000000: 1a07 113f 45ef 4d3f 0536 d43e 387a b83d
00000010: bef1 c6bd 666d e8bf 0cbe f63d c837 3cbd
00000020: c3e8 893e 081b cc3e e256 263f 3244 7c3d
00000030: 2424 a63e 25c0 a83d d90a 4cbe 0703 853d
00000040: 1339 043e c731 d4bf 33d8 933e 30eb 9a3f
00000050: f960 b5be 93fa ad3e e18e 9bbe 4807 cd3e
00000060: 517c 3b3e b30a 00bf cf60 ae3e 505c 60be
00000070: b28d 313f 84f9 203f 32a5 2a3e 25d7 72be
00000080: a2f3 273f 63a3 873e 89fe ac3e 2633 913e
00000090: 12f5 febe 6627 133e c978 0c3f e0a5 a53e
000000a0: 327c bf3e 1f97 683d 8955 cfbf 61aa 243e
000000b0: b710 0b3e 7f98 843e 1271 00bf 63d1 c83e
000000c0: 6f60 a9bd d814 b73e 5ac7 94bb 2a3e 6d3d
000000d0: 4e66 1d3d f9ee ca3e 8922 803f 029c 813e
000000e0: 466b 603f 30bd 2a3d 8164 e3bd 7de1 94bf
000000f0: 7740 96be a047 c0be cdd7 90be 1fb7 a43e
00000100: 209c 1e3f f49e 533e f9fc d43e a594 2c3f
00000110: e024 adbe d3c7 263e acc2 983e e312 07c0
00000120: 898a b73e 7e92 0d3e e1bf ed3e e086 a5be
00000130: fe7f 3cbe 0bb0 f7bb 1f1a e6bd 5ce8 563e
00000140: 33b7 d43d 9037 dd3e 4113 8ebe 946e c53e
00000150: b903 20bc a84f 2dbd 56d5 abbd ccdd d63e
00000160: 2236 d13e bf0d 89be 0be5 16be 68c7 323e
00000170: 5655 d83e a84b 933e 9a53 1d3f 22d9 bd3d
00000180: 11cd 20be 9b9b ba3e 4503 0b3e 633e 1cbd
00000190: 0147 b53b 7034 9abd e4ef 42be c7dc ce3d
000001a0: 861f f7bf 444a 40bd f2a5 953e d3c9 5a3e
000001b0: 2bb9 173e 2d63 ce3e 08d5 10be 5442 9a3e
000001c0: 96bf cfbe 1791 753f a04a c23d b8c8 8cbe
000001d0: ebfa c13e 9789 cdbd f4bf 4abe f95a 1fbd
000001e0: d4a7 e33e 1207 87be 4ce9 8c3d 098f 363e
000001f0: fa05 10be 4416 063f d7a4 c3be 3fae 1dbe
00000200: b3c7 8e3f 6751 583b 81e2 d03f 4b16 8c3e
00000210: 2d83 81bf dd3d 1dbf 4eb6 043f c542 82bf
00000220: 4b03 a53d f5b4 9e3f 652d e83f 8845 6fbf
00000230: e917 f2bf 8f81 88bf d8de bf3f 6b1a 4d3e
00000240: b589 0240 8b42 ca3f 6934 893e 0014 87bf
00000250: 2b74 b5be 1347 cabf 9c86 bfbf 4b8f c0bf
00000260: 3fbf 2d3f dcb1 89bf a1ac 893e 6de4 14c0
00000270: 4956 bc3e 3892 453f 782f 3a3e 5eb4 22c0
00000280: 52fb b53f 4dd1 b13f 4932 b03f 36d2 913f
00000290: 478d b2bf 038d c53f af71 1c40 4aa4 203f
000002a0: 5268 18bf 198a 8ebf 27e5 183f f102 b13e
000002b0: e659 083f 8750 a13f 62f5 143e 6758 213f
000002c0: 5be8 c9bd d037 683f 9d4a cabe bc55 36bf
000002d0: 3ef7 9fc0 4cc4 333e 9e7e 90bf 83cf 763e
000002e0: 4783 2cbf 7cf9 003f 3ecc 3340 2b07 1fc0
000002f0: 3abc 8ebd e66b 9bbe f30c b5bf e234 a83f
00000300: 565d 08bf e9b5 b63f bc79 973f a866 b8bc
00000310: edbd 3a3f e319 9c3f db27 fb3f f152 85bf
00000320: 7ac2 9a3f 88f4 afbf 17e4 123e 0ebe 45bf
00000330: 8272 1abf 9d5a 3dbf a989 03bf 0ec0 1f3f
00000340: 1d91 a53f 801a 8f3f e031 cf3f 88ea 563e
00000350: 7db5 36bf b8a0 d53f 3ad0 1c3f 0c50 1a3f
00000360: 77ef 8b3f 2a15 833e dd28 c5bf 36a4 3a3f
00000370: 8df5 2f3f cff7 d43e 91e2 6c3f 65be 3540
00000380: 1a02 b33f fd50 a8bd d6f2 6d3d 1e16 85bf
00000390: 855c 963c 7ac1 363f 5e9a 9fbf 7b62 9c3e
000003a0: 1360 1dc0 5c1a 89bf 5ba6 b63f 52a1 a13f
000003b0: 83bd ca3f 5393 873f 6593 56bf 8600 2bc0
000003c0: c63d 88bf 68ec 563f e687 2440 fbc6 e3bf
000003d0: f8a3 283f 2c1f 9f3f 863e 17bf 9d20 1e3f
000003e0: 8124 b03f f037 6740 8143 1240 464f a13f
000003f0: e89d 43bf c3bb c13f d984 bdbf 610c 8a3f

fc2.bias f4 [2]
0.18837363 0.2530486
00000000: 04e5 403e 968f 813e
