Existing_MARL-SimpleSpreadv3/double_dqn_models/final_agent_2.pt (torch, 156829 bytes, 6 tensors)

fc_layers.0.weight f4 [256, 18]
-0.14639443 0.04802819 -0.7126629 0.3897736 0.056090422 -0.032470793 0.22175854 -0.0787215
0.5641004 -0.4996558 -0.34610623 0.32970336 -0.6574792 0.20954816 -0.2101473 0.09854102
-0.21225923 -0.039223798 -0.12166952 0.004251031 -0.13153908 -0.03593708 0.40040162 -0.12584873
-0.17279169 -0.2783265 0.1758776 0.008179169 -0.2918228 0.47272083 -0.2012912 0.47999227
0.023873184 -0.03310014 -0.10194033 0.21608588 -0.050790325 -0.0056488942 0.12857912 -0.06429967
-0.33072916 1.0664036 0.041272737 -0.005574166 0.0590829 -0.17004089 0.40691507 -1.3003026
-0.033988815 0.16600144 -0.11348334 0.023275176 -0.15966365 0.116092145 -0.11524173 0.08854752
0.3397814 -0.2605163 0.3353894 0.14326163 0.17396028 -0.04710614 -0.26403305 0.23077062
0.5992542 0.25516322 -0.25685278 -0.39003286 -0.20196152 0.087846816 0.17321728 -0.035171263
-0.010577908 -0.16222174 0.06783704 0.13089454 -0.5099122 -0.98596954 0.048431907 0.08373978
0.059973408 0.11712811 0.5885494 1.1925088 -0.1847612 -0.16632986 0.17433788 0.12649432
-0.03299854 0.050251406 -0.205811 -0.18122818 -0.10150121 -0.46866232 0.17390466 0.116276234
0.16556972 0.5226606 -0.3926334 0.26620224 0.086259775 -0.17231163 0.4839461 -0.19828576
-0.0465211 0.110779054 -0.08361047 0.10624647 -0.10044175 -0.048701495 -0.17649913 0.13003995
0.0039516613 0.13068579 0.2069583 -0.1836224 -0.3088673 -0.0066340603 -0.10438658 -0.061942477
0.016020047 0.13684922 -0.17855828 -0.084795944 -0.20472252 0.14317948 0.1458165 0.2332625
-0.13020739 0.2831996 0.32438317 0.12618594 0.17147231 0.010053639 0.4439912 0.010546192
-0.22424135 -0.20753391 0.118112475 0.12963095 0.07568655 -0.1707179 -0.21242262 0.06951811
0.1875517 -0.28730124 -0.032177765 0.057077967 -0.051664583 0.098686896 -0.04415248 -0.17175934
-0.16264471 0.036928907 0.11389985 0.011908695 -0.9102044 1.1738123 0.07883248 -0.020531472
-0.14393096 0.089976415 -0.003399338 -0.13754985 0.35667858 0.0076753655 -0.21607155 -0.015759775
-0.20046051 0.19166952 -0.18166752 0.09022547 0.16224214 0.075607456 0.6618901 -0.20772934
-0.076646574 -0.17047925 -0.23131402 -0.16322662 -0.01247672 -0.0019899993 0.0066702235 0.17831723
0.08913159 0.059945427 -0.03494876 0.09445975 0.39715898 -1.1994262 -0.5079524 1.3018377
0.11248257 -0.24087448 0.06646881 -0.14465189 0.08334517 -0.020619363 0.36632508 0.25440678
0.011574411 -0.06546366 -0.049753956 0.023415463 -1.4139811 -0.9180083 0.013389492 -0.029300086
-0.06277067 -0.080631934 0.003302298 -0.022573737 -0.15164034 -0.0529093 -0.16659223 -0.21565531
-0.18416727 -0.21766457 0.2831016 0.44050008 -0.047557663 0.14290081 -0.14332415 -0.6611436
0.09410688 0.055906188 0.46362764 0.56852233 -0.10416321 -0.006664805 0.15902509 0.065591514
-0.1981382 0.13467084 -0.06395072 -0.0941585 0.24895954 -0.12352384 -0.008287927 0.38251874
-0.06423836 0.3472148 -0.2758967 -0.7311301 -0.12327768 0.07523309 0.17326203 -0.39198342
0.14898233 0.21006317 -0.17335263 -0.23503438 0.035528872 0.084189035 -0.11225783 0.28501284
00000000: 6ce8 15be 35b9 443d 1371 36bf 6890 c73e
00000010: 12bf 653d 1800 05bd ac14 633e bd38 a1bd
00000020: e268 103f e3d2 ffbe d634 b1be e1ce a83e
00000030: 8f50 28bf cb93 563e db30 57be e0cf c93d
00000040: 7c5a 59be 22a9 20bd df2d f9bd 3c4c 8b3b
00000050: 2eb2 06be c232 13bd 7101 cd3e 7dde 00be
00000060: 4ef0 30be d080 8ebe 4219 343e ec01 063c
00000070: cc69 95be 7708 f23e 481f 4ebe 8cc1 f53e
00000080: b291 c33c 0394 07bd 17c6 d0bd 9e45 5d3e
00000090: 8409 50bd 5c1a b9bb 3faa 033e 8caf 83bd
000000a0: 5555 a9be ea7f 883f 9a0d 293d 7ea7 b6bb
000000b0: e900 723d 331f 2ebe 2c57 d03e 5170 a6bf
000000c0: db37 0bbd 48fc 293e f469 e8bd 95ab be3c
000000d0: de7e 23be b8c1 ed3d db03 ecbd 6758 b53d
000000e0: d4f7 ad3e 6462 85be 29b8 ab3e 2db3 123e
000000f0: a522 323e 5ef2 40bd 572f 87be 224f 6c3e
00000100: b968 193f c1a4 823e 3582 83be 63b2 c7be
00000110: 00cf 4ebe 08e9 b33d df5f 313e be0f 10bd
00000120: f64e 2dbc 751d 26be 25ee 8a3d 3809 063e
00000130: 9b89 02bf 8068 7cbf 8960 463d c37f ab3d
00000140: ada6 753d dde0 ef3d 2cab 163f 21a4 983f
00000150: 0a32 3dbe 6052 2abe a185 323e ba87 013e
00000160: 7a29 07bd 6bd4 4d3d 1ec0 52be e193 39be
00000170: dedf cfbd 82f4 efbe 1014 323e 3c22 ee3d
00000180: 1c8b 293e 16cd 053f 3f07 c9be a94b 883e
00000190: f7a8 b03d 7672 30be c9c7 f73e 6c0b 4bbe
000001a0: e98c 3ebd 21e0 e23d f73b abbd c097 d93d
000001b0: 67b4 cdbd 387b 47bd 30bc 34be 3129 053e
000001c0: f07c 813b 7fd2 053e e0ec 533e 8307 3cbe
000001d0: db23 9ebe 8862 d9bb a2c8 d5bd 65b7 7dbd
000001e0: 793c 833c 3422 0c3e fbd7 36be 7fa9 adbd
000001f0: c8a2 51be a49d 123e ec50 153e 5ddc 6e3e
00000200: 1655 05be 8aff 903e 8d15 a63e e336 013e
00000210: 7096 2f3e 05b8 243c d152 e33e efc9 2c3c
00000220: 869f 65be c583 54be f4e4 f13d fabd 043e
00000230: 8d01 9b3d acd0 2ebe 5185 59be 835f 8e3d
00000240: 8e0d 403e 2619 93be d5cc 03bd 96ca 693d
00000250: 3e9e 53bd 5b1c ca3d 3bd9 34bd aee1 2fbe
00000260: 568c 26be c442 173d 5344 e93d b01c 433c
00000270: 2803 69bf 7b3f 963f ec72 a13d 9e31 a8bc
00000280: a362 13be 8e45 b83d 6ec7 5ebb ded9 0cbe
00000290: 939e b63e a281 fb3b dc41 5dbe a51a 81bc
000002a0: 8545 4dbe 0445 443e 0d07 3abe 22c8 b83d
000002b0: ce22 263e 15d8 9a3d a171 293f 00b7 54be
000002c0: e1f8 9cbd 1d92 2ebe 95dd 6cbe e124 27be
000002d0: 286b 4cbc a66a 02bb e491 da3b cb98 363e
000002e0: a08a b63d 5689 753d 6e26 0fbd 1d74 c13d
000002f0: 6c58 cb3e cc86 99bf 2b09 02bf 9ea2 a63f
00000300: 435d e63d cda7 76be cd20 883d a01f 14be
00000310: dfb0 aa3d f0e9 a8bc f68e bb3e 9b41 823e
00000320: 99a2 3d3c d011 86bd ceca 4bbd c9d1 bf3c
00000330: 55fd b4bf 9802 6bbf 9a5f 5b3c bc06 f0bc
00000340: e98d 80bd 5b22 a5bd 5e6b 583b 8fec b8bc
00000350: 9b47 1bbe 6cb7 58bd 2797 2abe bfd4 5cbe
00000360: 5896 3cbe 76e3 5ebe b1f2 903e 3a89 e13e
00000370: d3cb 42bd 9754 123e 91c3 12be b540 29bf
00000380: 1cbb c03d e3fd 643d 9a60 ed3e ae8a 113f
00000390: 8553 d5bd 7064 dabb 79d7 223e d854 863d
000003a0: bee4 4abe 27e7 093e 98f8 82bd 2cd6 c0bd
000003b0: 40ef 7e3e 11fa fcbd 16ca 07bc 7fd9 c33e
000003c0: 678f 83bd 23c6 b13e 5542 8dbe 582b 3bbf
000003d0: 0279 fcbd ce13 9a3d 9a6b 313e 0db2 c8be
000003e0: d38e 183e cd1a 573e 5a83 31be daac 70be
000003f0: b986 113d 4d6b ac3d 6fe7 e5bd 34ed 913e

fc_layers.0.bias f4 [256]
-1.0954717 -1.2696775 -0.21963039 -0.78900117 -0.22616166 -0.9744499 -1.1921294 -1.1444076
-0.19134884 -1.2393929 -0.12640867 -0.03090546 -0.611616 -0.36242726 -1.1878558 -0.9520356
-1.0685184 -0.028092181 -0.70964736 -1.1119859 -1.0018393 -1.0040352 -0.93313015 -1.0772438
-0.25819972 -1.0478739 -0.06594305 -0.9164986 -0.97174364 -0.14437227 -1.157243 -0.8672331
0.17592445 -0.11812413 -1.0812165 -0.7116378 -0.08745991 -1.0091603 -0.07110658 -1.1170342
-0.89143616 -0.83014 -1.1183947 -1.0886159 -1.0702615 -0.92670727 -0.1692543 -1.1752826
-1.0215566 -1.0324826 -0.42851862 -0.91349286 -1.0720046 -1.033282 -1.0290284 0.13144512
-1.1429979 -0.9279098 -1.1454571 -1.1105137 -0.8535808 -0.84278953 -0.90943336 -0.17402934
-1.1439631 -1.0700841 -1.1605401 -1.0518404 -1.0027958 -0.51256317 -0.75901645 -0.2796802
-1.139599 -0.70649564 -0.79483193 -1.0022693 -1.1904931 -0.8917184 -0.7887177 -0.89922297
-0.7598907 -1.1569117 -0.12864101 -0.26836252 -1.0747663 -1.112779 -0.87130374 -0.16065834
-0.8477175 -0.92800057 -0.9020526 -0.8851648 -1.0120717 -0.92341703 -0.6265579 -0.11780106
-0.96788055 -1.1069864 -0.07993826 -1.0128902 -1.0679308 -1.1464065 -0.30271876 -1.0705316
-1.0477737 -0.086609475 -0.99899405 -1.1728613 -0.27959743 -0.03365814 -1.2575059 -0.8697524
-1.0765749 -0.9308351 -1.1232083 -0.28981757 -0.91892284 -0.15953194 -0.6056671 -1.1627152
-1.0191369 -0.15692574 -0.30695698 -0.9998275 -1.237183 -0.07248405 -1.0852159 -0.865711
-1.0783985 -1.2146095 -0.6383816 -1.1011821 -1.0440578 -0.9634929 -0.92746776 -0.7590181
-1.0570602 -0.16543737 -1.0551978 -1.2376527 -1.0151371 -1.0858355 -0.030154107 -0.86939675
-0.72990346 -0.9756686 -0.9541658 -0.063967556 -0.9402793 -0.8453967 -0.674778 -0.6272181
-1.1553615 -1.0701138 -0.19500464 -0.8050845 -0.92686427 -1.275091 0.021399006 -0.94266224
-0.28044033 -0.2597249 -1.1112638 -0.15509896 -0.98995864 -0.87538207 -0.60446423 -0.9432417
-1.1932465 -0.3094245 -0.14790165 -0.8008328 -0.9685031 -0.9027574 -1.2367479 -1.034632
-0.8666507 -1.139681 -0.84013444 -0.93155986 -0.15446106 -1.095706 -1.0042807 -0.2636968
-0.020695781 -1.1013573 -1.1322837 -0.021632755 -1.1353666 0.034875073 -0.9493435 -0.8106036
-0.5714069 -0.98746234 -0.04419401 -1.0949366 -0.94813734 -0.79679734 -0.21307677 -1.0722175
-1.128967 -0.91414404 -0.11054226 -0.2581528 -0.9272559 -0.72323817 -0.8594508 -0.9524986
-1.1491624 -0.85544026 -1.0626893 -1.0332879 -0.8488509 -0.6550911 -1.08888 -1.0140268
-0.8773639 -0.9988777 -0.7404599 -0.9702372 -0.68566734 -0.6802981 -0.71662176 -1.1731966
-0.59402674 -1.0948098 -1.0634289 -0.06787248 -0.99482626 -1.0303361 -1.1889322 -0.9447166
-0.38157806 -0.15241022 -0.96904624 -0.4362526 -1.0228611 -1.1001371 -1.1451275 -1.0249941
-0.89299995 -1.0645506 -0.095636494 -0.22531061 -0.13545148 -0.24262854 -1.014435 -1.2271726
-1.1286955 -0.6807396 -0.7272871 -1.0075188 -1.0221866 -0.9866588 -1.1088418 -0.89079666
00000000: 6b38 8cbf cb84 a2bf cae6 60be fbfb 49bf
00000010: ec96 67be 8c75 79bf b297 98bf f37b 92bf
00000020: f3f0 43be 6da4 9ebf 4671 01be 722d fdbc
00000030: de92 1cbf 1190 b9be a90b 98bf 9bb8 73bf
00000040: 36c5 88bf 9321 e6bc 73ab 35bf 8e55 8ebf
00000050: 453c 80bf 3a84 80bf 9ee1 6ebf 20e3 89bf
00000060: c132 84be bb20 86bf 260d 87bd a79f 6abf
00000070: 31c4 78bf 53d6 13be 8a20 94bf fd02 5ebf
00000080: 8a25 343e 10eb f1bd 4d65 8abf e52d 36bf
00000090: 2e1e b3bd 2a2c 81bf 54a0 91bd fafa 8ebf
000000a0: 2935 64bf 0e84 54bf 8f27 8fbf c457 8bbf
000000b0: 54fe 88bf b03c 6dbf 0051 2dbe a96f 96bf
000000c0: 5ec2 82bf 6428 84bf cb66 dbbe abda 69bf
000000d0: 7237 89bf 9642 84bf 34b7 83bf 8d99 063e
000000e0: c14d 92bf 7f8b 6dbf 579e 92bf 5025 8ebf
000000f0: 4584 5abf 0ec1 57bf a0d0 68bf bf34 32be
00000100: 626d 92bf 84f8 88bf 948c 94bf b5a2 86bf
00000110: 9d5b 80bf 5737 03bf e74e 42bf 3e32 8fbe
00000120: 61de 91bf e6dc 34bf 1b7a 4bbf 5c4a 80bf
00000130: 1462 98bf a847 64bf 67e9 49bf 7a33 66bf
00000140: 3288 42bf af15 94bf 78ba 03be d066 89be
00000150: f191 89bf 8b6f 8ebf c30d 5fbf 9f83 24be
00000160: 0404 59bf 7291 6dbf ebec 66bf 299a 62bf
00000170: 918b 81bf 0f65 6cbf 1966 20bf af41 f1bd
00000180: 05c7 77bf bbb1 8dbf acb6 a3bd 63a6 81bf
00000190: f5b1 88bf 73bd 92bf f4fd 9abe 2e07 89bf
000001a0: 731d 86bf 4f60 b1bd 13be 7fbf 5220 96bf
000001b0: 6527 8fbe 1edd 09bd f4f5 a0bf 18a8 5ebf
000001c0: 35cd 89bf 364b 6ebf 4ac5 8fbf f862 94be
000001d0: 873e 6bbf 575c 23be 000d 1bbf dad3 94bf
000001e0: 1473 82bf 24b1 20be 7729 9dbe b2f4 7fbf
000001f0: 035c 9ebf 8572 94bd 5be8 8abf 3c9f 5dbf
00000200: f608 8abf 5378 9bbf fa6c 23bf 89f3 8cbf
00000210: b0a3 85bf 78a7 76bf 876e 6dbf 034f 42bf
00000220: c04d 87bf 6a68 29be b910 87bf 676b 9ebf
00000230: 03f0 81bf a8fc 8abf bf05 f7bc c990 5ebf
00000240: f4da 3abf 6bc5 79bf 3644 74bf 6c01 83bd
00000250: 25b6 70bf eb6b 58bf 40be 2cbf 5e91 20bf
00000260: e3e2 93bf 7df9 88bf 4caf 47be 051a 4ebf
00000270: fa46 6dbf 2f36 a3bf f84c af3c 5052 71bf
00000280: e095 8fbe a9fa 84be e43d 8ebf 43d2 1ebe
00000290: ee6d 7dbf 0a19 60bf 2bbe 1abf 4a78 71bf
000002a0: 4dbc 98bf e36c 9ebe 8873 17be 6103 4dbf
000002b0: d2ef 77bf 1c1b 67bf c14d 9ebf d26e 84bf
000002c0: d2dc 5dbf 11e1 91bf 0d13 57bf b57a 6ebf
000002d0: 0a2b 1ebe 1840 8cbf 458c 80bf 4403 87be
000002e0: 338a a9bc 47f9 8cbf acee 90bf 2d37 b1bc
000002f0: b153 91bf 2ad9 0e3d 2d08 73bf b883 4fbf
00000300: b947 12bf 55ca 7cbf c704 35bd e226 8cbf
00000310: 21b9 72bf e9fa 4bbf cc30 5abe 6c3e 89bf
00000320: fe81 90bf 5805 6abf fb63 e2bd 9b2c 84be
00000330: a560 6dbf 2326 39bf f804 5cbf f3d6 73bf
00000340: c117 93bf 22fe 5abf 3406 88bf c742 84bf
00000350: 4b4e 59bf 0db4 27bf 6b60 8bbf a1cb 81bf
00000360: ec9a 60bf 73b6 7fbf c88e 3dbf 7761 78bf
00000370: e587 2fbf 0428 2ebf 8674 37bf 4e2b 96bf
00000380: 2312 18bf ba22 8cbf 701e 88bf ba00 8bbd
00000390: efac 7ebf 0ee2 83bf ee2e 98bf f2d8 71bf
000003a0: 335e c3be 6d11 1cbe 6a13 78bf 805c dfbe
000003b0: 1ded 82bf 4bd1 8cbf 8a93 92bf 0233 83bf
000003c0: a59b 64bf 3243 88bf 11dd c3bd d3b7 66be
000003d0: cbb3 0abe 9e73 78be 02d9 81bf fe13 9dbf
000003e0: 1879 90bf f344 2ebf 7d2f 3abf 60f6 80bf
000003f0: 03d7 82bf ac95 7cbf 87ee 8dbf 400b 64bf

fc_layers.2.weight f4 [128, 256]
0.036647946 -0.010487614 -0.074977554 0.029430334 0.028924096 -0.027941078 -0.06521501 -0.031821545
0.010801161 -0.0170652 -0.09929398 -0.049732342 0.012758964 -0.08079811 -0.052937414 0.03859082
-0.012288687 -0.14082985 0.009000993 0.014019648 -0.11118301 -0.062061023 0.031830065 0.02212147
-0.098506525 -0.071284644 -0.12930168 -0.0027936373 0.020705499 -0.06688833 -0.04571784 0.043123398
-0.004781114 -0.036748137 -0.045422625 0.025640382 -0.02845101 0.015390273 -0.07381206 0.011355635
-0.049311597 -0.038367394 -0.03913037 -0.09454004 0.0047779293 0.017420828 -0.103426546 -0.09173188
-0.043799695 -0.053804368 -0.08989225 -0.12354768 -0.0026088455 0.0010094667 -0.033774402 -0.040303174
-0.026163122 0.069696784 -0.062414084 -0.00879335 -0.06774692 -0.027536554 0.00062300626 0.005235547
-0.08096292 0.014647758 -0.013119078 -0.027316405 -0.046190705 -0.0658278 -0.0070517827 -0.04042127
0.018535264 -0.058281574 -0.025242403 -0.0544606 -0.055223126 -0.030721778 -0.027666356 0.008423765
0.031047199 0.02687156 -0.037687793 -0.007614541 -0.030381305 -0.004276479 -0.06029967 -0.06098768
-0.0321598 -0.067405134 -0.06479076 -0.025402412 -0.010317645 0.020604635 -0.027247993 -0.022846347
-0.04495865 -0.024875417 -0.071013324 0.005720696 -0.016872631 -0.061630387 -0.048961446 0.0021299843
-0.01570656 0.019673426 -0.049121004 0.005424508 -0.12891856 -0.0734859 0.010708718 -0.051299255
-0.06772316 -0.08049279 -0.07335528 -0.058720134 -0.052914273 -0.07294013 -0.042978875 -0.03342403
-0.072311975 -0.05076333 -0.09272107 0.011597817 -0.058854014 -0.06548539 -0.011842088 -0.11450765
0.0025886025 0.0024470831 -0.084146366 -0.0063796905 -0.05908173 0.011307727 -0.054657444 -0.070752576
0.011553667 -0.048312556 -0.053297304 0.046332475 0.014098012 -0.054275144 -0.025930816 -0.05719644
-0.02539147 0.0050709355 -0.035598353 -0.10289824 -0.057717923 0.00046900532 -0.034211703 -0.03536601
-0.0046577393 -0.038780924 -0.06933377 -0.05089982 0.026533948 -0.025243629 0.0358412 -0.1137271
-0.07534732 -0.047237474 -0.0225125 -0.07891553 -0.02194521 -0.084511876 -0.12416408 -0.04188825
0.05271074 -0.016824467 -0.030754255 0.018769242 -0.14037898 -0.01366894 0.006357172 -0.035387844
-0.01315521 -0.044361338 0.023589838 -0.06575839 -0.08341184 0.0032908954 -0.104424156 -0.040553242
-0.04927737 0.022728464 -0.04241947 -0.006332336 0.002460732 0.03636966 0.05717484 -0.13494262
-0.006740207 0.020385658 -0.049016725 -0.076422945 -0.01970703 -0.060638443 0.0025048105 -0.026048502
-0.03729864 -0.011928667 0.0147324335 -0.00029037514 -0.051003497 -0.028684452 -0.029160097 -0.01497023
-0.03914823 -0.09755014 -0.01662853 0.0068827854 -0.083575524 -0.0013328244 -0.021995483 0.015835775
0.0064744717 -0.03907248 -0.008024263 -0.031015504 -0.0439481 -0.005756298 -0.15239845 -0.048256274
-0.10050226 -0.037452396 -0.007846453 -0.0033928715 -0.01830442 -0.083925605 -0.00011700382 -0.045126647
2.6970336e-05 -0.01769792 -0.019526437 -0.09043409 0.0134217255 0.010748641 0.011746385 -0.044385757
-0.11062938 0.006264705 -0.102284685 -0.06178456 -0.07942099 -0.013876191 -0.03760287 0.018195892
-0.039702002 -0.09569977 0.035871863 -0.00055576867 0.005125022 -0.0024010933 -0.0032758655 -0.025234846
00000000: 281c 163d 3ed4 2bbc d58d 99bd e217 f13c
00000010: 3af2 ec3c b0e4 e4bc 728f 85bd 4f57 02bd
00000020: 5af7 303c 51cc 8bbc a45a cbbd 24b4 4bbd
00000030: f90a 513c 7b79 a5bd e7d4 58bd 6811 1e3d
00000040: 7d56 49bc b335 10be e778 133c aab2 653c
00000050: ebb3 e3bd b333 7ebd 3e60 023d 1638 b53c
00000060: cabd c9bd affd 91bd a967 04be 7515 37bb
00000070: 949e a93c c0fc 88bd a142 3bbd 29a2 303d
00000080: e4aa 9cbb 3785 16bd 130d 3abd c70b d23c
00000090: 1812 e9bc 7c27 7c3c c72a 97bd fc0c 3a3c
000000a0: f5fa 49bd 2127 1dbd 2b47 20bd 359e c1bd
000000b0: 2d90 9c3b 20b6 8e3c 4cd1 d3bd eddd bbbd
000000c0: 4f67 33bd f861 5cbd 6e19 b8bd 9106 fdbd
000000d0: 2af9 2abb 1550 843a 0757 0abd f114 25bd
000000e0: 0b54 d6bc 30bd 8e3d e9a5 7fbd fc11 10bc
000000f0: e6be 8abd 5794 e1bc 3e51 233a f48e ab3b
00000100: e3cf a5bd 26fd 6f3c 67f1 56bc a7c6 dfbc
00000110: 7732 3dbd bad0 86bd a412 e7bb c690 25bd
00000120: 44d7 973c a9b8 6ebd 28c9 cebc 1412 5fbd
00000130: a531 62bd 3dac fbbc 8ea4 e2bc d503 0a3c
00000140: b256 fe3c bf21 dc3c 845e 1abd 6683 f9bb
00000150: 37e2 f8bc b521 8cbb c9fc 76bd 38ce 79bd
00000160: ffb9 03bd b40b 8abd 05b1 84bd b818 d0bc
00000170: 570b 29bc 0dcb a83c 2f37 dfbc 4328 bbbc
00000180: 9026 38bd 88c7 cbbc 6f6f 91bd ad74 bb3b
00000190: 7938 8abc 2570 7cbd cc8b 48bd 3597 0b3b
000001a0: 0bab 80bc 2a2a a13c 1b33 49bd 12c0 b13b
000001b0: 3a03 04be c77f 96bd 9e73 2f3c 2b1f 52bd
000001c0: 71b2 8abd 67d9 a4bd 4b3b 96bd 8684 70bd
000001d0: a3bc 58bd a361 95bd 9e0a 30bd a3e7 08bd
000001e0: 4d18 94bd 36ed 4fbd 8be4 bdbd c504 3e3c
000001f0: e810 71bd 341d 86bd 5105 42bc fd82 eabd
00000200: 8ba5 293b 3e5f 203b ee54 acbd b90c d1bb
00000210: afff 71bd 0b44 393c 7ce0 5fbd bae6 90bd
00000220: 974b 3d3c 63e3 45bd 464e 5abd 1fc7 3d3d
00000230: 59fb 663c 9d4f 5ebd dd6c d4bc d046 6abd
00000240: c601 d0bc 172a a63b 94cf 11bd 50bc d2bd
00000250: a169 6cbd d4e4 f539 9221 0cbd f3db 10bd
00000260: f39f 98bb bfd8 1ebd ddfe 8dbd 547c 50bd
00000270: b95d d93c bacb cebc 39ce 123d c1e9 e8bd
00000280: b24f 9abd 157c 41bd 226c b8bc 779e a1bd
00000290: 71c6 b3bc 9014 adbd bd49 febd 0393 2bbd
000002a0: 38e7 573d 77d3 89bc 59f0 fbbc f4c1 993c
000002b0: 82bf 0fbe b1f3 5fbc d34f d03b d8f2 10bd
000002c0: f388 57bc 3cb4 35bd 7a3f c13c 56ac 86bd
000002d0: d4d3 aabd 10ac 573b 55dc d5bd 281b 26bd
000002e0: 11d7 49bd 0b31 ba3c 0ac0 2dbd 7c7f cfbb
000002f0: 3b44 213b 5af8 143d 2a30 6a3d 662e 0abe
00000300: f4dc dcbb d3ff a63c c3c5 48bd a283 9cbd
00000310: a370 a1bc 0460 78bd bf27 243b ab63 d5bc
00000320: 75c6 18bd 7570 43bc 4e60 713c 7e3d 98b9
00000330: 0be9 50bd a8fb eabc 28e1 eebc b245 75bc
00000340: e559 20bd 5ec8 c7bd 8e38 88bc fd88 e13b
00000350: a529 abbd 2ab2 aeba df2f b4bc 07ba 813c
00000360: ce27 d43b 770a 20bd 3378 03bc 3a14 febc
00000370: ec02 34bd 549f bcbb 570e 1cbe 5fa8 45bd
00000380: 21d4 cdbd af67 19bd 698e 00bc f05a 5ebb
00000390: 27f3 95bc 30e1 abbd f35f f5b8 b8d6 38bd
000003a0: 5b3e e237 3afb 90bc e8f5 9fbc 8235 b9bd
000003b0: cce6 5b3c 111b 303c e973 403c d7cd 35bd
000003c0: a891 e2bd 2848 cd3b a27a d1bd cf11 7dbd
000003d0: 79a7 a2bd f758 63bc 7805 1abd 8d0f 953c
000003e0: 919e 22bd 3efe c3bd 60ee 123d 01b1 11ba
000003f0: cdef a73b a95b 1dbb e7af 56bb 4fb9 cebc

fc_layers.2.bias f4 [128]
-0.076149754 0.011354408 -0.10095026 0.03053777 -0.005799979 -0.028509995 0.7713357 0.6673843
1.1140673 0.29470584 -0.093195796 1.1182512 -0.3087548 0.12004085 -0.05997143 0.443067
0.49637794 -0.075411454 0.8329931 -0.33230257 -0.24006733 -0.10308918 -0.26687297 0.057227742
-0.1584036 -0.12742338 0.58393836 0.38299742 0.28610528 -0.055275783 0.34906876 -0.32308373
-0.3184167 -0.36709166 -0.02655267 0.018748 1.0936278 -0.023048697 -0.20218003 -0.19532208
-0.06252757 0.031067023 -0.12604545 0.013619117 -0.05156052 -0.0740619 0.6046667 -0.06892593
-0.07206379 0.4934405 0.49665192 1.6649016 0.335888 -0.030798094 -0.20020579 -0.107957006
-0.049518168 -0.48746642 0.10555922 -0.06351966 0.7437807 -0.09630778 -0.15917163 0.9097007
0.7571195 -0.009496844 0.10230474 -0.07616512 0.00049124565 -0.24289484 0.61755526 -0.36482614
0.20306896 0.02743975 -0.45948762 -0.26547676 -0.18698046 -0.37462384 -0.34608775 0.46607575
-0.055158295 -0.0443485 0.50397396 -0.24747056 0.3778995 -0.0757683 -0.12715508 -0.055476326
-0.21043047 -0.11761368 -0.18963385 0.10874847 -0.08232686 -0.24149878 -0.10411953 -0.10108955
-0.27592072 -0.09182864 -0.0063844416 -0.4759222 -0.09438966 -0.1672669 -0.2251819 -0.40972635
-0.54106253 0.8471653 -0.41447166 -0.00927957 -0.12456752 0.6382642 -0.22241692 -0.11124844
-0.024363093 -0.106999464 -0.6341522 0.5618024 0.37077153 -0.090496324 -0.0068311743 -0.14807257
-0.20015429 1.0126009 -0.059129555 -0.025729336 -0.42661318 -0.055031385 -0.014977068 0.4101061
00000000: 67f4 9bbd d707 3a3c 03bf cebd 582a fa3c
00000010: c00d bebb cb8d e9bc 4276 453f b3d9 2a3f
00000020: c299 8e3f afe3 963e 70dd bebd db22 8f3f
00000030: 1c15 9ebe fad7 f53d 9aa4 75bd aed9 e23e
00000040: 4025 fe3e 5271 9abd 093f 553f 9023 aabe
00000050: 36d4 75be 6c20 d3bd 93a3 88be a367 6a3d
00000060: 8e34 22be 467b 02be fc7c 153f 3d18 c43e
00000070: 647c 923e dc68 62bd 24b9 b23e 3b6b a5be
00000080: 8407 a3be 70f3 bbbe fc84 d9bc 6895 993c
00000090: fffb 8b3f 9fd0 bcbc 4808 4fbe 8302 48be
000000a0: 740e 80bd 4580 fe3c 0f12 01be b822 5f3c
000000b0: 2031 53bd c4ad 97bd 70cb 1a3f 0a29 8dbd
000000c0: 2e96 93bd 3ca4 fc3e 2949 fe3e 7f1b d53f
000000d0: 83f9 ab3e 494c fcbc bf02 4dbe 9018 ddbd
000000e0: 90d3 4abd 3395 f9be 6f2f d83d 9816 82bd
000000f0: 6968 3e3f 033d c5bd e3fd 22be 25e2 683f
00000100: 95d2 413f a798 1bbc 2685 d13d 75fc 9bbd
00000110: f0c6 003a 6db9 78be 1a18 1e3f 7eca babe
00000120: 4ff1 4f3e 54c9 e03c f641 ebbe 92ec 87be
00000130: ce77 3fbe b2ce bfbe 6a32 b1be 7ba1 ee3e
00000140: aaed 61bd c6a6 35bd 7004 013f ec68 7dbe
00000150: 0b7c c13e 692c 9bbd f134 02be 253b 63bd
00000160: 167b 57be 71df f0bd 602f 42be 85b7 de3d
00000170: fc9a a8bd 754b 77be 9f3c d5bd 0a08 cfbd
00000180: 7b45 8dbe a710 bcbd 9434 d1bb 13ac f3be
00000190: 5e4f c1bd 0448 2bbe 1696 66be a7c7 d1be
000001a0: 1383 0abf d3df 583f a135 d4be 5609 18bc
000001b0: 421d ffbd 4865 233f 43c1 63be 39d6 e3bd
000001c0: 1c95 c7bc 8922 dbbd cc57 22bf 48d2 0f3f
000001d0: c4d5 bd3e 2356 b9bd 0bd8 dfbb 56a0 17be
000001e0: 3ff5 4cbe e89c 813f d531 72bd 54c6 d2bc
000001f0: 0b6d dabe 9768 61bd 6062 75bc 6df9 d13e

fc_layers.4.weight f4 [5, 128]
0.06890206 -0.016269654 -0.090594254 -0.19016495 -0.024287835 0.051248178 -0.23056477 -0.22038846
-0.19560696 -0.17901626 -0.25620323 -0.11779239 0.1555012 -0.072177865 -0.061948143 -0.073700085
-0.08912076 0.06756657 -0.24580134 0.1973335 -0.18532313 -0.074239895 0.4915933 -0.029408848
0.21492797 -0.009044541 -0.020381486 -0.09424414 -0.024046948 0.040942878 -0.0201641 0.062029876
0.43902725 -0.16541974 -0.002898116 -0.0062627867 -0.19850896 -0.05016146 -0.020512793 -0.18115205
0.09890935 0.012709825 -0.116779804 0.17313114 -0.06847857 -0.006963517 -0.14858772 0.24825701
-0.21577331 -0.11380544 -0.11188642 -0.44631678 -0.18602057 -0.08021231 0.440544 -0.02008076
0.14048345 0.20899972 -0.09176539 0.061546657 -0.1454656 0.0317295 0.10006413 -0.26535025
-0.22652666 0.043092787 -0.16851114 0.09344151 -0.13174894 -0.05951811 -0.2748413 0.20573607
-0.15248965 -0.06362003 -0.0694345 0.25863418 0.25640523 0.4110361 0.1419654 -0.21321604
-0.03304328 -0.14670907 -0.15917554 0.16805297 -0.24293557 -0.07319265 -0.048108034 0.13150086
0.44072866 -0.01812324 -0.12931101 -0.13205844 0.031183915 0.1953236 -0.35123447 -0.41326758
0.49196753 -0.116692856 -0.091123745 0.081947014 -0.018241283 -0.011994162 0.26148948 0.14231989
0.22428077 -0.12124999 0.3467621 0.3419248 -0.014733097 -0.15309747 0.3913955 -0.08646095
0.0033476143 0.0672559 0.5158706 -0.14447635 -0.0047703153 -0.08162226 -0.04809461 0.14240742
0.16676249 -0.1706171 -0.060464993 0.023758931 -0.21754517 -0.055592977 -0.17202859 -0.07230793
-0.08082837 0.03032321 -0.043217026 -0.19559236 -0.002954668 0.036243454 -0.21483375 -0.15486439
-0.2596951 -0.1739433 -0.14206593 -0.1378132 0.14114222 -0.16699587 0.19249038 -0.061709616
-0.12856454 0.009409691 0.009683858 0.12940763 -0.20968458 0.032378655 -0.11111032 -0.07573314
0.1778108 -0.010034499 -0.21212742 -0.032974754 -0.05820066 0.0021950796 0.14094262 0.15377958
0.37628025 -0.06796477 0.0612513 0.12158452 -0.17678909 0.008356195 0.16185315 -0.25889006
-0.014122182 0.07208459 0.0026975696 -0.08257957 -0.057596456 -0.019484138 -0.20343654 0.33917505
-0.21942058 0.06299508 -0.15116648 -0.38792318 -0.09136264 -0.07086072 0.4620098 -0.025813058
-0.13931422 0.31472537 0.020644246 0.034357645 -0.26047933 -0.0713928 0.118071534 -0.1440805
-0.11604571 0.029218547 -0.15866973 0.04264191 -0.10420307 0.017222788 -0.10315575 0.15834722
-0.1765508 -0.0574897 -0.11389311 0.14556783 0.40897572 0.39738297 0.25019103 -0.2018055
0.06931241 -0.14062692 -0.22127345 0.24585788 -0.30812702 0.021906825 0.3097756 -0.13427038
0.39396697 0.020025708 -0.0454365 -0.1003022 0.06826821 -0.048073612 0.09082294 -0.09972483
0.49369407 -0.18300882 0.030670315 0.13259302 -0.002911895 0.10038666 0.12852123 0.13690257
0.23566689 -0.0166871 0.29514852 0.26400054 0.022499787 -0.18862872 0.41900316 0.045387898
-0.094893955 0.02408117 0.53055704 -0.12311412 -0.06046415 0.023425085 0.024595136 0.090427436
0.1060656 -0.17882225 -0.2919937 0.045438364 -0.30454603 -0.27174845 -0.11033032 -0.23090488
00000000: 861c 8d3d f047 85bc 7b89 b9bd 9aba 42be
00000010: 48f7 c6bc 9ce9 513d 2c19 6cbe 83ad 61be
00000020: 314d 48be 0a50 37be 122d 83be 233d f1bd
00000030: b53b 1f3e fdd1 93bd 56bd 7dbd 12f0 96bd
00000040: f284 b6bd 5860 8a3d 59b3 7bbe cb11 4a3e
00000050: 59c5 3dbe 160b 98bd 1eb2 fb3e d3ea f0bc
00000060: 1416 5c3e 8e2f 14bc 13f7 a6bc 1203 c1bd
00000070: 1bfe c4bc b8b3 273d 2f2f a5bc 0a13 7e3d
00000080: 2ec8 e03e cb63 29be 51ee 3dbb 1038 cdbb
00000090: ef45 4bbe 1a76 4dbd 720a a8bc ec7f 39be
000000a0: fc90 ca3d df3c 503c 402a efbd 4a49 313e
000000b0: 7e3e 8cbd 372e e4bb 6127 18be 1637 7e3e
000000c0: aef3 5cbe d412 e9bd b524 e5bd a283 e4be
000000d0: 2d7c 3ebe 5a46 a4bd fc8e e13e 6880 a4bc
000000e0: e5da 0f3e 0604 563e 7eef bbbd 5918 7c3d
000000f0: eff4 14be cbf6 013d 6cee cc3d fddb 87be
00000100: 9bf6 67be 1082 303d 2f8e 2cbe 435e bf3d
00000110: 32e9 06be 43c9 73bd 00b8 8cbe 7aac 523e
00000120: 3f26 1cbe 384b 82bd ad33 8ebd b36b 843e
00000130: 8c47 833e 5373 d23e 615f 113e 4e55 5abe
00000140: 6458 07bd e73a 16be eafe 22be 1416 2c3e
00000150: 1ac4 78be 07e6 95bd ee0c 45bd 29a8 063e
00000160: 30a7 e13e 3077 94bc 1b6a 04be 543a 07be
00000170: 6975 ff3c e902 483e 01d5 b3be cf97 d3be
00000180: 2be3 fb3e aafc eebd 169f babd d6d3 a73d
00000190: be6e 95bc 2983 44bc f3e1 853e 4ebc 113e
000001a0: dca9 653e ea51 f8bd cd8a b13e c410 af3e
000001b0: 1663 71bc 95c5 1cbe fe64 c83e 7012 b1bd
000001c0: a663 5b3b 76bd 893d 1810 043f 9cf1 13be
000001d0: 4e50 9cbb 9229 a7bd dbfe 44bd 40d3 113e
000001e0: c9c3 2a3e 40b6 2ebe 24aa 77bd 17a2 c23c
000001f0: 29c4 5ebe 76b5 63bd 4328 30be 2e16 94bd
00000200: 5889 a5bd 6168 f83c 5604 31bd 5d49 48be
00000210: 1aa3 41bb 0474 143d 61fd 5bbe c594 1ebe
00000220: c2f6 84be 311e 32be bb79 11be e71e 0dbe
00000230: 9687 103e f700 2bbe 331c 453e 39c3 7cbd
00000240: 6ca6 03be 1b2b 1a3c 0ba9 1e3c 6f83 043e
00000250: 8eb7 56be 7b9f 043d cf8d e3bd fa19 9bbd
00000260: 0914 363e bd67 24bc ee37 59be 8910 07bd
00000270: d163 6ebd 53db 0f3b 4353 103e 6578 1d3e
00000280: cea7 c03e 1d31 8bbd a5e2 7a3d 4e01 f93d
00000290: 3308 35be 6ce8 083c d5bc 253e 3d8d 84be
000002a0: b960 67bc 16a1 933d b5c9 303b 7a1f a9bd
000002b0: 43ea 6bbd 339d 9fbc ab51 50be 5aa8 ad3e
000002c0: caaf 60be 9103 813d 63cb 1abe de9d c6be
000002d0: 561c bbbd 6d1f 91bd 8c8c ec3e e875 d3bc
000002e0: 63a8 0ebe af23 a13e 1f1e a93c 9aba 0c3d
000002f0: 8c5d 85be 6336 92bd 7dcf f13d d789 13be
00000300: 60a9 edbd bc5b ef3c 517a 22be 49a9 2e3d
00000310: 6b68 d5bd ce16 8d3c 5243 d3bd c625 223e
00000320: bcc9 34be 527a 6bbd ca40 e9bd bc0f 153e
00000330: 4465 d13e c875 cb3e 0a19 803e 1aa6 4ebe
00000340: aaf3 8d3d 8100 10be 8295 62be 2bc2 7b3e
00000350: d3c2 9dbe f175 b33c e89a 9e3e 2d7e 09be
00000360: 0ab6 c93e f40c a43c a01b 3abd 3d6b cdbd
00000370: 34d0 8b3d d6e8 44bd 6101 ba3d 883c ccbd
00000380: 78c5 fc3e aa66 3bbe 5040 fb3c 77c6 073e
00000390: 7ed5 3ebb 8597 cd3d 129b 033e 3030 0c3e
000003a0: a952 713e 63b3 88bc b51d 973e 142b 873e
000003b0: 7951 b83c e327 41be 9587 d63e a9e8 393d
000003c0: c357 c2bd e045 c53c 96d2 073f 4123 fcbd
000003d0: 42a9 77bd f7e5 bf3c bd7b c93c 0532 b93d
000003e0: ec38 d93d 2e1d 37be 3380 95be 941d 3a3d
000003f0: 75ed 9bbe 9d22 8bbe ddf4 e1bd 5472 6cbe

fc_layers.4.bias f4 [5]
-0.63091916 -0.6721476 -0.6641087 -0.70167315 -0.6686574
00000000: eb83 21bf dd11 2cbf 0703 2abf daa0 33bf
00000010: 222d 2bbf
