Existing_MARL-SimpleSpreadv3/double_dqn_models/final_agent_0.pt (torch, 156829 bytes, 6 tensors)

fc_layers.0.weight f4 [256, 18]
0	0x3e0d9b12	0.13828686
1	0xbe41282c	-0.1886298
2	0x3e4f03b2	0.20216253
3	0xbe6dc4c0	-0.23219585
4	0x3db4a11a	0.0881979
5	0xbd0d6098	-0.034515947
6	0xbb3f9037	-0.0029230246
7	0x3f1bf742	0.6092416
8	0xbeb1bf50	-0.34716272
9	0xbee9c019	-0.4565437
10	0x3e661bbb	0.22471516
11	0x3e92f845	0.2870504
12	0xbc325b3d	-0.010886011
13	0xbf21db67	-0.63225406
14	0x3df155d6	0.1178395
15	0x3d8639e2	0.06554009
16	0x3e4d4da6	0.20049152
17	0xbe18f718	-0.14938009
18	0xbc530747	-0.012880153
19	0x3e55be18	0.20873296
20	0xbdfa7714	-0.122297436
21	0xbe06f92b	-0.13180988
22	0xbd7047d8	-0.058662266
23	0xbe44995e	-0.1919913
24	0x3daaeb43	0.08345654
25	0x3c4b12cc	0.012394618
26	0x3e96c079	0.2944372
27	0xbe4a9205	-0.19782265
28	0xbe89a783	-0.26885614
29	0xbead8407	-0.3388979
30	0x3efe040f	0.4961247
31	0x3f08f77b	0.53502625
32	0x3e552e77	0.20818506
33	0xbe0b73e4	-0.13618428
34	0x3e39767c	0.18111604
35	0x3d8db55d	0.06919358
36	0x3b568ace	0.0032736543
37	0xbd6ffdd3	-0.058591675
38	0x3daeff59	0.085447975
39	0x3e3085e3	0.17238574
40	0xbabdc611	-0.0014478584
41	0x3aa17f10	0.0012321193
42	0xbf140cde	-0.57832134
43	0xbf769c89	-0.96332604
44	0x3c686a95	0.014185567
45	0x3dd1d2dd	0.10245297
46	0x3cb82ea6	0.022483181
47	0xbdb8ca52	-0.090229645
48	0x3f24b7d8	0.64343023
49	0x3f9e5c5e	1.2371938
50	0xbd610d71	-0.05494446
51	0x3e10fec1	0.14159681
52	0x3e2dba72	0.16965654
53	0x3e580424	0.2109533
54	0x3e93952b	0.28824744
55	0x3e7f818d	0.24951763
56	0x3e074dac	0.13213223
57	0x3e879040	0.26477242
58	0xbe5d5dd9	-0.21617831
59	0xbdf15828	-0.117843926
60	0xbe440f9d	-0.19146581
61	0xbdc384ca	-0.09546812
62	0xbe3c96c5	-0.18416889
63	0xbe4964c6	-0.19667348
64	0x3e7a221b	0.24427073
65	0x3e4dac74	0.20085317
66	0x3e81106d	0.25207844
67	0x3d227dd2	0.039670773
68	0xbd59d527	-0.053181794
69	0x3e158973	0.14603214
70	0x3dbefc48	0.093254626
71	0xbbb2512a	-0.0054418044
72	0xbdf8afe7	-0.12142926
73	0xbc92901e	-0.017890986
74	0xbd1da0a2	-0.03848327
75	0xbee27c7e	-0.44235605
76	0x3e98aa23	0.29817304
77	0xbd9bbcb9	-0.07604355
78	0xbdd9c58f	-0.106333844
79	0x3da780f4	0.08178893
80	0xbc48a114	-0.012245435
81	0x3e8a20af	0.2697806
82	0xbbe3ffb5	-0.006957973
83	0xbf2f6307	-0.6851048
84	0xbe3c7317	-0.18403278
85	0x3d773390	0.06035191
86	0xbcbc3b71	-0.022977563
87	0x3dc96268	0.09833223
88	0xbd25e68b	-0.040503066
89	0xbe444deb	-0.19170348
90	0xbe336721	-0.1751981
91	0xbe54acf1	-0.20769097
92	0x3dc0feb0	0.09423578
93	0xbe3aa7e5	-0.18228109
94	0xbe887bb4	-0.26656878
95	0x3d00bb4c	0.03142862
96	0xbe305fb0	-0.17224002
97	0x3db342d0	0.08752978
98	0x3d9c3af5	0.07628433
99	0xbe02d4dc	-0.12776512
100	0xbeba3ce9	-0.36374596
101	0x3e0d15fa	0.13777915
102	0xbd1591bd	-0.03651594
103	0x3d948579	0.072520204
104	0x3e6d294d	0.23160286
105	0xbdbc160a	-0.09183891
106	0xbdd741a1	-0.105105646
107	0x3e2b3162	0.16718057
108	0x3d8adad8	0.067800224
109	0x3db106c1	0.08643866
110	0xbe326ad5	-0.17423566
111	0x3d4ba54c	0.049718186
112	0x3d1045fe	0.035223
113	0x3dd077cb	0.10179099
114	0x3ce6b8e4	0.028164335
115	0x3d645e64	0.05575408
116	0x3d8f0e15	0.06985108
117	0x3d8f35fe	0.0699272
118	0xbe2d6001	-0.16931154
119	0x3caee0a0	0.021347344
120	0x3dc007ce	0.093764886
121	0xbd12e43c	-0.035862193
122	0xbcc86be7	-0.024465514
123	0xbe332c5e	-0.17497393
124	0xbe3bb1e9	-0.18329586
125	0x3e4476b2	0.19185904
126	0xbeb4ab6c	-0.35287035
127	0x3e8428e1	0.25812438
128	0xbbeed6ac	-0.0072887745
129	0x3e10d0dc	0.14142174
130	0x3e6227da	0.22085515
131	0x3d91002a	0.070801094
132	0xbe8b1167	-0.27161714
133	0xbeae01ac	-0.3398565
134	0x3c79f10d	0.015255225
135	0x3e1728b2	0.14761618
136	0x3e01b5ee	0.12667057
137	0xbca95d04	-0.020674236
138	0xbdde0631	-0.10841025
139	0xbbb1d851	-0.0054273983
140	0xbe1c5d60	-0.15269995
141	0xbdfe033c	-0.12402961
142	0x3ddeb5b2	0.108744994
143	0xbdf60588	-0.12012774
144	0x3d2c017c	0.041993603
145	0xbdf4c6ab	-0.119519554
146	0xbe46a910	-0.1940043
147	0xbe133cb5	-0.14378627
148	0x3c2546fd	0.010087726
149	0x3bcf69d2	0.0063297534
150	0x3e6983d7	0.22804199
151	0x3ee21511	0.44156697
152	0x3ef211b5	0.47279134
153	0xbdbd678f	-0.09248268
154	0xbeb903db	-0.36135754
155	0xbe5cffbd	-0.21581931
156	0xbf2feb82	-0.6871873
157	0x3e85d72e	0.26140732
158	0xbe173020	-0.14764452
159	0xbd0a5b28	-0.03377834
160	0xbdac0405	-0.08399204
161	0xbda90f00	-0.08254814
162	0x3e008ad0	0.12552953
163	0xbcbc8c37	-0.023016078
164	0x3dca2fd0	0.09872401
165	0xbe279b07	-0.16367732
166	0xbf004ed6	-0.50120294
167	0x3f5b51e2	0.8567182
168	0xbcb154dc	-0.02164691
169	0xbdebd5cb	-0.11515387
170	0x3d874701	0.0660534
171	0xbd378c5b	-0.044811588
172	0x3f32514c	0.696553
173	0xbf804c31	-1.0023252
174	0xbd3f9a0d	-0.046777774
175	0x3b8b5c60	0.0042529553
176	0xbdb39fb3	-0.087706946
177	0x3e108cda	0.1411623
178	0xbd9b1496	-0.07572286
179	0xbd6c64bb	-0.05771325
180	0xbebcfc66	-0.36911315
181	0x3e10a144	0.14124018
182	0x3e1390c2	0.1441069
183	0xbdfc36e6	-0.123151585
184	0xbe186ac9	-0.14884485
185	0x3e78059e	0.24220893
186	0x3f42a0e2	0.7602674
187	0xbf0ee073	-0.5581123
188	0xbe458f9e	-0.19293067
189	0x3d9af1e3	0.075656675
190	0x3c4643a8	0.012101091
191	0xbdb56109	-0.088563986
192	0xbd6565ba	-0.056005217
193	0x3bf3cd75	0.007440264
194	0x3de8adf0	0.11361301
195	0xbe53919a	-0.20661011
196	0xbde53702	-0.111921325
197	0xbe388bc2	-0.18022063
198	0xbdc2276c	-0.094801754
199	0x3dc6ea1d	0.09712622
200	0x3f0d1b69	0.5511995
201	0xbc827403	-0.01592446
202	0xbea59ca2	-0.32346064
203	0xbf106f4e	-0.5641984
204	0x3edbbb88	0.42916512
205	0x3e6b956f	0.23006223
206	0x3d1a9a43	0.03774477
207	0x3e3a9223	0.18219809
208	0x3ea953d1	0.3307176
209	0xbcca0a95	-0.024663249
210	0x3ded9edb	0.11602565
211	0xbe6f843a	-0.23390284
212	0xbdaa3136	-0.083101675
213	0x3e484d23	0.19560675
214	0x3dd342fd	0.103155114
215	0xbe21a6b6	-0.15786251
216	0x3d24560a	0.040121116
217	0x3ed9fbee	0.4257502
218	0x3dc6a860	0.09700084
219	0xba36d2a0	-0.00069741346
220	0xbedf9cb4	-0.43674242
221	0xbfdbe5b4	-1.7179475
222	0x3cd0eb03	0.025502687
223	0x3c8ed92d	0.017437542
224	0xbd945a3c	-0.07243773
225	0x3cc7d592	0.02439383
226	0xbc7d1d9a	-0.015448952
227	0xbdd051a7	-0.10171824
228	0xbc578cd2	-0.013156133
229	0xbd121074	-0.035660222
230	0x3e40a32d	0.18812247
231	0xbd57d690	-0.052694857
232	0xbd02072b	-0.031745117
233	0xbcbd3476	-0.023096304
234	0xb9f29fa4	-0.00046276778
235	0x3e5770ef	0.21039174
236	0x3dc24eac	0.09487662
237	0x3ec0ffd3	0.37695178
238	0x3ce51c7f	0.02796769
239	0xbeabc763	-0.33550557
240	0xbefb6e31	-0.49107507
241	0xbf1aa1b1	-0.6040297
242	0x3d752ab2	0.05985517
243	0xbde9f8a9	-0.11424381
244	0x3d932fe5	0.071868695
245	0x3f1b528b	0.60672826
246	0x3ea4c4ec	0.3218149
247	0x3f20857e	0.6270369
248	0xbd10e0aa	-0.035370506
249	0x3c81e038	0.015853986
250	0x3d3564b4	0.04428549
251	0x3d8572c2	0.06516029
252	0xbc21dafb	-0.009878869
253	0xbe7ea54c	-0.24867743
254	0xbed17aec	-0.40914094
255	0x3e435046	0.1907359

fc_layers.0.bias f4 [256]
0	0xbf2b9021	-0.670168
1	0xbf78421b	-0.9697587
2	0xbe05bb9c	-0.13059849
3	0xbf8a3ad1	-1.0799199
4	0xbf8a31ab	-1.0796407
5	0xbf73cabc	-0.95231223
6	0xbf8058de	-1.002712
7	0xbf735ba8	-0.9506173
8	0xbf6de2fc	-0.92924476
9	0xbe20e2ca	-0.15711513
10	0xbe3b78b4	-0.18307763
11	0xbf747433	-0.95489806
12	0xbd0f17e6	-0.0349349
13	0xbf57e527	-0.84334034
14	0xbf8eae49	-1.1146938
15	0xbf7789b0	-0.9669447
16	0xbf8600f1	-1.0469037
17	0xbf5d84cd	-0.8653076
18	0xbf83a0e7	-1.0283478
19	0xbf4c856e	-0.798911
20	0xbe33c6ee	-0.17556354
21	0xbf8399a5	-1.0281264
22	0xbeb6ee51	-0.35728696
23	0xbf4d9f1b	-0.803209
24	0xbf843bbe	-1.0330732
25	0xbf4055e6	-0.7513107
26	0xbf8e78d4	-1.1130624
27	0xbf7fed1b	-0.9997117
28	0xbf85fb4a	-1.0467312
29	0xbf8afe5d	-1.0858876
30	0xbf0d13b3	-0.55108184
31	0xbf6370a7	-0.8884377
32	0xbe16920e	-0.14704153
33	0xbf8193f8	-1.0123281
34	0xbf831e37	-1.0243596
35	0xbf461362	-0.77373326
36	0xbf5cf100	-0.86305237
37	0xbf591720	-0.8480091
38	0xbf54fad9	-0.83195263
39	0xbf8cafcd	-1.099115
40	0xbf53fcf6	-0.8280786
41	0xbf0592f7	-0.52177376
42	0xbf8d2deb	-1.1029638
43	0xbf57087e	-0.83997333
44	0xbf96df72	-1.178694
45	0xbe0a5128	-0.13507521
46	0xbf53bd0d	-0.82710344
47	0xbf549199	-0.83034664
48	0xbf6b7b31	-0.9198485
49	0xbf88cf00	-1.0688171
50	0xbf92dfe5	-1.1474577
51	0xbeec96b5	-0.4620873
52	0xbf8b08c3	-1.0862049
53	0xbf8b11f9	-1.086486
54	0xbf8c387c	-1.0954738
55	0xbf76470a	-0.96202147
56	0xbf7bb94b	-0.9832961
57	0xbe766416	-0.24061617
58	0xbf3d271a	-0.7388779
59	0xbfa211e8	-1.2661715
60	0xbf56584b	-0.83728474
61	0xbf9b1421	-1.2115518
62	0xbf949ebf	-1.1610945
63	0xbf9546aa	-1.166219
64	0xbe343d6b	-0.17601554
65	0xbf791a3e	-0.9730567
66	0xbf8fe918	-1.124301
67	0xbf5da643	-0.8658182
68	0xbf860abf	-1.047203
69	0xbe24d0ed	-0.16095324
70	0xbf6a3531	-0.91487414
71	0xbf8af118	-1.0854826
72	0xbe1a6ae8	-0.15079844
73	0xbf56dcbb	-0.8393056
74	0xbf7580df	-0.95899767
75	0xbf794f65	-0.9738677
76	0xbf26a44f	-0.65094465
77	0xbf45bbd9	-0.7723976
78	0xbdb68811	-0.08912671
79	0xbf8fc25b	-1.1231188
80	0xbf3b75cf	-0.73226637
81	0xbf4fdf07	-0.8119969
82	0xbf51ca7d	-0.819496
83	0xbf9b6215	-1.2139307
84	0xbf82775e	-1.0192678
85	0xbf6f62ed	-0.93510324
86	0xbf808ead	-1.0043541
87	0xbf79785f	-0.97449297
88	0xbf737142	-0.9509469
89	0xbf43d364	-0.7649443
90	0xbf65016d	-0.894553
91	0xbd7145c9	-0.058904443
92	0xbeb70b39	-0.3575075
93	0xbf673700	-0.903183
94	0xbf8db782	-1.1071627
95	0xbdbd0cd8	-0.092309654
96	0xbf5fa198	-0.8735595
97	0xbe961ea8	-0.29320264
98	0xbf844366	-1.0333068
99	0xbe030e21	-0.12798359
100	0xbf8e2488	-1.1104898
101	0xbe0aaac6	-0.13541707
102	0xbda85b12	-0.08220495
103	0xbf8d569c	-1.1042056
104	0xbfa360b7	-1.276389
105	0x3d9320ff	0.07184028
106	0xbf79cbb5	-0.9757646
107	0xbf0d8a32	-0.55288994
108	0xbd4d6ed3	-0.05015452
109	0xbe288d25	-0.16460092
110	0xbf81d2a5	-1.0142409
111	0xbe1fb937	-0.15597998
112	0xbf99129f	-1.1958808
113	0xbda62efa	-0.08114429
114	0xbf62464e	-0.88388526
115	0xbf3f64a5	-0.74762946
116	0xbe21243e	-0.15736482
117	0xbf975da1	-1.1825448
118	0xbf898102	-1.0742495
119	0xbf470c9a	-0.77753603
120	0xbf5e6506	-0.868729
121	0xbf9c4942	-1.2209857
122	0xbf923713	-1.1423057
123	0xbf8b36c7	-1.0876092
124	0xbe089f82	-0.13342097
125	0xbf971db6	-1.1805942
126	0xbf249283	-0.6428606
127	0xbf005890	-0.50135136
128	0xbf82a9ff	-1.0208129
129	0xbf6ed30c	-0.9329078
130	0xbe706ff7	-0.23480211
131	0xbf8a0399	-1.0782348
132	0xbf8d474e	-1.1037385
133	0xbd3c1616	-0.0459195
134	0xbf879aa6	-1.059407
135	0xbf298a6a	-0.6622683
136	0xbe0fda3f	-0.14048098
137	0xbf341fde	-0.70361125
138	0xbe4599af	-0.19296907
139	0xbf760c09	-0.96112114
140	0xbea6b725	-0.32561603
141	0xbf43b5a9	-0.76449066
142	0xbdca0373	-0.09863939
143	0xbbc32ebc	-0.005956499
144	0xbe1ac0a5	-0.1511255
145	0xbf809955	-1.0046793
146	0xbf37c94b	-0.71791524
147	0xbf9a2c10	-1.2044697
148	0xbf8ead70	-1.1146679
149	0xbea334c4	-0.31876194
150	0xbf5a74d5	-0.8533452
151	0xbf5bcff2	-0.85864174
152	0xbd58a44e	-0.05289107
153	0xbf8b3c80	-1.0877838
154	0xbe3fb9da	-0.1872324
155	0xbeb896d0	-0.3605256
156	0xbf9365e9	-1.1515476
157	0xbf8f3ee7	-1.1191071
158	0xbf900f93	-1.1254753
159	0xbf83ee25	-1.0307051
160	0xbcf2a9b3	-0.029621935
161	0xbf8340aa	-1.0254109
162	0xbf8d2c75	-1.1029192
163	0xbf9061e6	-1.1279876
164	0xbf39a112	-0.725114
165	0x3d526ca2	0.05137313
166	0xbf46bf79	-0.77635914
167	0xbd39f29e	-0.045397393
168	0xbfaa6587	-1.3312234
169	0xbfaadf6c	-1.3349433
170	0xbf734cf4	-0.95039296
171	0xbfa66364	-1.2999082
172	0xbf4bfc32	-0.79681695
173	0xbf7e671a	-0.9937607
174	0xbf62f4d7	-0.88654846
175	0xbf569c8b	-0.83832616
176	0xbeb2c099	-0.34912565
177	0xbf3e69bb	-0.7438008
178	0xbf8e0bfc	-1.1097407
179	0xbf6971a6	-0.9118904
180	0xbda9fee3	-0.08300569
181	0xbf69f706	-0.9139255
182	0xbf778807	-0.96691936
183	0xbe010ca0	-0.12602472
184	0x3db0c33a	0.086309865
185	0xbf894216	-1.0723293
186	0xbf8a9566	-1.0826843
187	0xbf6a86aa	-0.9161173
188	0xbf83dedc	-1.0302386
189	0xbf5ec8fd	-0.87025434
190	0x3dd401ea	0.103519276
191	0xbf8984d8	-1.0743666
192	0xbf70b10e	-0.94020164
193	0xbf8082ac	-1.0039878
194	0xbf7aad5e	-0.9792079
195	0xbf1a460c	-0.60263133
196	0xbe2f0f98	-0.17095792
197	0xbf1f4f1d	-0.6223009
198	0xbf83b72d	-1.0290276
199	0xbf7f594e	-0.99745643
200	0xbf85c752	-1.0451453
201	0xbf070908	-0.52748156
202	0xbf8f93ec	-1.1217017
203	0xbf81e1f8	-1.0147085
204	0xbe90ed8f	-0.28306243
205	0xbf05f903	-0.52333087
206	0xbf9ba6c8	-1.2160273
207	0xbf9f9cc6	-1.2469718
208	0xbf716596	-0.9429563
209	0xbf726dcb	-0.9469878
210	0xbf3f1400	-0.7463989
211	0xbf9d79d6	-1.2302806
212	0xbf96f0f4	-1.1792283
213	0xbf65dfe8	-0.8979478
214	0xbf84190c	-1.0320144
215	0xbf817048	-1.011239
216	0xbe1f811e	-0.15576598
217	0xbf826198	-1.0186033
218	0xbf4f81c2	-0.8105737
219	0xbf896478	-1.0733786
220	0xbf9775a6	-1.1832778
221	0xbf56851d	-0.83796865
222	0xbf8e05d8	-1.1095533
223	0xbde1a97a	-0.11018653
224	0xbf866ff0	-1.0502911
225	0xbf9faa2e	-1.247381
226	0xbf16bc6f	-0.58881277
227	0xbf9f3409	-1.2437755
228	0xbde45b3b	-0.11150213
229	0xbe5e7dce	-0.21727678
230	0xbf5e5709	-0.86851555
231	0xbf755f69	-0.9584871
232	0xbe62d1b1	-0.22150303
233	0xbf28103c	-0.6564977
234	0xbf458f17	-0.7717146
235	0xbf82c0dd	-1.0215107
236	0xbf776242	-0.96634305
237	0xbf455491	-0.77082163
238	0xbf3b58e8	-0.73182535
239	0xbf608253	-0.8769886
240	0xbf42f8fd	-0.76161176
241	0xbf630fda	-0.8869606
242	0x3e3946ca	0.1809341
243	0xbe99d3b6	-0.30044335
244	0xbf88674d	-1.0656525
245	0xbf56579a	-0.8372742
246	0xbf517666	-0.81821287
247	0xbf4e6be3	-0.8063337
248	0xbda3db91	-0.08000863
249	0x3cf68387	0.030092014
250	0xbe13a7be	-0.14419457
251	0xbf75edbe	-0.9606589
252	0xbf870937	-1.0549687
253	0xbf95572f	-1.1667231
254	0xbf756a22	-0.9586507
255	0xbf8109d2	-1.0081122

fc_layers.2.weight f4 [128, 256]
0	0xbe1a0878	-0.15042293
1	0x3d34d9de	0.044153087
2	0xbe12a7ba	-0.14321795
3	0xbd3ae606	-0.045629524
4	0xbc2da58d	-0.010598552
5	0x3c3e2ecf	0.01160784
6	0xbce27ed9	-0.027648376
7	0x3d0ef9af	0.034906086
8	0xbd633d82	-0.05547858
9	0xbe2ba20f	-0.16761039
10	0xbd1da5ca	-0.038488187
11	0xbd82bdfd	-0.06383894
12	0xbd8cadfc	-0.068691224
13	0xbd65e8b9	-0.056130145
14	0xbbf91664	-0.007601546
15	0xbd5de16c	-0.054170057
16	0xbb0e91f2	-0.002175447
17	0xbd1251c9	-0.035722528
18	0x3c8d5238	0.017251119
19	0xbd4e89f0	-0.050424516
20	0xbd8110a3	-0.06302001
21	0xbca62162	-0.02027959
22	0x3cf69c6c	0.030103885
23	0xbd10b931	-0.035332862
24	0xbd4c9c7f	-0.049953934
25	0x39946cfb	0.00028309957
26	0xbd8832b4	-0.06650296
27	0x3d154845	0.036445875
28	0x3c8545ce	0.016268637
29	0xbc18560c	-0.009297859
30	0x3d1f7995	0.03893431
31	0xbc413097	-0.01179137
32	0xbd57b244	-0.05266024
33	0xbce71665	-0.02820892
34	0xbcc65d10	-0.024214298
35	0xbc829ef4	-0.015944935
36	0xbc9250c2	-0.017860774
37	0xbce61b0f	-0.028089074
38	0xbd7b2e32	-0.061323352
39	0x3b803364	0.0039123762
40	0x3cbd739c	0.023126416
41	0x3d0004d8	0.03125462
42	0xbd0e4c18	-0.034740537
43	0xbd650bd3	-0.05591948
44	0xbc854e17	-0.016272588
45	0xbabebacd	-0.001455152
46	0xbd9c2d18	-0.076257885
47	0x3addb6bb	0.001691542
48	0xbd735086	-0.059402965
49	0xbcc7bc11	-0.02438167
50	0xbd40eb3e	-0.047099344
51	0x3c852ffb	0.01625823
52	0xbd7097b5	-0.05873843
53	0x3d781e3e	0.060575716
54	0xbac43d93	-0.0014971964
55	0x3aae3e55	0.0013293723
56	0xbc9bfa0a	-0.019040126
57	0xbcfb6e10	-0.03069213
58	0x3de6e935	0.112749495
59	0xbc904d67	-0.017615033
60	0xbd650352	-0.05591137
61	0xbca017f0	-0.019542664
62	0xbd78ba9e	-0.060724847
63	0xbd3e11c4	-0.04640366
64	0xbd22f28b	-0.03978209
65	0xbb57ea5a	-0.003294608
66	0xbd31203d	-0.043243635
67	0xbdbb549f	-0.091469996
68	0xbd324a82	-0.043528087
69	0xbcd5cd27	-0.0260988
70	0xbde70627	-0.1128047
71	0x3cc67c69	0.024229245
72	0xbd6bca28	-0.057565838
73	0x3bade479	0.005306777
74	0xbd3cc41b	-0.04608546
75	0xbd372988	-0.04471734
76	0xbe149422	-0.14509633
77	0xbcce0267	-0.02514763
78	0xbd2a6bde	-0.041606776
79	0x3c8e1a85	0.01734663
80	0xbd46b5a3	-0.048513066
81	0xbc63145a	-0.013859833
82	0xbd9d5c87	-0.07683664
83	0x3d849111	0.06472982
84	0x3c2835de	0.010266749
85	0xbd3aa0de	-0.04556357
86	0x3c087608	0.008328922
87	0xbc8c6145	-0.017136225
88	0x3d16c28d	0.03680663
89	0x3d6107c4	0.054939047
90	0xbd1558d6	-0.036461674
91	0x3d28a8a1	0.041176442
92	0xbd366551	-0.044530217
93	0x3cbbcb98	0.02292423
94	0xbd18558d	-0.037190963
95	0xbe1ce0e7	-0.15320168
96	0xbd5c11e4	-0.053728
97	0xbe05c975	-0.13065131
98	0xbd8c1e23	-0.068416856
99	0xbe08cb49	-0.13358797
100	0xbd9014bc	-0.07035205
101	0x3ceb6fda	0.028739858
102	0xbdc48f13	-0.09597602
103	0xbd6120c6	-0.054962896
104	0xbd4bfc3c	-0.049801096
105	0xbdfdd619	-0.123943515
106	0xbd53d415	-0.05171593
107	0xbd398e34	-0.04530163
108	0xbda28a38	-0.079365194
109	0xbe00c04a	-0.12573352
110	0xbd44e8ed	-0.048073698
111	0xbd8a29a5	-0.06746224
112	0xbdb63971	-0.08897675
113	0xbd9ef0fd	-0.077608086
114	0xbce6ef2a	-0.028190214
115	0xbd540841	-0.051765684
116	0xbd8748b1	-0.06605662
117	0xbd2bed6e	-0.041974477
118	0xbcf8000a	-0.030273456
119	0xbbe2615b	-0.0069085783
120	0xbd9dec7a	-0.0771112
121	0xbdb405c7	-0.087901644
122	0xbdc6a948	-0.097002566
123	0xbc1f5f84	-0.009727363
124	0xbda3e918	-0.080034435
125	0x3b6bef10	0.0036000647
126	0xbdb2d52a	-0.08732064
127	0x3b98d95c	0.004664583
128	0xbd5562af	-0.052096065
129	0x3cdcc34c	0.026948594
130	0xbc84b5b7	-0.01619993
131	0x3b0988ca	0.0020986074
132	0xbcb8f3de	-0.022577222
133	0x3cd25940	0.025677323
134	0xbd2d3b37	-0.0422928
135	0xbc7d99b0	-0.0154785365
136	0xbdab5a3a	-0.08366819
137	0xbe15e9bb	-0.14639942
138	0xbcefd1a0	-0.029274762
139	0xbc11c6ed	-0.008897525
140	0xbd045c30	-0.03231448
141	0xbdaadeeb	-0.083432995
142	0xbdc3592a	-0.09538491
143	0xbd73b820	-0.059501767
144	0xbd180494	-0.03711374
145	0xbc1cf928	-0.009580888
146	0x3d396724	0.04526438
147	0xbd5b5012	-0.053543158
148	0xbd15d449	-0.036579404
149	0xbde8760b	-0.1135064
150	0xbd8dc88f	-0.06923019
151	0x3d36b629	0.044607315
152	0xbd84df81	-0.064879425
153	0xbd128abc	-0.03577684
154	0xbd7da11f	-0.061921235
155	0xbd846b16	-0.064657375
156	0x3b3d9320	0.0028926805
157	0xbae5a7b2	-0.001752129
158	0x3d4a1baf	0.049342807
159	0xbd07ac90	-0.033123553
160	0xbd2fdc11	-0.04293448
161	0xbdc1c6cb	-0.09461745
162	0x3d373ae4	0.044733897
163	0xbd24f507	-0.04027274
164	0xbbbb0359	-0.005707186
165	0xbdda83e4	-0.106696874
166	0xbcc7190a	-0.024303932
167	0xbdeb17e2	-0.11479165
168	0xbc365766	-0.011129236
169	0xbcda1c58	-0.026624843
170	0xbca2e4e7	-0.01988454
171	0x3d2c7a6b	0.042108934
172	0xbda3c559	-0.079966255
173	0xbd1d555c	-0.038411483
174	0x3cc20ac2	0.02368677
175	0xbd9ecee1	-0.07754303
176	0xbd81903e	-0.0632634
177	0xbd06db77	-0.03292414
178	0xbcf6ad50	-0.030111939
179	0xbdc21f4b	-0.09478625
180	0xbd72fa7a	-0.059320904
181	0xbd5b2417	-0.053501215
182	0x3d5e343e	0.05424904
183	0xbdc27136	-0.094942495
184	0xbd6fdcb7	-0.0585601
185	0xbd8a2416	-0.06745164
186	0xbd35ce9c	-0.04438649
187	0xbcc36067	-0.02384968
188	0xbd1ac339	-0.037783835
189	0xbd191d47	-0.037381437
190	0xbe22ed78	-0.159109
191	0xbcf912a9	-0.030404406
192	0xbd31f52c	-0.043446705
193	0xbd051e18	-0.032499403
194	0xbcee5094	-0.029091157
195	0xbd453e33	-0.04815502
196	0xbdd56fe8	-0.10421735
197	0x3db7afd3	0.08969083
198	0xbd4a04ba	-0.049320914
199	0xbc354765	-0.011064385
200	0xbca31ed5	-0.019912163
201	0xbd2ac6c7	-0.041693475
202	0xbb967b70	-0.0045923516
203	0xbd973ccf	-0.07384645
204	0xbda1111a	-0.0786459
205	0xbd2c06e5	-0.041998763
206	0xbd604452	-0.054752655
207	0xbda9c1ac	-0.08288893
208	0x3baf1c1b	0.0053439266
209	0xbbdf9cad	-0.006824097
210	0xbbfa1e3a	-0.007632998
211	0x3c69a126	0.014259612
212	0xbd423588	-0.047414333
213	0xbdb4e5ce	-0.08832894
214	0xbd6f1b14	-0.058375433
215	0x3cf74e15	0.0301886
216	0xbd1c3fc7	-0.03814676
217	0xbd777b38	-0.060420245
218	0xbc33f726	-0.010984218
219	0xbd643696	-0.05571612
220	0xbd024a67	-0.031809237
221	0xbd9134a0	-0.070901155
222	0x3d527f0a	0.051390685
223	0x3d5bcbc2	0.053661115
224	0x3d42893a	0.04749415
225	0xbd18b3d8	-0.037280887
226	0xbdbf0ef1	-0.09329022
227	0xbcf25ccc	-0.029585265
228	0xbc307291	-0.010769502
229	0xbd81a7a1	-0.06330801
230	0xbcf33403	-0.029687887
231	0xbd9e557b	-0.07731148
232	0x3d49489b	0.049141508
233	0xbd639636	-0.055563174
234	0xbd4cb4bc	-0.04997705
235	0xbd7e759d	-0.062123884
236	0x3d1353a9	0.035968456
237	0x3d1ba53d	0.03799938
238	0xbd9e7746	-0.07737593
239	0x3c37dcda	0.011222089
240	0xbd769c18	-0.060207456
241	0xbd236d55	-0.03989919
242	0xbdc83700	-0.097761154
243	0xbdaa61b6	-0.08319418
244	0x3cf870db	0.030327251
245	0xbda8c6f8	-0.08241075
246	0xbdaf6191	-0.08563531
247	0xbe3940c6	-0.18091115
248	0xbd8cd44d	-0.06876431
249	0xbdfc3e35	-0.123165525
250	0xbdd058cf	-0.10173189
251	0x3ba7587b	0.0051069832
252	0xbd0a26d9	-0.033728454
253	0xbb810818	-0.0039377324
254	0xbcd30489	-0.025758998
255	0xba32db1a	-0.000682281

fc_layers.2.bias f4 [128]
0	0xbdb07a76	-0.086171076
1	0x3e15735b	0.14594786
2	0xbee29677	-0.4425542
3	0xbe422a19	-0.18961371
4	0x3e116bb4	0.14201242
5	0x3d0430e4	0.03227319
6	0x3f3ae8aa	0.7301127
7	0x3ecea796	0.40362233
8	0xbd18b514	-0.037282065
9	0x3e053b5d	0.13010927
10	0xbdc20692	-0.094739094
11	0x3f1fb984	0.6239245
12	0xbe84e09c	-0.25952613
13	0xbd36d547	-0.04463699
14	0xbd2d6934	-0.042336658
15	0x3f27dab4	0.6556809
16	0x3f3ad828	0.7298608
17	0xbdee6f5f	-0.11642336
18	0xbe209b0a	-0.15684143
19	0x3ec4818d	0.3838009
20	0x3ee1d1cd	0.44105378
21	0xbec6729d	-0.38759318
22	0xbd47a014	-0.048736647
23	0xbeb52065	-0.35376278
24	0xbe376fee	-0.17913792
25	0x3e96d903	0.29462442
26	0x3f945199	1.1587402
27	0xbe987355	-0.2977549
28	0xbdb5e12c	-0.08880839
29	0xbd8a3f39	-0.0675034
30	0x3f77996c	0.9671848
31	0xbe8b2823	-0.2717906
32	0xbe0877b1	-0.13326909
33	0xbbefe4b4	-0.0073209647
34	0x3f067838	0.5252719
35	0xbd99e8de	-0.07515119
36	0xbe602b9f	-0.2189164
37	0xbd6be139	-0.057587836
38	0x3de41a63	0.11137845
39	0x3d3d667c	0.046240315
40	0x3f21ef1d	0.6325548
41	0xbd3568d5	-0.04428943
42	0x3e410388	0.18849003
43	0xbd62d2ea	-0.055376925
44	0xbf1e3897	-0.618051
45	0x3e19e835	0.15029986
46	0xbf220304	-0.6328585
47	0xbf09ccca	-0.5382811
48	0xbdc4704d	-0.09591732
49	0xbd83da81	-0.06438161
50	0xbe3240ae	-0.17407486
51	0xbc4c4a0c	-0.012468826
52	0xbe8b421a	-0.2719887
53	0xbe621280	-0.2207737
54	0xbdb8f566	-0.09031181
55	0x3f37dc4b	0.71820515
56	0xbea2b090	-0.31775331
57	0x3fac3a61	1.3455316
58	0xbe6b45d0	-0.2297585
59	0xbd45888e	-0.04822593
60	0x3f919a2c	1.1375175
61	0x3dc2b98a	0.09508045
62	0x3d458693	0.048224043
63	0x3e3a921e	0.18219802
64	0xbe0ed665	-0.13948973
65	0x3e551cca	0.20811763
66	0xbd8ffc56	-0.07030551
67	0x3f4c19e1	0.7972699
68	0xbdd219a7	-0.10258799
69	0x3fb135e0	1.3844566
70	0x3cdeeaa5	0.027211497
71	0x3de3d351	0.1112429
72	0xbdb63cc0	-0.08898306
73	0xbd1d3ed7	-0.038390007
74	0xbc54101d	-0.012943295
75	0x3d9c3cf4	0.076288134
76	0x3f1599d9	0.5843788
77	0x3ea795e9	0.3273156
78	0xbea6e5a6	-0.32597083
79	0xbebda1f5	-0.37037626
80	0x3e614454	0.21998721
81	0x3f45e602	0.7730409
82	0xbe1fc85a	-0.15603772
83	0xbc4afb0f	-0.012388959
84	0xbe49336b	-0.1964852
85	0x3ee2ff5f	0.44335458
86	0x3e9e80c8	0.30957627
87	0xbe3cede2	-0.1845012
88	0xbde9f98f	-0.11424553
89	0xbf02069c	-0.50791335
90	0xbe969289	-0.29408672
91	0x3f25af12	0.6472026
92	0xbdaa98e9	-0.083299465
93	0xbe78e313	-0.24305372
94	0xbd9d5147	-0.07681518
95	0xbe970f2c	-0.29503763
96	0x3f107bbc	0.56438804
97	0xbdc3f57e	-0.09568308
98	0x3c53d30b	0.0129287345
99	0x3ede09e7	0.4336693
100	0x3ed82e72	0.42222935
101	0x3d1ea4bf	0.038731333
102	0xbdd0ec99	-0.102013774
103	0x3d929c69	0.07158739
104	0xbe6ef810	-0.23336816
105	0x3f22c2cf	0.63578504
106	0x3efbfe25	0.49217334
107	0xbcdde948	-0.027088776
108	0xbdabf4bd	-0.083962895
109	0x3e8673b7	0.26260158
110	0xbeaf1ec7	-0.3420317
111	0x3eb7d07e	0.35901254
112	0xbb8c6538	-0.004284527
113	0xbdd93ab6	-0.10606901
114	0x3f1085f1	0.5645438
115	0xbcc4d952	-0.024029408
116	0x3f4626e7	0.7740311
117	0x3cd4af80	0.025962591
118	0xbe91b5e0	-0.28459072
119	0xbddfc292	-0.10925783
120	0xbe7af973	-0.2450922
121	0xbd766b61	-0.060161
122	0x3d8c0cc2	0.06838371
123	0x3de8aa4c	0.113606066
124	0xbe8c4127	-0.27393457
125	0xbd9425b1	-0.072337516
126	0x3ea652f1	0.32485154
127	0x3e815286	0.25258273

fc_layers.4.weight f4 [5, 128]
0	0x3cf98f8d	0.030463958
1	0x3d8c2cff	0.0684452
2	0x3dd379b4	0.103259474
3	0x3de87018	0.11349505
4	0xbd8618fa	-0.06547733
5	0xbe14e348	-0.14539826
6	0xbe457f76	-0.19286904
7	0xbd8592a7	-0.06522112
8	0x3938c054	0.00017619255
9	0xbe09ba71	-0.13450028
10	0xbd8e5cd0	-0.06951296
11	0xbdff0419	-0.124519534
12	0xbe25a249	-0.16175188
13	0xbce42cbf	-0.027853368
14	0x3d1f4da2	0.038892396
15	0xbe919c18	-0.28439403
16	0xbe5b7daf	-0.21434663
17	0xbd92c5be	-0.071666226
18	0x3df2021d	0.11816809
19	0xbe0d82e7	-0.13819467
20	0xbc374cdc	-0.011187758
21	0x3d856eab	0.06515249
22	0x3d0d7a35	0.034540374
23	0x3e47d09c	0.19513172
24	0x3d5c7f3b	0.053832274
25	0xbd4704f4	-0.048588708
26	0xbeb610ea	-0.3555978
27	0xbd11a1b2	-0.035554595
28	0xbcccdb19	-0.025006818
29	0xbcd334a3	-0.025781935
30	0xbe42b183	-0.19013028
31	0x3e5ccfac	0.21563596
32	0x3c953571	0.01821396
33	0x3cc480d2	0.023987208
34	0xbdb1e6b0	-0.08686578
35	0x3db0ae13	0.08626952
36	0x3df1cdb4	0.11806813
37	0xbcbdad8f	-0.023154048
38	0xbdc5f713	-0.09666266
39	0xbe770aaf	-0.24125169
40	0xbe5ade8e	-0.2137396
41	0x3cc43628	0.023951605
42	0xbe8d307f	-0.27576062
43	0x3d004a84	0.031321064
44	0x3df2061a	0.1181757
45	0xbd898838	-0.06715435
46	0x3f035f6a	0.51317465
47	0xbd8e5bbc	-0.06951091
48	0xbdb05864	-0.08610609
49	0xbdf053dd	-0.11734746
50	0x3eaa7f09	0.33300045
51	0xbd7b575b	-0.061362606
52	0x3d4c6763	0.049903285
53	0xbe1be314	-0.15223342
54	0x3b76e62d	0.0037673817
55	0xbe5cab17	-0.2154964
56	0x3e5191f0	0.20465827
57	0xbe862738	-0.26201797
58	0x3d82bb0d	0.06383333
59	0x3cf348fd	0.02969789
60	0xbe8d169c	-0.27556312
61	0xbde1c7c1	-0.11024428
62	0xbb5d2d03	-0.0033748753
63	0xbe5a7bad	-0.21336241
64	0x3c89f985	0.016842613
65	0xbdc86f50	-0.09786856
66	0x3e04fa89	0.12986197
67	0xbe338eef	-0.17534994
68	0x3d3b7000	0.04576111
69	0xbef8a12d	-0.48560467
70	0xbd89cfe8	-0.06729108
71	0xbe6bcc68	-0.23027194
72	0xbcebf5f0	-0.028803796
73	0x3d613694	0.05498369
74	0x3cef3e34	0.029204465
75	0xbd5ced94	-0.05393751
76	0xbe206a45	-0.15665539
77	0xbde3f96e	-0.11131559
78	0x3e803be3	0.2504569
79	0x3c8d1e0e	0.017226245
80	0xbe20b316	-0.15693316
81	0xbeca816d	-0.3955187
82	0xbe1d268f	-0.1534674
83	0x3cdc86a1	0.026919665
84	0x3dddd8db	0.108323775
85	0xbcc09db1	-0.023512693
86	0xbde8f614	-0.11375061
87	0x3e1cd9b2	0.15317419
88	0x3dc44b2d	0.09584651
89	0x3efa8af2	0.48934132
90	0x3ea40ac8	0.32039475
91	0xbe30d565	-0.17268904
92	0xbcbc87d7	-0.023013992
93	0x3d5ab612	0.053396292
94	0x3ce655df	0.028117118
95	0xbd996344	-0.074896365
96	0xbdc66a26	-0.09688215
97	0xbd751837	-0.059837546
98	0x3eb1d8e1	0.34735778
99	0xbe37c46b	-0.17946021
100	0xbc38cbcf	-0.0112790605
101	0x3eb916d2	0.36150223
102	0x3da773ae	0.08176361
103	0x3d02eb36	0.031962596
104	0x3e26979f	0.16268776
105	0xbe0a8541	-0.13527395
106	0xbc70283b	-0.014658029
107	0x3df6d42b	0.120521866
108	0x3d6801aa	0.056642212
109	0x3dd1fbc7	0.10253101
110	0x3e41ede0	0.18938398
111	0xbdb549aa	-0.08851941
112	0x3ef2c2c2	0.47414213
113	0xbc7c979d	-0.015417007
114	0xbe00c2f0	-0.12574363
115	0x3d26fd47	0.040768888
116	0xbdf1f278	-0.11813825
117	0xbdde50a6	-0.10855226
118	0x3eec74da	0.461829
119	0x3e5392fe	0.20661542
120	0x3ec0ede8	0.37681508
121	0xbe00f08e	-0.12591764
122	0xbcc816bb	-0.024424901
123	0xbe1ef65a	-0.15523663
124	0xbe56eb47	-0.20988189
125	0xbd430b95	-0.047618467
126	0xbdde6914	-0.10859886
127	0x3c1d43d3	0.00959869
128	0xbd5e7a65	-0.054315943
129	0xbe7f8266	-0.24952087
130	0x3e4549e0	0.19266462
131	0x3e53c20f	0.20679496
132	0x3e683a3c	0.22678465
133	0x3e33f343	0.17573266
134	0xbecc1cb6	-0.39865655
135	0xbdb90a63	-0.09035184
136	0x3d1edc7c	0.03878449
137	0xbe5cc29b	-0.21558611
138	0xbcaa2059	-0.020767378
139	0xbe10fc66	-0.14158782
140	0xbe484859	-0.19558848
141	0x3d90bb23	0.070669435
142	0xbd97de54	-0.074154526
143	0xbea2580c	-0.317078
144	0xbe4dbb99	-0.20091094
145	0xbbd5226c	-0.0065043475
146	0xbe22b914	-0.15890914
147	0xbd3b912c	-0.045792744
148	0x3db71849	0.08940179
149	0xbcbc1831	-0.022960754
150	0xbdb62237	-0.08893245
151	0x3e0d56e1	0.13802673
152	0x3adb5016	0.0016732241
153	0xbcd1d56b	-0.02561446
154	0xbe9ff3ed	-0.31240788
155	0xbd91224d	-0.070866205
156	0xbcad4d94	-0.021155156
157	0xbd0ef115	-0.034897882
158	0xbe83c1da	-0.25733835
159	0x3e29a8d2	0.16568306
160	0x3e8c3062	0.27380663
161	0xbcf563ad	-0.029954756
162	0xbda20690	-0.07911408
163	0xbdf7aa8a	-0.120930746
164	0x3e2528c7	0.16128837
165	0xbd83ab2a	-0.06429131
166	0xbe3f27c0	-0.18667507
167	0x3d6336d9	0.05547223
168	0xbdb55642	-0.08854343
169	0xbdba9a24	-0.09111431
170	0x3dadc0a6	0.084840104
171	0xbd9ef272	-0.077610865
172	0x3e923dfb	0.28562912
173	0xbe6de4e1	-0.23231842
174	0x3edf3b50	0.4359994
175	0xbe8c946b	-0.27456984
176	0xbba0b4ec	-0.00490438
177	0x3c6c54ba	0.014424497
178	0x3eb20059	0.3476589
179	0xbca9f093	-0.020744598
180	0x3e60cd71	0.2195337
181	0xbee9f6ee	-0.45696205
182	0xbd00c074	-0.031433538
183	0xbe61819e	-0.22022101
184	0x3e4301df	0.19043683
185	0xbe56859f	-0.2094941
186	0x3e1e4ee5	0.15459783
187	0xbc57676c	-0.013147216
188	0xbe4b4bdd	-0.19853158
189	0xbe329dd1	-0.17443015
190	0xbda1c5db	-0.07899066
191	0xbe7a89e4	-0.24466664
192	0xbca1552f	-0.019693939
193	0xbe213379	-0.15742292
194	0xbcfd83f4	-0.03094671
195	0xbe9ee3e2	-0.31033236
196	0xbaf09e39	-0.0018357701
197	0xbee4ea95	-0.44710222
198	0x3c59018c	0.013244998
199	0xbd1156eb	-0.035483282
200	0xbdd3c067	-0.10339432
201	0x3d83255d	0.06403611
202	0x3c59b304	0.01328731
203	0xbe19df41	-0.15026571
204	0xbe4bac31	-0.19889905
205	0xbe5ec276	-0.21753868
206	0x3e51e6a6	0.20498142
207	0xbe119d39	-0.14220132
208	0xbc54368e	-0.01295246
209	0xbe1fc337	-0.15601812
210	0x3e20341c	0.15644878
211	0xbdc00de4	-0.093776494
212	0x3e0a24fa	0.13490668
213	0xbe2839bb	-0.16428272
214	0xbe3004dd	-0.17189355
215	0x3e5d6d60	0.21623755
216	0x3e05b844	0.13058573
217	0x3eed1460	0.46304607
218	0x3e999b21	0.30001166
219	0xbe0cca13	-0.1374896
220	0xbd4ea468	-0.05044976
221	0xbce13e75	-0.027495602
222	0xbc2637d1	-0.010145144
223	0xbe3785c1	-0.17922117
224	0x3d60dbba	0.054897048
225	0xbcc99335	-0.024606327
226	0x3eb6907a	0.35657102
227	0xbe76be95	-0.24096139
228	0xbd810253	-0.062992714
229	0x3ec2f65d	0.38078585
230	0x3d588c63	0.05286826
231	0x3c668575	0.014069905
232	0x3e4d8d9d	0.20073552
233	0xbd89c363	-0.0672672
234	0xbc6a7c63	-0.014311883
235	0x3ce4e7b8	0.027942523
236	0x3d556314	0.05209644
237	0x3e1ca105	0.15295799
238	0x3e4d4dd4	0.2004922
239	0x3d20f2cc	0.03929405
240	0x3ef3494b	0.47516856
241	0xbcabea6e	-0.020985808
242	0xbe079dcb	-0.13243787
243	0x3d4f62f2	0.05063147
244	0xbe249607	-0.16072856
245	0xbda29a7f	-0.07939624
246	0x3eea6ffd	0.45788565
247	0x3ea9b2f6	0.3314435
248	0x3ebf853a	0.3740633
249	0xbd398a16	-0.045297705
250	0x3c7c165c	0.01538619
251	0xbe3f3144	-0.18671137
252	0xbe653b08	-0.223858
253	0x3d86ed92	0.06588282
254	0xbdbf0697	-0.09327429
255	0x3d9f929c	0.077916354

fc_layers.4.bias f4 [5]
0	0xbf266bb2	-0.6500808
1	0xbf1dba1b	-0.616121
2	0xbf34641f	-0.7046527
3	0xbf25441c	-0.6455705
4	0xbf298bf8	-0.662292
