Existing_MARL-SimpleSpreadv3/double_dqn_models/final_agent_1.pt (torch, 156829 bytes, 6 tensors)

fc_layers.0.weight f4 [256, 18]
0	0xbdf5650b	-0.11982163
1	0xbcf706d5	-0.030154625
2	0xbc65c4c7	-0.014023966
3	0xbcc2d746	-0.023784291
4	0x3f0c5343	0.5481455
5	0xbef3d227	-0.4762127
6	0xbeae3f74	-0.34032786
7	0xbe92a5ed	-0.28642216
8	0xbebafb33	-0.36519775
9	0x3ec23e37	0.3793809
10	0x3e6a4bd0	0.22880483
11	0x3d26d8d0	0.040734112
12	0xbe83ae69	-0.25719002
13	0xbdf9d58b	-0.12198933
14	0x3e38a6c4	0.18032366
15	0x3e192682	0.14956096
16	0xbe43df94	-0.19128257
17	0x3d8de2b8	0.06928009
18	0xbec3193e	-0.38105196
19	0xbe00e0db	-0.12585776
20	0xbeef8b9e	-0.46786207
21	0x3ea225e2	0.31669527
22	0x3d9d3c1b	0.0767748
23	0x3e90e7ee	0.28301948
24	0x3f0be0e3	0.54640025
25	0x3d4ed1c7	0.050493028
26	0x3f06c9a9	0.5265146
27	0xbdc1f0a6	-0.09469728
28	0xbf0c3a21	-0.547762
29	0x3e280c0e	0.16410848
30	0xbec0dc87	-0.3766825
31	0xbd8b6137	-0.06805652
32	0x3e6e4585	0.23268707
33	0xbcba344f	-0.02273002
34	0xbdbdaf70	-0.09261978
35	0x3e23019f	0.15918587
36	0x3e179a86	0.1480504
37	0xbcb60bd9	-0.022222446
38	0x3e4f6484	0.20253187
39	0x3d44eff9	0.04808042
40	0x3e1722f2	0.14759424
41	0xbdebcf04	-0.115140945
42	0x3d1276eb	0.03575794
43	0xbebe786d	-0.37201253
44	0x3e6d1a41	0.23154546
45	0x3e824a81	0.25447467
46	0xbe800071	-0.25000337
47	0xbe30db83	-0.17271237
48	0x3eb8ab0f	0.36068007
49	0x3f2736d1	0.6531802
50	0xbde260cf	-0.11053621
51	0x3dab9a3b	0.083790265
52	0x3d2a7c57	0.041622486
53	0x3bda20b2	0.0066567296
54	0x3da61551	0.081095345
55	0x3d15dbee	0.036586694
56	0xbdce0f37	-0.10061496
57	0x3c3784bd	0.011201081
58	0xbe0dcddf	-0.13848065
59	0x3d2243f5	0.03961559
60	0xbdd14114	-0.10217491
61	0x3e9541cd	0.29151765
62	0xbea52360	-0.3225355
63	0x3e13e4c1	0.14442731
64	0x3f230604	0.63681054
65	0xbf19fdeb	-0.60153073
66	0x3dade906	0.08491711
67	0xbd887994	-0.06663814
68	0x3c7f2b1d	0.015574244
69	0xbbddc705	-0.0067681097
70	0x3de1439f	0.10999226
71	0x3e3131ff	0.17304228
72	0xbe2755f5	-0.16341384
73	0x3e5b7646	0.21431836
74	0xbe3fc869	-0.18728794
75	0x3ec52deb	0.38511595
76	0x3e389677	0.18026148
77	0x3e4b70be	0.19867226
78	0xbe5e73fe	-0.21723935
79	0xbd559f06	-0.05215361
80	0x3e9addb1	0.30247262
81	0xbf18da8d	-0.5970848
82	0xbe7279c5	-0.23679264
83	0x3f0d5288	0.5520406
84	0xbd65e308	-0.056124717
85	0x3b69d927	0.0035682411
86	0x3da67b05	0.08128933
87	0xbe6b4ed9	-0.22979297
88	0x3df87a4c	0.12132701
89	0xbe343e59	-0.17601909
90	0xbe69d964	-0.22836834
91	0x3f00ec0b	0.50360173
92	0x3c04a4ef	0.008095964
93	0x3b704088	0.0036659557
94	0xbd98e805	-0.07466129
95	0x3d8d36f5	0.06895248
96	0x3f4017de	0.7503642
97	0xbfa7b856	-1.310313
98	0xbdd7d575	-0.105387606
99	0x3de07111	0.10959066
100	0xbc4c03cb	-0.012452076
101	0xbe2f5af3	-0.17124538
102	0x3e05ee91	0.13079287
103	0xbdeeb411	-0.11655439
104	0x3d1fd159	0.03901801
105	0x3d6aecf7	0.057354894
106	0xbc9029ca	-0.017598052
107	0x3e191aae	0.14951584
108	0xbe801b75	-0.25020948
109	0xbe62a4f7	-0.22133242
110	0xbe5fa294	-0.21839362
111	0x3e21203a	0.1573495
112	0xbe4adad1	-0.19810034
113	0xbe1a22a3	-0.15052275
114	0xbeedc868	-0.4644196
115	0xbd5b8137	-0.053590026
116	0xbddd626c	-0.10809788
117	0xbe03fb78	-0.12888896
118	0x3deca1c0	0.11554289
119	0xbd8ac814	-0.06776443
120	0xbe9740a2	-0.29541498
121	0xbdc8c2e7	-0.098028
122	0xbe1370f6	-0.1439856
123	0x3e0497f2	0.12948588
124	0x3d80519e	0.06265567
125	0xbda439f2	-0.08018865
126	0xbd35442d	-0.04425447
127	0x3d5e14b7	0.054218974
128	0xba80b0a8	-0.0009818273
129	0x3e916abb	0.2840174
130	0xbe0be129	-0.1366011
131	0xbe0073b8	-0.12544143
132	0xba38be30	-0.0007047383
133	0x3d712ffe	0.05888366
134	0x3ec99afe	0.39376062
135	0xbe924cc5	-0.28574196
136	0xbeac47af	-0.3364844
137	0x3e2f522b	0.17121188
138	0xbc7907ce	-0.015199615
139	0x3e1fe68d	0.15615292
140	0xbe25cda5	-0.16191728
141	0x3d1f903c	0.038955912
142	0x3dad107c	0.0845041
143	0xbe69e8ab	-0.22842662
144	0xbe88cb90	-0.26717806
145	0xbc4023be	-0.011727272
146	0x3ea811d5	0.32826105
147	0xbe8efebd	-0.27928725
148	0x3e09441a	0.13404885
149	0xbd5ad02a	-0.053421177
150	0x3ef4401b	0.4770516
151	0x3e83909b	0.25696263
152	0xbeeaef78	-0.45885825
153	0xbe1236b1	-0.14278676
154	0x3e12712f	0.14300989
155	0xbd9beac0	-0.076131344
156	0x3e95f06b	0.29284987
157	0x3cf545a6	0.029940438
158	0xbe2c5207	-0.16828166
159	0xbda1a7a9	-0.07893307
160	0xbe64c59c	-0.22341007
161	0x3e144688	0.1448003
162	0xbce003d1	-0.02734557
163	0x3cbff820	0.023433745
164	0x3dedb0f2	0.11606015
165	0xbd8daf83	-0.06918242
166	0x3d5e4297	0.054262724
167	0xbc025c61	-0.007956595
168	0xbf5ebafa	-0.87004054
169	0x3f42333b	0.7585942
170	0x3d9f948c	0.07792005
171	0xbd2b7bf8	-0.041866273
172	0xbdb6a6ee	-0.08918558
173	0x3cfab925	0.030605862
174	0x3f8a7249	1.0816127
175	0xbf659e90	-0.8969507
176	0xbe53e302	-0.20692065
177	0xbdb122b7	-0.086491995
178	0xbe66dde5	-0.22545584
179	0xbdc925fa	-0.098216966
180	0xbde96782	-0.11396696
181	0xbf187460	-0.59552574
182	0xbb877529	-0.0041338396
183	0x3c511b6a	0.012762884
184	0x3e2602b7	0.16211973
185	0xbd39676a	-0.04526464
186	0x3e747b6d	0.23875208
187	0x3fd4bfb0	1.6620998
188	0x3d80ce35	0.06289331
189	0xbe139c87	-0.14415179
190	0xbc87c0b7	-0.016571386
191	0x3d5b9a49	0.053613935
192	0xbd37f9d6	-0.044915996
193	0x3cc08058	0.0234987
194	0x3be91133	0.007112646
195	0x3d03c8fa	0.032174088
196	0xbe2809ee	-0.16410038
197	0xbe3894ed	-0.1802556
198	0x3df051cc	0.117343515
199	0xbe061456	-0.13093695
200	0x3e5336bb	0.20626347
201	0x3e6ebbbc	0.23313802
202	0xbea2d0f5	-0.31800047
203	0x3e1b1065	0.15142973
204	0x3f2109b1	0.6290541
205	0x3d091ca4	0.03347458
206	0xbeb00ae5	-0.34383312
207	0xbddd0c57	-0.10793369
208	0x3edf5842	0.43622023
209	0xbd2ee1a6	-0.042695664
210	0x3eec910d	0.46204415
211	0x3ee089ce	0.43855137
212	0x3e482873	0.1954668
213	0x3e1ad508	0.15120327
214	0x3d8aa7ca	0.067702845
215	0xbe5c96a9	-0.21541847
216	0xbc02fc06	-0.007994657
217	0xbe761ebe	-0.24035165
218	0x3d2c0842	0.042000063
219	0xbec29498	-0.38003993
220	0x3e6f3343	0.23359399
221	0x3edbf4ea	0.42960292
222	0xbe1332b3	-0.14374809
223	0x3ec5d434	0.3863846
224	0x3ec19e09	0.37815884
225	0x3f161ee6	0.586409
226	0xbdcd2b83	-0.10018065
227	0xbf455500	-0.77082825
228	0xbdb3e4d5	-0.087838806
229	0xbf0d63a9	-0.55230194
230	0x3df818af	0.12114083
231	0x3c6cbb0f	0.014448895
232	0x3db6a420	0.08918023
233	0x3e355c6b	0.17711036
234	0x3df13bc4	0.117789775
235	0xbcd9cb1f	-0.026586113
236	0xbdd8e86d	-0.10591207
237	0x3ca773ac	0.020440899
238	0x3f8e237f	1.1104583
239	0xbef4a92a	-0.47785312
240	0xbdd88355	-0.105719246
241	0xbc3447b9	-0.011003428
242	0xbd9e714e	-0.07736455
243	0x3e1493eb	0.14509551
244	0xbfa7f10c	-1.3120437
245	0x3ee2d2cf	0.4430146
246	0x3dd9b6cf	0.10630571
247	0x3a33e7c4	0.0006862844
248	0x3e5c7b3f	0.2153139
249	0x3e547c90	0.20750642
250	0xbe3d9cff	-0.1851692
251	0x3e24e904	0.16104513
252	0x3e33de7a	0.17565337
253	0x3e35e9af	0.17764924
254	0x3eb25be6	0.34835738
255	0xbc2095dd	-0.009801355

fc_layers.0.bias f4 [256]
0	0xbf637945	-0.8885692
1	0xbf2a66bf	-0.6656303
2	0xbf703b5d	-0.9384058
3	0xbf8a1a48	-1.078927
4	0xbf802091	-1.0009938
5	0x3e857e57	0.26072952
6	0xbf56e694	-0.83945584
7	0xbf8d2e51	-1.102976
8	0xbf698767	-0.9122223
9	0xbe2bdd27	-0.16783582
10	0x3cc1c04b	0.023651263
11	0xbf1e4765	-0.6182769
12	0xbf821d1a	-1.0165131
13	0xbe65bb9a	-0.22434846
14	0xbf9277c5	-1.1442801
15	0xbf7e9f62	-0.9946195
16	0xbe3c4e7c	-0.18389314
17	0xbf3c3f52	-0.7353412
18	0xbf393199	-0.72341305
19	0xbf943ebe	-1.1581647
20	0xbf87bead	-1.0605065
21	0xbf39941c	-0.7249162
22	0xbe50e0a9	-0.20398201
23	0xbf93b48b	-1.1539472
24	0xbf7f501e	-0.99731624
25	0xbf3e62fb	-0.7436978
26	0xbf8829f3	-1.0637802
27	0xbf7b1bc1	-0.98089224
28	0xbfa40f72	-1.2817214
29	0xbf3935c0	-0.7234764
30	0xbe04f81c	-0.12985271
31	0xbf931943	-1.1492084
32	0xbea73b87	-0.32662603
33	0xbf87fdcf	-1.0624331
34	0xbdf321d3	-0.11871686
35	0xbf9dda84	-1.2332311
36	0xbf847d6f	-1.0350779
37	0xbf3008ec	-0.68763614
38	0xbf5b5dd8	-0.8569007
39	0xbf899a3a	-1.0750191
40	0xbf9ac752	-1.2092078
41	0xbf8ec001	-1.1152345
42	0xbf60923a	-0.87723124
43	0xbf78ba8e	-0.9715966
44	0xbf241686	-0.6409687
45	0xbf979a9c	-1.1844058
46	0xbdce9443	-0.100868724
47	0xbe83da8a	-0.2575267
48	0xbf5a09f1	-0.8517142
49	0xbe412b21	-0.18864109
50	0xbf6de124	-0.9292166
51	0xbf31aaba	-0.69401133
52	0xbf80a9c0	-1.0051804
53	0xbf76dd5f	-0.96431535
54	0xbf9b490d	-1.2131668
55	0xbc29c525	-0.010361944
56	0xbf7f5491	-0.99738413
57	0xbfa3ee38	-1.2807074
58	0xbf9440b6	-1.1582248
59	0xbf8fa8f3	-1.1223434
60	0xbf50f261	-0.8161984
61	0xbf17522b	-0.59109753
62	0xbe455b92	-0.19273213
63	0xbf8b4a72	-1.0882094
64	0xbf7843ec	-0.9697864
65	0xbf8f1e82	-1.1181185
66	0xbf61693a	-0.8805119
67	0xbf86ed5b	-1.0541185
68	0xbf975d46	-1.182534
69	0xbf88a19d	-1.067432
70	0xbf62ef34	-0.88646245
71	0xbf7300c2	-0.9492303
72	0xbf83f694	-1.0309625
73	0xbea273fc	-0.31729114
74	0xbf1a9f59	-0.60399395
75	0xbf9129ad	-1.1340843
76	0xbf9d0eb1	-1.2270108
77	0xbe7533ce	-0.23945543
78	0xbf6760b0	-0.9038191
79	0xbdbad3fe	-0.091224656
80	0xbf4e7ccb	-0.8065917
81	0xbe011578	-0.12605846
82	0xbf134cc5	-0.57539016
83	0xbd8a31df	-0.067477934
84	0xbf8e371e	-1.111057
85	0xbf5f0418	-0.8711562
86	0xbdec3297	-0.11533087
87	0xbf8cbeea	-1.0995762
88	0xbf58e4fa	-0.8472439
89	0xbf8e8164	-1.1133237
90	0xbf59f8ea	-0.8514544
91	0x3e2269df	0.15860699
92	0xbf89557a	-1.072921
93	0xbd85e836	-0.06538431
94	0xbf6738fc	-0.90321326
95	0xbf6d361a	-0.9266068
96	0xbf24f13f	-0.6443061
97	0xbf5b9f27	-0.8578972
98	0x3e165ef1	0.14684655
99	0xbf3258c7	-0.69666713
100	0xbd49d549	-0.04927567
101	0xbf88ec3d	-1.0697094
102	0xbf9e38f6	-1.2361133
103	0x3d4f9500	0.050679207
104	0xbf4bdc2f	-0.7963285
105	0xbf74ef16	-0.95677316
106	0xbdddb9cb	-0.10826453
107	0xbf5f9a80	-0.87345123
108	0xbf9dd315	-1.2330042
109	0xbf31e996	-0.6949705
110	0xbf9135da	-1.1344559
111	0xbdf74eb7	-0.120755605
112	0xbf7be7e9	-0.9840074
113	0xbf9f90af	-1.2466029
114	0xbf91c40c	-1.1387954
115	0xbf912aab	-1.1341146
116	0xbf6048c7	-0.8761105
117	0xbf95d1bf	-1.1704634
118	0xbee99569	-0.45621803
119	0xbf5b64a4	-0.8570044
120	0xbd3366d7	-0.043799248
121	0xbf6b8851	-0.9200488
122	0xbf211586	-0.6292347
123	0xbf2a9ddc	-0.66647124
124	0xbf69f7a0	-0.9139347
125	0xbf9f0098	-1.2422056
126	0xbf87908d	-1.0590988
127	0xbf982448	-1.1886072
128	0xbe3dc420	-0.18531847
129	0xbf66f471	-0.9021674
130	0xbf95a235	-1.1690127
131	0xbf7dd3cc	-0.991513
132	0xbf8f81ae	-1.121145
133	0xbf5fc6ee	-0.8741292
134	0xbf708232	-0.9394866
135	0xbe58acd4	-0.21159679
136	0xbf8a1525	-1.0787703
137	0xbf9d65c1	-1.2296678
138	0xbd9513fe	-0.07279204
139	0xbdaf5e4d	-0.08562908
140	0xbf9331e7	-1.1499604
141	0xbf5ac3b8	-0.85454893
142	0xbf6f3f92	-0.93456376
143	0xbd765d50	-0.060147583
144	0xbf92ae5c	-1.145946
145	0xbf7e7593	-0.99398154
146	0xbf563cfe	-0.83686817
147	0xbf9e4254	-1.2363992
148	0xbf8abcd9	-1.0838882
149	0xbe8854ac	-0.266271
150	0x3d838c3b	0.06423231
151	0xbf81981a	-1.0124543
152	0xbee75e16	-0.4518897
153	0xbd579899	-0.052635763
154	0xbe340ab1	-0.17582203
155	0xbf98aa41	-1.1926957
156	0xbf7e6b5e	-0.9938258
157	0xbf8d34b9	-1.1031715
158	0xbe70efd6	-0.2352899
159	0xbe8addc2	-0.27122313
160	0xbf8adaee	-1.0848062
161	0xbe02b281	-0.12763406
162	0xbf83eb5d	-1.0306202
163	0xbf881a5c	-1.0633044
164	0xbf4a9aa2	-0.791422
165	0xbe0b8350	-0.1362431
166	0xbd9450af	-0.07241952
167	0xbf916532	-1.1359007
168	0xbf96acca	-1.1771481
169	0xbe1f7f81	-0.15575983
170	0xbe1e8165	-0.15479048
171	0xbe51c5d6	-0.20485625
172	0xbf80081d	-1.0002476
173	0xbe2557f6	-0.16146836
174	0xbf4490fd	-0.76783735
175	0xbf86a650	-1.0519505
176	0xbf8eceb6	-1.1156833
177	0xbdad253f	-0.0845437
178	0xbf8e8bfc	-1.113647
179	0xbf1748ec	-0.59095645
180	0xbf3ee6ce	-0.7457093
181	0xbf504c46	-0.81366384
182	0xbf542075	-0.82862025
183	0xbf2371ae	-0.63845336
184	0xbf43c2d0	-0.76469135
185	0xbf693050	-0.91089344
186	0xbf79d0c6	-0.9758419
187	0xbf5a1f15	-0.8520368
188	0xbf8293ca	-1.0201352
189	0xbe25f9f4	-0.16208631
190	0xbebe1e9b	-0.37132725
191	0xbdce9590	-0.100871205
192	0xbf68d221	-0.9094563
193	0xbf968bc6	-1.1761405
194	0xbf845a43	-1.0340046
195	0xbf2f9b21	-0.6859608
196	0xbd448299	-0.04797611
197	0xbf8ed2a8	-1.1158037
198	0xbf915cb3	-1.1356415
199	0xbf5c7a43	-0.86124057
200	0xbf5c1205	-0.85964996
201	0x3d5e2de2	0.054242976
202	0xbf2e6edf	-0.68137926
203	0xbdc48e12	-0.0959741
204	0xbe0ada05	-0.1355973
205	0xbf1a2fb5	-0.60229045
206	0xbf82b10e	-1.0210283
207	0xbcf0f207	-0.029412283
208	0xbf20bec7	-0.62791103
209	0xbf450092	-0.76953995
210	0xbef3ce6d	-0.47618428
211	0xbe856e2e	-0.26060623
212	0xbf75e120	-0.9604664
213	0xbf74279e	-0.9537295
214	0xbe9df651	-0.30851987
215	0xbf3423e2	-0.7036725
216	0xbf783ac2	-0.9696466
217	0xbf0463f2	-0.51715004
218	0x3c3a0f24	0.011356149
219	0xbf74c850	-0.9561815
220	0xbf3caeb8	-0.737041
221	0x3cf3a578	0.029741988
222	0xbf951c53	-1.1649269
223	0xbf812219	-1.0088531
224	0xbf09a1e1	-0.5376263
225	0xbf81f970	-1.0154247
226	0xbf8735f5	-1.0563341
227	0xbf8031c1	-1.0015184
228	0x3d9fc8fa	0.07802005
229	0xbd04dca9	-0.032437
230	0xbf738016	-0.9511732
231	0xbf9ccd40	-1.2250137
232	0xbf838527	-1.027501
233	0xbf309716	-0.6898054
234	0xbf3c6a77	-0.7359995
235	0x3de68a62	0.11256863
236	0xbf05d896	-0.5228361
237	0xbf7d858d	-0.9903191
238	0xbdc6b18d	-0.09701834
239	0xbee6a9da	-0.4505146
240	0xbf747ef3	-0.9550621
241	0xbf414ab4	-0.7550461
242	0xbf8f2846	-1.1184165
243	0xbd3263a1	-0.043552045
244	0x3dabc140	0.08386469
245	0xbe129be0	-0.14317274
246	0xbf91551d	-1.13541
247	0xbf8be33f	-1.0928725
248	0xbf89a06f	-1.0752085
249	0xbf80487f	-1.0022124
250	0xbf78fa65	-0.9725707
251	0xbf144276	-0.5791391
252	0x3d87a0c4	0.066224605
253	0xbfa7c547	-1.3107079
254	0xbfa3b4ed	-1.2789589
255	0xbe441a3c	-0.19150633

fc_layers.2.weight f4 [128, 256]
0	0x3d8e0fab	0.06936582
1	0xbefe74db	-0.4969853
2	0xbe753858	-0.23947275
3	0xbea4bd63	-0.3217574
4	0xbeb1beda	-0.3471592
5	0x3e6efbf4	0.233383
6	0x3e00b965	0.12570722
7	0xbe913c64	-0.28366387
8	0xbd6418ca	-0.055687703
9	0x3deafd8b	0.11474141
10	0x3da8b63d	0.08237884
11	0x3ec49a80	0.38399124
12	0x3d5e98e4	0.054345027
13	0x3f27bd50	0.6552324
14	0xbe0914e4	-0.13386875
15	0x3d7fbcff	0.0624361
16	0x3eabb805	0.33538833
17	0x3d31bd27	0.04339328
18	0xbeba4ead	-0.3638815
19	0xbdbffff7	-0.09374993
20	0xbf5b89c9	-0.8575712
21	0xbec1f165	-0.37879482
22	0x3d82bc13	0.063835286
23	0x3d110f23	0.035414826
24	0xbeaa2411	-0.3323064
25	0xbea09b5e	-0.31368536
26	0xbd7504c3	-0.059818994
27	0x3dcd90a5	0.100373544
28	0xbe809d51	-0.25120023
29	0x3df2ccbc	0.11855456
30	0xbe3a47ce	-0.18191454
31	0xbe917035	-0.2840592
32	0x3eba8809	0.36431912
33	0xbee92907	-0.45539114
34	0xbec76c5d	-0.38949862
35	0x3e08eac3	0.13370804
36	0xbdac698b	-0.08418568
37	0xbae8c504	-0.001775891
38	0x3f0b6241	0.544468
39	0xbe3f1808	-0.18661511
40	0xbeaca761	-0.3372145
41	0xbedc3508	-0.4300921
42	0xbdf91ad0	-0.12163317
43	0xbed2419f	-0.4106569
44	0x3d354e25	0.044263978
45	0x3e61e367	0.22059403
46	0x3d8bdf4b	0.06829699
47	0x3e409d73	0.18810062
48	0xbde9cc9b	-0.114159785
49	0x3de102ad	0.109868385
50	0xbe2f90ac	-0.17145032
51	0xbd818908	-0.06324965
52	0x3e02c975	0.12772162
53	0x3ee32e4a	0.44371253
54	0xbdd68239	-0.10474057
55	0x3e8e6a7d	0.2781562
56	0xbda3836a	-0.079840496
57	0x3e153d1f	0.14574097
58	0xbf047cf7	-0.5175318
59	0xbef633a5	-0.48086277
60	0x3c100507	0.008790261
61	0x3e07f2a5	0.13276155
62	0x3d5e59c3	0.054284822
63	0xbe0394f3	-0.12849788
64	0x3ded4990	0.115862966
65	0x3eb8443a	0.35989553
66	0xbe3ad7e9	-0.18246426
67	0xbd2082fa	-0.03918741
68	0xbebe0658	-0.37114215
69	0x3e8961ae	0.26832336
70	0xbd442961	-0.047891025
71	0x3d61d7bb	0.055137377
72	0xbd919f4e	-0.07110463
73	0xbd4c74c0	-0.04991603
74	0xbe28d3fb	-0.16487114
75	0x3f03e5d0	0.5152254
76	0x3eb83563	0.3597823
77	0x3dddf0d6	0.108369514
78	0xbe2530f8	-0.16131961
79	0xbea33275	-0.31874433
80	0xbc34d477	-0.011036984
81	0xbf4a23cd	-0.7896088
82	0xbf339c2b	-0.7016017
83	0x3dede445	0.116158046
84	0x3cc9c148	0.024628296
85	0x3d01f8f7	0.031731572
86	0xbd191392	-0.03737218
87	0xbe61d69c	-0.22054523
88	0x3e8a7eab	0.27049765
89	0xbd9bf9c7	-0.076160006
90	0xbe1a5530	-0.15071559
91	0xbe4d8952	-0.20071915
92	0xbd92cf1d	-0.0716841
93	0x3d5b083d	0.053474654
94	0xbd2e05f3	-0.042486142
95	0xbe5c301a	-0.21502724
96	0x3d957cca	0.07299192
97	0xbdf4176a	-0.119185284
98	0x3e03156c	0.1280114
99	0x3da65222	0.08121134
100	0x3e4b444b	0.1985027
101	0x3dff31af	0.12460648
102	0x3e2a028e	0.16602537
103	0x3e812de6	0.2523033
104	0x3db39c1c	0.0877001
105	0x3e239bb0	0.15977359
106	0xbe19122e	-0.14948341
107	0xbdf77dde	-0.12084554
108	0x3e80525e	0.2506284
109	0x3da89068	0.08230668
110	0x3e7a7bc5	0.24461277
111	0xbe84d0ec	-0.25940645
112	0x3d56ac82	0.05241061
113	0xbe4dcd12	-0.2009776
114	0x3cd57362	0.026055995
115	0xbe6e7aa9	-0.23288979
116	0x3e494364	0.19654614
117	0xbecbb47c	-0.39786136
118	0xbef8e503	-0.48612222
119	0xbdd3abcc	-0.10335502
120	0x3ed12c20	0.40853977
121	0x3dcf40c2	0.101197734
122	0x3e288c28	0.16459715
123	0xbccdfd80	-0.025145292
124	0x3cc978d8	0.024593756
125	0xbf18c335	-0.5967286
126	0xbe59427a	-0.21216765
127	0xbdac6f9d	-0.08419726
128	0xbdb12b00	-0.0865078
129	0xbf1bea8f	-0.60904783
130	0xbe83ce9c	-0.25743568
131	0x3c9b5129	0.018959599
132	0xbeb2d953	-0.3493143
133	0xbddc8f8e	-0.107695684
134	0xbd9f1069	-0.07766802
135	0x3dbfe634	0.0937008
136	0xbdbd999c	-0.09257814
137	0x3d332424	0.04373564
138	0x3e5756c5	0.21029194
139	0xbdf861a8	-0.121280015
140	0x3c1a2383	0.009407881
141	0x3d1f3315	0.038867075
142	0xbbadcce8	-0.0053039677
143	0x3ef89766	0.48553008
144	0x3e6588ef	0.22415517
145	0xbeb9784c	-0.36224592
146	0xbe843778	-0.2582357
147	0xbeb21275	-0.34779707
148	0x3d1777cb	0.036979478
149	0xbc05c8ec	-0.008165579
150	0x3e5be755	0.21474965
151	0x3e39763b	0.18111508
152	0x3d89083f	0.06691026
153	0x3ef5fa54	0.48042548
154	0x3e7ca9a4	0.24674088
155	0x3d7b26fe	0.061316483
156	0x3d1cada7	0.038251545
157	0x3dd298b6	0.102830335
158	0x3ca436c4	0.020045646
159	0xbe1d68ae	-0.15371963
160	0xbee4b4be	-0.44669145
161	0x3f186f6a	0.59545004
162	0xbe7e41fd	-0.2482986
163	0x3e429a3f	0.19004153
164	0xbe04d5ed	-0.12972231
165	0xbd70d06f	-0.058792528
166	0x3e8a4a62	0.27009875
167	0xbe129562	-0.14314798
168	0xbe89818c	-0.2685665
169	0x3d9cc1bc	0.076541394
170	0x3e4804cb	0.19533078
171	0x3d7f6f65	0.062362093
172	0xbd16b91d	-0.03679763
173	0x3f0a5a13	0.5404369
174	0xbec5b053	-0.38611087
175	0xbeb760e5	-0.35816112
176	0xbe15cd72	-0.14629152
177	0x3d5a0fea	0.053237833
178	0xbef4596b	-0.4772447
179	0x3c12a64a	0.008950779
180	0x3e469e32	0.19396284
181	0xbee45aeb	-0.44600615
182	0x3e055e05	0.13024147
183	0xbe4a249c	-0.19740528
184	0xbf3a3fde	-0.72753704
185	0xbe723ea1	-0.23656704
186	0xbf075182	-0.52858746
187	0xbe22fa19	-0.15915717
188	0xbf123eca	-0.5712706
189	0xbddae7be	-0.106887326
190	0x3e0743d6	0.13209471
191	0xbdd972b6	-0.106175825
192	0xbf0327e2	-0.5123273
193	0x3e535a4c	0.20639914
194	0xbe17c437	-0.14820944
195	0xbe21a1ff	-0.15784453
196	0x3db10e2b	0.086452805
197	0xbe8534f0	-0.2601695
198	0xbe82a763	-0.2551833
199	0xbe865110	-0.2623372
200	0xbe32490c	-0.17410678
201	0x3e48e73c	0.19619459
202	0xbe4325f9	-0.19057454
203	0x3e03c19c	0.12866825
204	0xbe8329e0	-0.25617886
205	0x3de2d3a2	0.11075522
206	0xbd699a42	-0.057031877
207	0xbf014627	-0.5049767
208	0xbd20890c	-0.039193198
209	0xbdfec8ad	-0.124406196
210	0xbbf47b5e	-0.0074609956
211	0x3c5700db	0.013122763
212	0x3dd9211f	0.106020205
213	0xbdb42fdb	-0.0879819
214	0xbe708fb3	-0.23492317
215	0xbe2a1ead	-0.16613264
216	0xbe83a378	-0.25710654
217	0xbfbb80c7	-1.4648675
218	0xbfac4122	-1.3457377
219	0x3f11966a	0.5687014
220	0xbcf82b0c	-0.030293964
221	0xc0829ecc	-4.0818844
222	0x3e4d224a	0.20032611
223	0x3cebfc9a	0.028806973
224	0x3e07ddb2	0.13268164
225	0x3e878889	0.26471356
226	0xbda8eda4	-0.08248451
227	0xbe604347	-0.21900664
228	0xbe47a579	-0.19496717
229	0xbe080dee	-0.13286564
230	0xbe71efa0	-0.23626566
231	0xbe063058	-0.13104379
232	0xbdc25210	-0.094883084
233	0xbe47f98b	-0.19528787
234	0xbf000173	-0.5000221
235	0xbd1eed19	-0.038800333
236	0x3d9f2155	0.077700295
237	0xbe7a90c4	-0.24469286
238	0xbdd22005	-0.102600135
239	0xbe69ccfa	-0.22832099
240	0x39ba09e4	0.00035484054
241	0xbd4ae48b	-0.04953436
242	0x3d208622	0.03919042
243	0xbebf3905	-0.3734819
244	0xbf2176c7	-0.63071865
245	0xbebbeaac	-0.36702478
246	0xbf2cd2ae	-0.6750897
247	0xbe5a3c8a	-0.21312156
248	0x3d8b4cbb	0.068017446
249	0x3d4d4f6c	0.05012457
250	0x3dc50103	0.096193336
251	0xbedce57f	-0.43143842
252	0x3d3fc2df	0.046816703
253	0x3e6e7ce3	0.23289828
254	0x3de12eb5	0.10995237
255	0x3dc17b9f	0.09447407

fc_layers.2.bias f4 [128]
0	0x3e2b78b9	0.16745271
1	0xbe309cf2	-0.1724737
2	0x3f3d4587	0.73934215
3	0xbd055687	-0.032553222
4	0x3f0d281a	0.55139315
5	0x3f973aae	1.1814783
6	0xbe0fabd9	-0.14030398
7	0xbbce4dce	-0.006295896
8	0x3e62fa86	0.2216588
9	0x3edb935d	0.42885867
10	0x3c39924f	0.011326387
11	0x3e6e1942	0.23251823
12	0x3e915bdb	0.28390393
13	0x3eba90a1	0.36438468
14	0xbe24ead3	-0.16105203
15	0xbb708c20	-0.0036704615
16	0xbe39d8ba	-0.18149081
17	0x3f5b1aab	0.8558757
18	0x3c9186fc	0.01776456
19	0x3ee8fceb	0.4550546
20	0xbd5003af	-0.050784763
21	0xbd0b4cbd	-0.03400873
22	0xbd843029	-0.06454498
23	0x3e27a398	0.16371
24	0x3f55906b	0.8342349
25	0x3ece46d1	0.40288404
26	0xbdb13aae	-0.086537704
27	0xbca6b92f	-0.020351974
28	0xbef321dc	-0.4748677
29	0xbcf75fcc	-0.030197047
30	0xbc41728a	-0.011807093
31	0xbe11a54e	-0.14223215
32	0xbccd8fc6	-0.02509297
33	0xbd07eab0	-0.0331828
34	0xbea80788	-0.32818246
35	0x3c44f0b5	0.01202028
36	0x3ee376c4	0.44426548
37	0xbd304f14	-0.043044165
38	0xbd39e37e	-0.04538297
39	0xbd849093	-0.06472888
40	0xbe12037f	-0.14259146
41	0x3f2aa78c	0.66661906
42	0xbd1f4546	-0.038884424
43	0xbe9c1a9c	-0.3048905
44	0xbdd0f8a5	-0.10203675
45	0x3d97f750	0.07420218
46	0xbdd8670d	-0.105665304
47	0xbde845eb	-0.11341461
48	0xbd19acbd	-0.03751825
49	0xbe5e9fb2	-0.21740606
50	0xbe8b11de	-0.2716207
51	0xbd82cc41	-0.063866146
52	0x3df1c56c	0.11805233
53	0x3cfa1e23	0.030531948
54	0xbd690051	-0.056885067
55	0xbc2273e7	-0.009915329
56	0xbef8c22a	-0.48585635
57	0x3e10e8e8	0.14151347
58	0xbd12f5f2	-0.035879083
59	0xbd5f1e24	-0.054472104
60	0x3f5ca522	0.8618947
61	0x3def7ae8	0.116933644
62	0xbda97e2f	-0.08276021
63	0xbd5e71e6	-0.05430784
64	0x3f847f07	1.0351266
65	0xbf1b158c	-0.6057975
66	0xbed94a9c	-0.42439735
67	0xbde2ceb5	-0.110745825
68	0xbd4bce5b	-0.049757343
69	0x3da95fc1	0.08270217
70	0xbe81ec28	-0.25375485
71	0xbdb7ff93	-0.08984294
72	0x3e8e4b48	0.2779181
73	0xbd9fdf04	-0.07806209
74	0x3ee78b26	0.4522335
75	0xbed2dcac	-0.41183984
76	0x3d592d2e	0.053021602
77	0x3e905fcc	0.28198087
78	0xbc3aa4bb	-0.011391814
79	0x3f39e270	0.7261114
80	0xbd849387	-0.06473451
81	0xbdd7cb53	-0.10536828
82	0xbd238c61	-0.039928798
83	0x3efee405	0.4978334
84	0xbe72eda1	-0.2372346
85	0x3dc62852	0.09675659
86	0xbe2bbd5b	-0.16771452
87	0xbcde7063	-0.0271532
88	0xbe02bfd4	-0.12768489
89	0x3d7a9e7f	0.06118631
90	0x3fbcf5d9	1.4762527
91	0xbf21f352	-0.632619
92	0x3bbd5e6d	0.0057790787
93	0xbd7a554f	-0.061116513
94	0xbe001d2b	-0.12511127
95	0x3dec17ea	0.11527999
96	0x3f430277	0.76175636
97	0x3f3db859	0.7410942
98	0xbc8f4e51	-0.017493399
99	0xbef1680b	-0.4714969
100	0xbdcab292	-0.09897341
101	0x3f2173e6	0.6306747
102	0xbd32d2e8	-0.043658167
103	0x3e376a92	0.17911747
104	0x3da96948	0.08272034
105	0x3e719024	0.23590142
106	0x3e9e9e4a	0.3098014
107	0x3f688226	0.9082359
108	0xbd441508	-0.04787162
109	0x3d4f443c	0.050602183
110	0xbd80b07e	-0.06283663
111	0xbef6dff4	-0.48217738
112	0xbe790be7	-0.24320947
113	0xbda4a1bf	-0.08038663
114	0xbe49f9dc	-0.1972422
115	0x3f0634f9	0.5242458
116	0xbdd71a03	-0.10503008
117	0xbf25d1ad	-0.64773065
118	0xbd8b2ee4	-0.06796053
119	0x3e00b0e5	0.1256748
120	0xbe1ced27	-0.15324841
121	0xbd7e710c	-0.06211953
122	0xbe77e9b3	-0.24210243
123	0x3e3f0b0e	0.18656561
124	0x3ed56525	0.4167873
125	0xbe04f2f9	-0.12983312
126	0x3ed0680b	0.40704378
127	0xbdd35d9e	-0.103205904

fc_layers.4.weight f4 [5, 128]
0	0xbd169c09	-0.0367699
1	0xbd5b5360	-0.05354631
2	0xbe7fbc44	-0.24974161
3	0xbc10bd33	-0.008834171
4	0xbeb33eac	-0.35008752
5	0xbebefb90	-0.37301302
6	0xbda42e2a	-0.080166176
7	0x3c8dc4a7	0.017305685
8	0xbdb69906	-0.08915906
9	0xbd018011	-0.031616274
10	0x3d08a557	0.033360805
11	0xbcebbcdb	-0.028776577
12	0xbe0a571c	-0.13509792
13	0x3d865570	0.06559265
14	0x3e4ceda7	0.20012532
15	0xbca4c950	-0.020115525
16	0x3ee51d23	0.44748792
17	0xbe502896	-0.20327982
18	0x3d130401	0.03589249
19	0xbd98ee90	-0.07467377
20	0x3d403f4e	0.046935372
21	0x3bf7cbd9	0.0075621423
22	0x3bf1280d	0.0073595108
23	0x3d959c1f	0.07305168
24	0xbe0dae16	-0.1383594
25	0xbda5dfdd	-0.08099339
26	0xba253ac0	-0.0006303005
27	0xbdbfae58	-0.09359425
28	0x3e93babe	0.2885341
29	0xbd60fb07	-0.0549269
30	0xbd1fc647	-0.03900745
31	0x3dd6c906	0.10487561
32	0x3e9ed513	0.31021938
33	0xbd482d57	-0.048871364
34	0x3e866044	0.2624532
35	0x3ec575fc	0.38566577
36	0xbe2ac1e0	-0.1667552
37	0x3c431780	0.011907458
38	0xbd81b73f	-0.063337795
39	0x3c46582f	0.012105986
40	0xbd903c29	-0.07042725
41	0xbe8d926c	-0.27650774
42	0xbe4f5829	-0.20248474
43	0xbccf9a4a	-0.025342125
44	0xbc3b65f4	-0.011437882
45	0xbd302d91	-0.043012206
46	0x3c2a642e	0.010399861
47	0x3c3f02de	0.011658398
48	0x3d823d34	0.0635933
49	0x3e536507	0.20644008
50	0x3dc5f35f	0.0966556
51	0x3d1595b5	0.036519725
52	0x3d7c10e1	0.061539534
53	0x3d748a36	0.05970212
54	0x3d0c61e9	0.034273062
55	0xbca23000	-0.019798279
56	0x3e4f45fe	0.20241544
57	0xbdcf468a	-0.10120876
58	0xbb842b85	-0.0040335082
59	0x3cbbc631	0.022921653
60	0xbdc7d800	-0.097579956
61	0xbd3c5654	-0.045980766
62	0x3cffc036	0.031219583
63	0x3cc0088c	0.023441575
64	0xbea1f581	-0.31632617
65	0x3e31dec4	0.17370135
66	0xbeaa382d	-0.33245984
67	0x3d231499	0.039814565
68	0x3da940f5	0.08264343
69	0xbd12ecb9	-0.035870288
70	0xbdbbe509	-0.09174544
71	0x3d6ac5ae	0.05731743
72	0xbbfaff4c	-0.0076598283
73	0x3ce1b652	0.027552757
74	0xbd9f3608	-0.077739775
75	0x3e6ba9ca	0.23013988
76	0x3da863da	0.0822217
77	0xbd91f688	-0.071271
78	0x3bde23af	0.006779156
79	0xbe951a09	-0.29121426
80	0xbc39af81	-0.011333347
81	0xbe26de49	-0.16295733
82	0xbc7eb933	-0.015547085
83	0xbe82aa2a	-0.2552045
84	0x3eb7b8b0	0.35883093
85	0x3d016066	0.031586073
86	0x3c7512d9	0.014958107
87	0xbd8828e1	-0.06648422
88	0x3e5729fe	0.21012112
89	0x3da8c8f9	0.082414575
90	0xbe9ab563	-0.30216512
91	0x3eb1ce59	0.34727743
92	0xbdcdf5dc	-0.100566596
93	0xbe28fb4c	-0.16502112
94	0x3d6b61d7	0.057466354
95	0xbe50ca21	-0.20389606
96	0xbe53aa20	-0.20670366
97	0xbe66e4f6	-0.22548279
98	0x3cff2120	0.031143725
99	0x3ea0c5b1	0.31400827
100	0x3d9d0975	0.076678194
101	0xbe12a985	-0.14322479
102	0x3d8201d1	0.06348003
103	0xbe6e25a5	-0.23256548
104	0xbd72d830	-0.059288204
105	0xbd99330f	-0.07480442
106	0x3e06bf7c	0.13158983
107	0xbde44a31	-0.111469634
108	0x3d7517fe	0.059837334
109	0xbdd58b92	-0.104270115
110	0xbd2a4675	-0.0415711
111	0x3efac41c	0.48977745
112	0xbd9dfbab	-0.077140175
113	0xbd863222	-0.06552531
114	0x3ed71b50	0.42013025
115	0x3d80f8be	0.06297444
116	0xbea05eac	-0.3132223
117	0x3eb65bd1	0.35616925
118	0x3e6ad922	0.22934392
119	0xbcc683de	-0.024232801
120	0x3ead6ae5	0.33870617
121	0x3caba9d5	0.020955006
122	0x3e82c3a5	0.2553989
123	0xbd119847	-0.035545614
124	0x3c5c1239	0.013432079
125	0xbceb7b30	-0.028745264
126	0xbdced635	-0.100994505
127	0xbc25f180	-0.010128379
128	0xbe09fcde	-0.13475367
129	0xbd6de3e7	-0.058078673
130	0xbe3ce55e	-0.18446872
131	0x3dbbf29b	0.09177133
132	0xbe20f55d	-0.15718599
133	0xbe17fe72	-0.14843157
134	0xbe3c2c51	-0.1837628
135	0x3d1ddb09	0.038538966
136	0xbe592029	-0.21203674
137	0xbdbd46c9	-0.09242017
138	0x3d105baa	0.035243668
139	0x3d42b14a	0.047532357
140	0x3d18fbc2	0.03734947
141	0xbdf0af20	-0.117521524
142	0x3da7d6bc	0.08195254
143	0x3d8afd0f	0.06786548
144	0x3ef007ca	0.46880943
145	0xbe8a4b0d	-0.27010384
146	0x3dd0c937	0.10194629
147	0xbd30c42a	-0.043155827
148	0x3d812f81	0.06307889
149	0xbaa01c98	-0.0012215553
150	0x3da191d9	0.07889146
151	0xbd168774	-0.036750272
152	0xbe80712e	-0.2508635
153	0xbd1bc00f	-0.03802496
154	0x3cc32102	0.02381945
155	0x3dd802ee	0.10547434
156	0x3e002673	0.12514667
157	0x3d0956c3	0.033530008
158	0x3ca9165c	0.020640545
159	0x3e8fcac6	0.2808439
160	0x3e817f2e	0.25292343
161	0x3c49824e	0.012299133
162	0x3eb586c5	0.35454383
163	0x3e1ba9ec	0.15201539
164	0xbe14d465	-0.14534147
165	0x3d8da6d6	0.06916587
166	0x3d826076	0.06366055
167	0x3d98fd22	0.07470156
168	0xbacda552	-0.0015689528
169	0xbcdd2aad	-0.026997888
170	0x3d9e686f	0.07734763
171	0x3e100e71	0.14068009
172	0x3d7ca46c	0.061680242
173	0x3c776695	0.015100141
174	0xbd97e8b4	-0.074174315
175	0x3ccf49d0	0.025303751
176	0x3d5c5822	0.053794987
177	0x3e03f2d3	0.12885599
178	0xbe016a6b	-0.12638251
179	0x3da19e75	0.078915514
180	0xbd8473e0	-0.06467414
181	0x3df009b0	0.11720598
182	0xbc37dc65	-0.01122198
183	0xbd1f7d0b	-0.03893761
184	0x3e23b33f	0.15986346
185	0xbe315029	-0.17315735
186	0x3cdc946a	0.026926238
187	0x3ce340fd	0.02774095
188	0xbe5181f5	-0.20459731
189	0xbe3dbdd4	-0.18529445
190	0xbe21d7a3	-0.15804915
191	0x3d98b552	0.07456459
192	0xbde1af1a	-0.11019726
193	0x3de02959	0.109453864
194	0xbe627a87	-0.22117053
195	0x3ca1020c	0.019654296
196	0xbad446e4	-0.0016195443
197	0xbde55f4e	-0.111998186
198	0xbe491bc5	-0.196395
199	0x3d96d246	0.07364325
200	0xbd30f5c1	-0.04320312
201	0x3d99f68f	0.075177304
202	0xbce0a257	-0.02742116
203	0x3e26a097	0.16272198
204	0x3cef48df	0.029209552
205	0x3c8393b8	0.016061649
206	0xbdaf2351	-0.08551658
207	0xbe800d70	-0.25010252
208	0x3c70ae32	0.014689969
209	0xbdbcd9d0	-0.09221232
210	0x3d25230b	0.040316623
211	0xbe4f1cd0	-0.20225835
212	0x3eae89e7	0.34089586
213	0x3dd02aad	0.1016439
214	0xbd4d6a95	-0.050150473
215	0x3ce66364	0.028123565
216	0x3d3cf8f0	0.046135843
217	0x3e89eee8	0.26940084
218	0xbe6d933e	-0.232007
219	0x3e968554	0.29398596
220	0xbe815bc6	-0.2526533
221	0xbe454582	-0.19264796
222	0x3d562027	0.052276757
223	0xbe3ea2b4	-0.18616754
224	0xbe509c2b	-0.20372073
225	0xbe93c3fe	-0.28860468
226	0xbc21d253	-0.009876805
227	0x3eaf381b	0.34222493
228	0x39df940d	0.0004264418
229	0xbe382575	-0.17983039
230	0x3bd0ed90	0.006375976
231	0xbe40b84b	-0.18820302
232	0xbccbb8b0	-0.02486834
233	0x3dfc2dd1	0.12313426
234	0x3e48347a	0.19551268
235	0xbdcbab2d	-0.099447586
236	0x3d56e92e	0.05246847
237	0xbdff855e	-0.1247661
238	0xbd655757	-0.055991497
239	0x3ef54eb5	0.4791161
240	0x3e057822	0.13034108
241	0xbcfd2f18	-0.030906245
242	0x3ec4564f	0.38347098
243	0xbd98c679	-0.07459731
244	0xbe842bf6	-0.2581479
245	0x3eb01535	0.3439118
246	0x3d57c920	0.052682042
247	0x3e249f48	0.16076386
248	0x3eb22896	0.3479659
249	0x3cccc5a7	0.024996592
250	0x3e49df1a	0.19714013
251	0xbe0db73e	-0.13839433
252	0x3e03fd75	0.12889655
253	0x3d83025c	0.063969344
254	0xbea9535e	-0.33071417
255	0x3d7c9dc5	0.0616739

fc_layers.4.bias f4 [5]
0	0xbf25853e	-0.64656436
1	0xbf2e1496	-0.6800016
2	0xbf280483	-0.65631884
3	0xbf2e5e46	-0.681126
4	0xbf39fa4a	-0.72647536
