Existing_MARL-SimpleSpreadv3/dueling_dqn_models/final_agent_0.pt (torch, 157921 bytes, 7 tensors)

shared_fc.0.weight f4 [256, 18]
00000000: 4c30 5dbe d1e8 b93d 1460 6c3d c4b4 733e
00000010: 615c eabd f8b5 5bbd ad3b 863e 521b 493e
00000020: c9dc 22bd 2a5d 203e 5d5e 07be 2284 78bd
00000030: f502 bfbd 0c8f 46bd cd17 f1bd 8e3f bd3d
00000040: 492d 40be 626f 833c 0f65 763d c22e 883d
00000050: 8f39 37bc a4a1 4a3e 40a8 793e 7913 a0be
00000060: 3088 9f3e 98ad 00bf 0df2 673e 277f b3bd
00000070: edc3 fbbe 7ce9 e63e 711f 58be 5724 013f
00000080: e0de 85bd f854 3abe 7d5f 3bbe 8444 adbc
00000090: 84fb 8cbe fe5a 24be 24ea 2f3d 1415 9a3e
000000a0: 04b5 463d 727d 2cbe 7426 2c3f 31d1 46be
000000b0: 1c2b 773c f106 893e e14f 29bc 0cd3 3a3e
000000c0: de83 133e 1621 093e d7a6 07bc ba0e 5cbb
000000d0: eff8 1ebe 4f5c a7bc 2b01 4cbe 9933 903e
000000e0: d534 1cbf a1e6 c0bd 8fab a33e 05bb 81be
000000f0: 75ea 42bd a6d5 94bc d90a 05be fdd2 c23e
00000100: 148b 0f3a a5dc fbbe e0af 8abe 73a2 a33e
00000110: 4783 0bbe 229d c0bd 1be9 c0bc 4cbd 233e
00000120: 93e8 223d 4788 0b3e 059b 7dbe 541f ddbd
00000130: d47c 293f 15f2 f33e 59b6 35be 9e76 2cbc
00000140: dcd0 903e fdcf 663d ac52 12bf ca43 bdbe
00000150: 73a4 163e 3531 48bd d916 2e3d f6e2 513e
00000160: 57db 86bd 8f57 5f3e 0a95 a2be f6bf 40be
00000170: af5f 11bf 2f5f 163f f597 d13b 0d66 3ebe
00000180: d1ba 0b3e ec35 b1be 6cfe 67bc 2af6 9bbd
00000190: bc17 46be d21c ef3e 6f0c 03be 9f52 c93e
000001a0: dbd0 28be 18d9 ac3b 2a2a edbd 30f3 513d
000001b0: afe7 223f c5f8 06be fd88 b03d b917 b3bc
000001c0: a6f2 e1bf aa8c 0c3f 6610 223d 0fe3 123d
000001d0: c277 023e 4a55 8ab9 30b1 dabd ca95 e63c
000001e0: 4d45 81bd 5072 563d 2dd4 12bd 4ede 713d
000001f0: 3d06 da3d 02d1 993d 6ec3 c93d eb90 823d
00000200: f739 393d 6539 a1be 9aff ddbd 9c7d b8be
00000210: df5c 603d 4e1e b9be 312a c23e a16c 813e
00000220: 0417 2dbc c1a0 0ebf c02c 95be dc83 213f
00000230: 97e7 1e3d 9d4e 45be 0646 5abd d26a 05bd
00000240: 22a6 bcbe 8b52 babd 5e2c 00bf b26e 5a3d
00000250: c4eb b5be a0ad f4bd 657d 5fbe 6bdc 913e
00000260: 14e7 e4bc 8faf 083e 4ff9 70be 12b8 5cbe
00000270: fb5d adbd 5b23 8bbd b828 a7bd 1947 533d
00000280: f093 30be 3c07 d2bd 896f 273d 7ee4 a7bd
00000290: b3e5 afbd 8bdb 573d dd81 853f 22c7 08bf
000002a0: 1e17 4fbc 6bf8 fc3d 09a1 4ebe ce23 db3d
000002b0: cc4e 163c 2a8d 533d fb1d 5dbf 9a59 ac3e
000002c0: 19d0 053e 3992 653e f749 733d 1869 0b3c
000002d0: 4302 8abd 5ecb 9cbd 2fcb f93d a29f 7dbe
000002e0: 20d4 a43e c1cf d6be b52d da3d 2462 2a3e
000002f0: 14ac 1a3e 1535 2abe ab34 a8bd 2955 543e
00000300: 2769 613e 54bf a8be b008 4f3e 882b 153e
00000310: 4e05 e03c 578d d3bd 0ce8 883d 9687 373e
00000320: 4776 a3be f1e1 fe3e eb0c 8d3e 1113 ce3e
00000330: 28f0 4c3e 322e bc3e ddf8 e1bc 9a5e 1cbf
00000340: dce8 1dbe 205e 9e3e 1621 8d3e c44c 85bd
00000350: f7f2 0e3e 9b08 a8bc 5ca1 3c3e e241 483e
00000360: 3275 843e e09c 4ebd 7f93 c33e 1f21 c13e
00000370: f6e5 50be dcce 55be 8ac5 febd d1ba 0abe
00000380: ee32 90be fb22 9abe 165a 9e3d f8a7 ea3e
00000390: dd29 733c 0410 443f 64ba 1dbe de8f cabd
000003a0: f8fd a6bc efe0 3b3c 0c13 b83e 7332 9cbd
000003b0: edd7 bebd c734 d63d 864e 22bf ecae fc3e
000003c0: 5160 183e 15fa 23be 6512 963e c6d1 21be
000003d0: 49e1 7b3d 5377 ddbd 8bd5 d03d a919 82bd
000003e0: 3df4 5a3c bdfb 55bd 14eb 0c3e d71f 65be
000003f0: 0c9e 403d 721d af3e bee7 98bb 85a5 8dbd
-0.21600455 0.09077609 0.057708815 0.23799425 -0.11443401 -0.053640336 0.26217404 0.19639328
-0.03976134 0.1566054 -0.1321959 -0.060672887 -0.09326736 -0.048476264 -0.11772118 0.09240638
-0.18767275 0.016044322 0.06015497 0.06649543 -0.011183157 0.19788224 0.24380589 -0.31264856
0.3115859 -0.50264883 0.22650929 -0.08764487 -0.49172917 0.4510001 -0.21105744 0.50446075
-0.06536651 -0.18196476 -0.18298145 -0.021150835 -0.2753564 -0.16050336 0.042947903 0.30094206
0.048512474 -0.16844729 0.67246175 -0.19415738 0.015085962 0.26763108 -0.010333986 0.1824457
0.14405772 0.13391528 -0.008279524 -0.0033578114 -0.15524648 -0.020429758 -0.1992232 0.28164366
-0.61018115 -0.09418989 0.31966826 -0.25337997 -0.047586877 -0.018168282 -0.1299242 0.38051596
0.00054757413 -0.49191776 -0.27087307 0.31959876 -0.13624297 -0.09404971 -0.023548653 0.1599018
0.03977258 0.13626204 -0.24766167 -0.10796991 0.662061 0.4764563 -0.17745341 -0.010526327
0.28284347 0.056350697 -0.571574 -0.3696578 0.1471117 -0.048875052 0.042502258 0.20496735
-0.065848045 0.21810745 -0.31754333 -0.18823227 -0.56786627 0.5873899 0.0063962885 -0.18593617
0.13645484 -0.34611452 -0.01415978 -0.076153114 -0.19344991 0.46701676 -0.12797712 0.39320847
-0.16485922 0.005274903 -0.11580308 0.051257312 0.6363477 -0.13180836 0.086198784 -0.021861898
-1.7652175 0.54902136 0.03956642 0.03586107 0.12740996 -0.00026384956 -0.10678327 0.028147597
-0.06312046 0.05235511 -0.035846878 0.059049897 0.10645721 0.07510568 0.098517284 0.06375297
0.045221295 -0.314891 -0.10839768 -0.36033332 0.05477607 -0.36155933 0.37922814 0.2527819
-0.010564569 -0.5571404 -0.29135704 0.63091826 0.03879508 -0.1926827 -0.053289436 -0.032572575
-0.368455 -0.09097775 -0.500677 0.053328224 -0.35531437 -0.11947179 -0.21825178 0.28488478
-0.027942218 0.1334822 -0.23532604 -0.21554592 -0.08465191 -0.06793853 -0.08162063 0.051581476
-0.17243934 -0.10255286 0.040877853 -0.08197878 -0.085887335 0.052699607 1.0430256 -0.5342885
-0.012639789 0.123520695 -0.20178618 0.107001886 0.00917406 0.051648296 -0.8637387 0.3366211
0.13067664 0.22419061 0.05939671 0.008508943 -0.06738713 -0.07655977 0.12196957 -0.24767926
0.3219309 -0.4195538 0.10653249 0.16639 0.15104705 -0.16621812 -0.082131706 0.20735611
0.22012769 -0.32958472 0.20218158 0.14567387 0.02734628 -0.10329693 0.066848844 0.17922816
-0.31926176 0.49781755 0.27548918 0.40248922 0.20013487 0.36753994 -0.027584488 -0.6108185
-0.1542086 0.30931187 0.27564305 -0.065087825 0.13959871 -0.020511916 0.18420929 0.19556382
0.25870663 -0.050442576 0.38198468 0.37720582 -0.20400223 -0.20879692 -0.12440021 -0.13547827
-0.28163856 -0.30104813 0.07732026 0.45831275 0.014841524 0.7658694 -0.15403134 -0.09890722
-0.020384774 0.011467203 0.35952032 -0.0762681 -0.09318528 0.10459285 -0.6340107 0.49352205
0.14880492 -0.16013367 0.2931091 -0.15802678 0.061494146 -0.10813775 0.1019698 -0.063525505
0.013363895 -0.05224203 0.1376155 -0.22375427 0.047025725 0.34202152 -0.0046662977 -0.06916336

shared_fc.0.bias f4 [256]
00000000: aef0 7fbf 29b8 7abf 6365 71bf 4f92 2bbf
00000010: 8047 79be 4252 7fbf 4450 7b3d 192d 21bf
00000020: 5dd3 bfbe 5119 ccbd d839 85bf 2661 3fbf
00000030: d041 8fbf ba03 a2be f609 61bf 3bbb 1cbe
00000040: 60b8 41bf c816 68bf de56 33bf 9833 3dbf
00000050: 00a6 8abc bad1 8fbf e7ef 40bf 274c 73bf
00000060: c457 61bf 1d5c cfbd 720e 7fbf 9207 06bd
00000070: f34c 0bbf 7fb8 67bf c61d 6bbf 89dc 4abf
00000080: bf6e 5abf 52a7 2fbc 3477 50bf 6311 89bf
00000090: a227 7dbf b8b6 82bf 385c 18be 78dc 8cbf
000000a0: fd56 8ebb 80aa 90bf 6b8e 74bf b2e8 adbe
000000b0: ad32 92bf 9ddc 90bf 73c8 56bf a953 6ebf
000000c0: 0df1 8abf d0e5 2fbf d78d 78bf b34b 61bf
000000d0: c6be 6bbf 48da 6abf 9900 a9be ac93 77bf
000000e0: eaa1 a7be c9f6 78bf 30b7 47be f9b2 92bf
000000f0: 1503 64bf 8276 1ebf e014 60bf 5147 6ebf
00000100: b7c2 e1be f955 c0be 2bd1 67bf 5988 6fbf
00000110: 302f 89bf 82c4 3cbe 4eee 90bf 811c 39bf
00000120: 829f a4be 15c5 55bf 1e64 30be 9dfc 07be
00000130: 321b 5ebf 575a 54bf e1bc 9ebf 7712 94bf
00000140: ecf1 7bbf 1182 6dbf b701 92bf 4065 8abf
00000150: db01 93bf 69f8 76be 014d 673e 4779 62bf
00000160: 814e 82bf 20a0 7fbf 8685 6fbf c5e7 87bf
00000170: 0718 8bbf 1f37 4dbe ff08 8fbf 6e2b a2bf
00000180: 0479 91bf d52e 63bf 7a65 e63b 82ba 5bbf
00000190: 00b5 85bf 36bb 57bf eb3c 3fbf 02a6 57bf
000001a0: 6f53 6dbf 2502 8fbf ab6f 89bf 92a2 7cbf
000001b0: 9d5d 71bf aea8 8dbf 00ca 0abf 7829 9dbf
000001c0: 1139 95bf 604f 70bf 19e9 7ebf e663 13be
000001d0: bfde 82bf be6a 27bf ef7c 64bf 7547 c0bd
000001e0: 2c4d 6cbd 5fd8 5dbf 159f 65bf 362d 8bbf
000001f0: ac05 61bf 6f44 79bd 695a 45bf 7388 51bf
00000200: 06cd aabf 06d2 b0bc e472 47bf dd57 59bf
00000210: 3783 86bf a79c 88bf ce7c 83bf dadc 9e3c
00000220: 6416 59bf 89a4 54bf 7036 86bf b081 8cbf
00000230: 2ca1 79bf 3493 2abf fe6e 33bf b7c6 90bf
00000240: 8c4a febd 72b6 4abf 5d70 a9bf bcb6 64bf
00000250: 2b79 06bf c3b8 2cbf 442f 6fbf de12 78bf
00000260: 9437 81bf ab68 54bf e3d3 c3bd f23a 0dbe
00000270: 7aa4 89bf cba5 9dbf 3e24 93bd 6923 62bf
00000280: 9404 80bf e546 6dbf d806 8ebf 47ce 78bf
00000290: d59f 73bf 177e 80bf c9e2 49bf 9170 78bf
000002a0: e82b 6cbf 335a 9dbf d233 d1bd 0f2c 71bf
000002b0: fa44 88be c568 79bf b83f 6abf 922f 2bbc
000002c0: 705a 58bc bacc 6dbf a4fb 3fbf 3b45 80bf
000002d0: 3e1f 96bf 3147 82bf 5b5c a9bf a70b 85bf
000002e0: 8e54 82bf e558 27bf 9910 60bf ff92 57be
000002f0: b1d1 21bf 25c0 c2bd ebfe 72bf 2195 65bf
00000300: d216 5bbf 4aca 84bf 6cc1 57bf 254d 6bbf
00000310: 2603 52bf da0b 6ebf e0c0 97bf 559b 8ebe
00000320: 139b 63bf bcbe 04be ec95 83bf 847b 82be
00000330: 6feb 81bf c930 39be 2c8c 8cbe d8dd 94bf
00000340: 2ac5 68bf eaed 6bbf 6921 a9bf 7939 8abf
00000350: 03be 60bf 97f1 5abf 3339 45bf 4794 8bbf
00000360: ffab 33bf c674 6cbf 34e9 4dbe b5ba 80bf
00000370: 7dea 97bf e0aa 9bbf 87ec 443d 1d7b 5abf
00000380: d211 ecbd b2cd 3fbf 169f 80bf 09d6 61bf
00000390: f925 75bf 4a00 41bf 42a6 60bf 46e1 92bd
000003a0: 12d1 87bf ac41 62bf bc81 b3be 8790 f8be
000003b0: 35f9 0cbf e913 96bf 493c 48bf 1342 58bf
000003c0: a654 89bf 4c30 01bf 70f9 5abf fd66 40bf
000003d0: 5be0 c0bd 36d7 7ebf 5c73 80bf 1fcd 94bf
000003e0: cccc 51bf 34f1 79bf 62db a4bf 6c7a 17bf
000003f0: 55b9 b2bf 94fc 2bbf 40d3 6dbf a341 78bf
-0.99976623 -0.97937256 -0.9429533 -0.67020124 -0.24343681 -0.9973489 0.061355844 -0.6295944
-0.37465945 -0.09965766 -1.0408278 -0.7475761 -1.1191959 -0.31643468 -0.87905824 -0.15305798
-0.7567196 -0.9065976 -0.70054424 -0.7390685 -0.016924858 -1.1235878 -0.7536606 -0.95038074
-0.88024545 -0.10124991 -0.99631417 -0.032722063 -0.5441429 -0.90515894 -0.91842306 -0.7924276
-0.85325235 -0.010721045 -0.8143189 -1.0708431 -0.988886 -1.0212011 -0.14878929 -1.1004782
-0.004343866 -1.1302032 -0.9552981 -0.33966595 -1.1421715 -1.1317326 -0.8389961 -0.93096405
-1.0854813 -0.6871004 -0.9709143 -0.8800613 -0.9208797 -0.9173932 -0.33008268 -0.96709704
-0.32740718 -0.97251564 -0.19503474 -1.1460868 -0.890672 -0.6189958 -0.8753185 -0.9307757
-0.44093868 -0.37565592 -0.9055354 -0.93567425 -1.0717525 -0.18434337 -1.1322725 -0.7230912
-0.32152945 -0.8350385 -0.17225692 -0.13279958 -0.86760247 -0.8295035 -1.2401391 -1.1568135
-0.9841602 -0.9277659 -1.1406773 -1.0812149 -1.1484941 -0.24118198 0.22587968 -0.88466305
-1.0180207 -0.99853706 -0.93563116 -1.0617605 -1.0866708 -0.20040558 -1.117462 -1.2669504
-1.1365056 -0.88743335 0.00703114 -0.85831463 -1.0445862 -0.84270036 -0.7470233 -0.8423768
-0.92705435 -1.117253 -1.0737203 -0.9868556 -0.9428347 -1.1067102 -0.5421448 -1.227828
-1.165804 -0.93871117 -0.9957443 -0.14393577 -1.0224227 -0.6539725 -0.89253134 -0.09388629
-0.057690784 -0.8665828 -0.89695865 -1.0873172 -0.8789928 -0.06085628 -0.7709108 -0.8184883
-1.3343818 -0.021584522 -0.77909684 -0.84899694 -1.0508794 -1.0672807 -1.0272462 0.01939242
-0.8479979 -0.8306356 -1.0485363 -1.0977077 -0.97511554 -0.66630864 -0.70091236 -1.1310643
-0.124165624 -0.7918464 -1.3237416 -0.8934133 -0.5252864 -0.67469424 -0.93431497 -0.9690379
-1.0095086 -0.8297221 -0.095618986 -0.13792017 -1.0753319 -1.2316221 -0.07184647 -0.8833528
-1.0001397 -0.926863 -1.1095839 -0.97189754 -0.9516576 -1.003848 -0.7886167 -0.9704676
-0.92254496 -1.2293152 -0.10214962 -0.94207853 -0.26615125 -0.9742549 -0.9150348 -0.010448353
-0.013205156 -0.9289051 -0.7499335 -1.0021127 -1.1728284 -1.0177976 -1.323131 -1.0394181
-1.0182054 -0.6537002 -0.87525326 -0.21052168 -0.6321059 -0.09509305 -0.94920224 -0.8968068
-0.85581696 -1.0374234 -0.84279513 -0.9191459 -0.82036054 -0.92986834 -1.1855736 -0.27852884
-0.889085 -0.12963384 -1.0280128 -0.2548486 -1.0149974 -0.18085016 -0.27450693 -1.1630201
-0.9092585 -0.92159903 -1.3213321 -1.0798789 -0.87789935 -0.85524887 -0.77040404 -1.0904626
-0.7018432 -0.9236568 -0.20108491 -1.0056978 -1.1868435 -1.2161522 0.048077133 -0.85344106
-0.115268365 -0.7492324 -1.0048549 -0.88217217 -0.95761067 -0.75391066 -0.8775369 -0.07171874
-1.0610678 -0.8838146 -0.35059917 -0.48547766 -0.5506776 -1.1724826 -0.7821699 -0.8447582
-1.0728958 -0.5046432 -0.8553686 -0.7515715 -0.094177924 -0.99547136 -1.0035205 -1.1625098
-0.8195312 -0.9763367 -1.287945 -0.59171176 -1.3962809 -0.6718228 -0.92900467 -0.96975154

shared_fc.2.weight f4 [128, 256]
00000000: 1162 24be b22b 733e ee79 923d c530 85bd
00000010: 9365 14bd 213d 003b 472c 16bd a407 34be
00000020: bbba 0bbf 0023 cfbc 350d 91be 118c 923d
00000030: 7bc6 1b3e dc39 ea3c 1184 8abd c224 f53c
00000040: e223 e8bd 29e2 f9bd 67ee 58bd 4c5f 1ebd
00000050: 89aa f13d bd12 303e 0c65 06be 217b 2a3e
00000060: dd12 3b3e 7f58 d0bd ac7f 96be 03c3 01bf
00000070: 6f3a 6bbd 759d 4c3e 450b 02be b45f 94be
00000080: 91cf dcbe 4845 b5be 34c0 41be 827d 23be
00000090: bc22 60bd f287 9a3e b084 55be adc5 143d
000000a0: d6eb 30bf fb99 27bf 3918 fa3d 1f44 413e
000000b0: c702 123e 6978 9ebe eb4d 8f3d 92ca 42be
000000c0: fccd 693d 439a 3b3b c600 f13e 224a 2d3d
000000d0: 734b ea3d bab7 a33c 69c6 cd3d fa94 893e
000000e0: fe50 20be dfb5 c1be aff6 57bd c258 c93d
000000f0: 4707 a6be 9b1a e73d 8210 14bf d740 10be
00000100: 13aa ef3d 6e7c 42be 382c 273e 7c13 d93c
00000110: f1b2 d83d 1f26 d6bd d1b1 27bd 5e31 193f
00000120: a17a 94be 1b36 41be f524 14be 203f b83e
00000130: 38c8 6abe 6033 303e c5fa ba3e 2a7e 393e
00000140: 7242 42bd 2738 173e 237d bcbd 9f41 fdbd
00000150: c2b9 503e 2f37 35be a42a 5cbe 4f23 1fbe
00000160: 619f 9a3e 9ca9 993d a062 aabd 8b2a ebbd
00000170: 72f2 59bd 5f07 e03d e337 10be 1571 563e
00000180: 8e1e f2be 010a e6be 4b1e 913d fb51 b83d
00000190: 0875 373a 03c9 a0be 9adf 503e dd6c a3be
000001a0: 8139 503e 8862 aebe 1f32 d23d 78f5 b23c
000001b0: 73d3 47bd a946 a5bd e7b4 dc3d 0aed 37be
000001c0: a492 f73e f324 243e ffda 65bd d9b0 1fbc
000001d0: e919 393e b2a2 22be 9066 a7be 6dda aebd
000001e0: 6309 36be bb5a 453e 5742 bc3d ee0a 6a3e
000001f0: 639f 6a3d 5bbc 11bf 2b68 e1bd 0530 b9be
00000200: e2b2 133e 4497 b5bd a7e9 07be 7337 76bd
00000210: d820 a23b 247a 68be dca0 c23b ae7e 0e3e
00000220: 5cff 1ebe 5588 ac3e c0a1 91bc 69a6 a53e
00000230: 6095 c1bd b500 52be 11a6 8bbe 13af a5bc
00000240: 555e 8dbe ea61 fdbe 1f6c dc3e 53f3 07be
00000250: 7d48 3fbe 8c9b 09bd 31f7 ca3d a967 23be
00000260: 3159 343e bc9e 09be 8616 82bf f700 17be
00000270: cfe6 dabe 1078 ac3e 68ff 8b3d 0b6c dd3c
00000280: aea9 e1be 81cb 5e3e 5d46 0d3e ea0f b7bd
00000290: a759 a4be 9105 563d 0e3b c03d 43ee 35bd
000002a0: 4623 ddbe 4b50 b4bc 4149 2bbe c014 e8be
000002b0: 16b8 2bbf ec96 2f3d 3b68 cebd 95a1 05bf
000002c0: a5cf 793e f918 70be 24f1 4abd acdf a13d
000002d0: 703d 43be 6279 623d 494f 0ebe 3409 903d
000002e0: 5786 9fbb 7c0d fdbe 9eb9 48bd 7d79 643c
000002f0: 858d 43bc b557 d5be 5bed 8c3e f026 f5bd
00000300: de15 2dbd dbe7 553e 2ba1 4d3d 43f9 dfbd
00000310: ba28 eebd e67d 2a3e 602b dc3d 72b9 963e
00000320: 6f62 febe b5c2 15bd 7fd1 273d 06bc 9b3d
00000330: 63cc 443e cda9 7abe cab9 b43d 90ac bcbd
00000340: 15c8 c13c b19d d23c 8fd5 533e 7a30 ed3e
00000350: a96e 8b3c 4c1a 7dbd d718 46be 49d3 87be
00000360: 1f12 85be 7cb9 b5bd 2a6d 3b3e a407 64be
00000370: a6ec 61be 8b78 0f3d c1fd c0be 3947 203e
00000380: e4ee 76bf 159e 94be 6277 04be 81da 9a3c
00000390: 0299 db3d c936 a03e e221 ec3d ba34 f3be
000003a0: 5c75 64bd 9a78 953e ed71 0cbf d85d b2be
000003b0: 57a4 0dbe 6122 1cbf e97f 973e bf97 89be
000003c0: a3bc 943d 6479 813d 6139 ffbb 321e d53d
000003d0: 90dd 8dbe 34e6 e7be 2441 503e 8839 f73d
000003e0: cf64 10bd 4a1c 353e 3cf5 5e3e 69fc a63b
000003f0: c180 ccbd 3d70 3bbd 0e98 0b3e 7249 c33d
-0.16053034 0.23747137 0.071521625 -0.06503443 -0.03622968 0.0019567686 -0.03666332 -0.1758104
-0.54581803 -0.025285244 -0.2833039 0.07155622 0.15212433 0.028592043 -0.06763471 0.029924754
-0.11334969 -0.1220134 -0.052961733 -0.0386651 0.11800105 0.17194648 -0.13124484 0.16648532
0.18268915 -0.10173129 -0.2939428 -0.5068819 -0.057428773 0.1998194 -0.12699611 -0.28979266
-0.4312711 -0.3540442 -0.18920976 -0.15965846 -0.054720625 0.30181843 -0.20851398 0.03632133
-0.6910986 -0.6546933 0.12211651 0.18873642 0.14258872 -0.3095124 0.069972835 -0.19022587
0.057081208 0.0028625883 0.47070903 0.042307027 0.11440172 0.019985069 0.10047609 0.26871473
-0.15655896 -0.3783407 -0.05272549 0.09831382 -0.32427427 0.112843715 -0.5783769 -0.14087234
0.11702361 -0.18992779 0.16325462 0.026498549 0.10581005 -0.1045649 -0.040941063 0.59840953
-0.28999808 -0.18868296 -0.14467223 0.3598566 -0.2292794 0.17207098 0.36519447 0.18114534
-0.04742665 0.14767514 -0.092035554 -0.12366032 0.20383361 -0.17696832 -0.21500641 -0.15540813
0.3019972 0.075030535 -0.083195925 -0.11482724 -0.05320973 0.10938906 -0.14083819 0.20941575
-0.47288936 -0.44929507 0.07085856 0.090000115 0.0006998335 -0.3140336 0.20397797 -0.31918994
0.20334436 -0.34059548 0.10263466 0.021845564 -0.048785638 -0.08070118 0.10776692 -0.17961517
0.48354065 0.1602972 -0.056117054 -0.009746754 0.1807629 -0.15882376 -0.32695436 -0.08537755
-0.17777018 0.19272892 0.09192341 0.22855732 0.05728091 -0.5692803 -0.110061966 -0.36169448
0.14423707 -0.08866742 -0.13272725 -0.060111474 0.004947763 -0.22702843 0.005939586 0.13915512
-0.155271 0.33697763 -0.017777324 0.32353523 -0.09452319 -0.20508082 -0.27275136 -0.020225083
-0.27611032 -0.49488765 0.4305124 -0.13276415 -0.18679996 -0.033595607 0.09910429 -0.15957512
0.17612149 -0.13439459 -1.0163124 -0.14746462 -0.42754218 0.3368535 0.06835824 0.027029058
-0.44074768 0.21757318 0.13796373 -0.08938582 -0.3209965 0.052251402 0.09386264 -0.044416677
-0.43190974 -0.022010943 -0.16727163 -0.4532833 -0.6707777 0.04286854 -0.10078474 -0.5219968
0.24395616 -0.23447026 -0.049546376 0.0790399 -0.19066405 0.05529154 -0.13897432 0.07033005
-0.0048683095 -0.4942435 -0.049005143 0.013944981 -0.011935596 -0.41668478 0.27524838 -0.11970317
-0.042257182 0.20889227 0.05020253 -0.10936215 -0.11628862 0.16649589 0.107504606 0.2943836
-0.49684474 -0.03656264 0.040971275 0.07604222 0.19218592 -0.24478836 0.08824499 -0.09212601
0.023654977 0.025709959 0.20686935 0.46326047 0.01702054 -0.061792657 -0.19345413 -0.26528385
-0.25990388 -0.08873269 0.18303362 -0.2226854 -0.2206293 0.035027068 -0.376936 0.1565217
-0.9645827 -0.29026857 -0.12936166 0.018903019 0.10722543 0.31291798 0.115299 -0.47501165
-0.055775985 0.29193574 -0.54861337 -0.34837222 -0.13832222 -0.6098996 0.29589775 -0.26873586
0.07262542 0.063219815 -0.0077888225 0.1040615 -0.277081 -0.4529282 0.20337349 0.1207152
-0.03525239 0.17686573 0.21773237 0.0050960076 -0.09985495 -0.045761336 0.13632223 0.09535493

shared_fc.2.bias f4 [128]
00000000: 1f00 eebd 8f97 bdbd 05e5 513e 9626 c63e
00000010: 290e 0f3f 90dd a5bd 1083 433f 958e 0abf
00000020: 2ba1 403f b416 f7bd c4f2 00be dde2 efbd
00000030: e1af 40bd eac2 45bf 501a 25bd bf3d 8dbe
00000040: 67d6 11bf ff75 81bd cb33 51bd 293e 823c
00000050: 5ac0 10bd 8214 83be eaba 31be ae92 d4bd
00000060: 1572 ccbd 03f5 9bbe f9c0 02be d876 aebd
00000070: b0a3 db3e 1a4a 5cbd 65e5 883e bdb8 45be
00000080: 7776 31be 51c2 3f3d 7df6 43be 96c4 dcbd
00000090: 4d6f 01bc 0e93 083f cfd5 9dbd 93ce 0bbf
000000a0: be7d 58bd 15d2 f63e e4ea 313e 9e13 f7bc
000000b0: 46c1 ae3e 482d dfbd 6675 15bf 1723 07be
000000c0: c2b9 2dbe 9db7 71be bbcc a6bd ecb0 7bbd
000000d0: df18 b93f ed41 b0bd 7af8 643f df2b f0bc
000000e0: aab5 57bc 16e0 54be 553a 863a f812 22be
000000f0: ed74 52be 5e44 88be 117e 3a3f 82bc c2bc
00000100: 6740 01be 7e56 993f 61e9 55bd 0fb4 d9bd
00000110: 5fe1 c2bd 888d 90be 5400 1a3d 72b7 563f
00000120: 1446 f0be f1c4 83bd 07d5 a1bd e411 90bd
00000130: 4fd9 ae3d c9fc efbe e08d 6ebe 6db1 c6bd
00000140: 1abf febe 7a1a 873f c2f0 f5bc b013 7b3f
00000150: 2a22 cebd 71f4 08bf bbc7 2fbe 988b 3fbd
00000160: f07c 02bf f910 8e3f 5607 2bbf ed4b 303e
00000170: 4310 e7bd 4635 cdbd 981e 683f 66c3 0dbf
00000180: 7d1c f6bc 1f2a 42bd b0d4 bbbe afb2 d6bd
00000190: 6008 bfbe a92c 89bd 70ee 49be bfa8 ea3e
000001a0: 8094 aabe cd50 32be aa68 ccbb 2f77 de3e
000001b0: 009d e1be a399 b6be 9961 4fbc a598 4cbe
000001c0: 97a9 47bb 8295 adbe 342c d9bd 9fec 3fbd
000001d0: 2b61 133f 65b0 02be 67c5 adbd d20a 47be
000001e0: 897e a4be a23c b1bd abf2 4bbc 8322 92bd
000001f0: 0ead c83e c2b5 1cbe 5855 f5be 285f 4ebe
-0.11621117 -0.09257423 0.2049752 0.38701314 0.5588098 -0.080989 0.7637186 -0.5412381
0.7524592 -0.12064877 -0.12592608 -0.117131926 -0.04704273 -0.7725054 -0.040308297 -0.2758617
-0.56967777 -0.06321334 -0.051074784 0.01589878 -0.03533969 -0.25601584 -0.17356458 -0.103795394
-0.09982697 -0.30460367 -0.12768926 -0.085187614 0.4289832 -0.053781606 0.26737514 -0.19308753
-0.17330347 0.046816174 -0.19136997 -0.10779683 -0.007900071 0.5334939 -0.077067964 -0.5461208
-0.052854292 0.48207155 0.1737476 -0.030160721 0.3413183 -0.108973086 -0.5838226 -0.1319698
-0.16965392 -0.23605199 -0.08144518 -0.061448023 1.4460715 -0.08606324 0.89441645 -0.029317794
-0.013165871 -0.20788607 0.0010240773 -0.15827549 -0.20552416 -0.2661466 0.7284861 -0.023771528
-0.12622224 1.197952 -0.05222452 -0.106300466 -0.095156424 -0.2823298 0.03759797 0.83873665
-0.46928465 -0.06434048 -0.0790196 -0.07034662 0.08537542 -0.46872547 -0.23296309 -0.0970181
-0.49755174 1.0554955 -0.030022029 0.98076916 -0.1006511 -0.5349799 -0.17166035 -0.046763986
-0.5097189 1.109893 -0.6680807 0.17216463 -0.112823986 -0.10019927 0.9067168 -0.5537628
-0.030042881 -0.04740345 -0.36685705 -0.104833 -0.37311077 -0.066979714 -0.19719863 0.45831868
-0.33316422 -0.17413636 -0.006238063 0.43450305 -0.44065094 -0.3566409 -0.012657546 -0.19980104
-0.0030466074 -0.33903128 -0.10604134 -0.04685652 0.5757014 -0.12762602 -0.08484917 -0.19437721
-0.3212779 -0.08654143 -0.012447993 -0.07135489 0.3919453 -0.1530371 -0.47916675 -0.20153487

value_stream.weight f4 [1, 128]
00000000: f59c 973d 7e69 743d d948 543e d71b 99be
00000010: e5f1 abbe a59e 8cbd 5aa6 8bbe 8a23 073f
00000020: bc40 9cbe d634 58be 9609 a13d f459 86be
00000030: 6ae0 003d f0d8 6b3e df7f 953e fc63 cd3d
00000040: cc91 c73e 9986 4f3c 3f3e 6bbd 3e1c 583d
00000050: fb51 363d c8c9 533e 6112 96be bda2 d53c
00000060: 5e69 15bc 0ee6 f93e da58 5bbc bd67 093e
00000070: 1d6e 92be e8fc f1be f046 0ebe 8ea0 8fbe
00000080: 3cee 393e d9e3 c93e b0cc f13d cb13 8dbc
00000090: 761b 783d cead 70be a680 46bd 7f39 dc3e
000000a0: 3df5 aabb 458e 5e3b 0df4 523e 9418 69be
000000b0: 2580 383e f01b 353c 071b ed3e bb9e 273e
000000c0: 9b78 453e 9a72 90bd a463 20be eba1 893d
000000d0: ae50 0ebf 83e3 89bc 7695 a5be eee3 25bc
000000e0: f6f0 c2be 7ff4 853e 191a 3f3d 71d1 053e
000000f0: 3d7b 313e 3a11 a93e cd3a 9dbd 51de ca3c
00000100: ba91 a93e dba7 b2be b7eb adbd 7aa7 e7bc
00000110: 5208 be3c 9814 dfbe fee1 9a3e 2ef4 85bd
00000120: ed6e e43e 446c 883c 744d 313d 42ea 1e3c
00000130: 5041 86bd f599 493e 3a26 a83b 2406 dabd
00000140: ae53 233e d323 cdbe 2ada 2e3d 1888 edbe
00000150: bf0f 183e 3e6f c93e 35fa 9a3e 0f5d 19bc
00000160: 1da2 9c3e e644 9abe 9748 ec3e 6110 13bd
00000170: 6c20 75bc 339e 6b3d 113f dabe 36a4 9b3e
00000180: 0bd8 0d3b 344e f03c 906e a13e bb0d 7abd
00000190: fdb4 9f3e cb27 4b3d da19 b6bd c022 acbe
000001a0: a65b 433e 5818 0abe f284 36be 2f31 e0bd
000001b0: 0445 e53e 02ce a0be 7c7e 3f3d b789 57bd
000001c0: d08e 58be 50dc 84be 765e aebd a008 943c
000001d0: fd27 79be 38c7 1f3d fec1 9f3c 82e4 ce3d
000001e0: 81fa b93d d11b 073d 4cee ee3c ced3 a33d
000001f0: cc99 91be 5b8f 0fbc 32b8 0b3f 6e53 fcbd
0.07402984 0.059670918 0.20730914 -0.29904053 -0.33582988 -0.068661965 -0.27275354 0.52788603
-0.30518138 -0.21113905 0.078631565 -0.26240504 0.031464018 0.23031974 0.2919912 0.10028836
0.38978422 0.012666368 -0.05743241 0.05276131 0.044511776 0.20682442 -0.29310897 0.026078576
-0.00911936 0.4880833 -0.013387883 0.1341848 -0.28599635 -0.47263265 -0.13894248 -0.2805218
0.18157285 0.39431646 0.11806619 -0.017221352 0.060573064 -0.23503801 -0.048462532 0.43012616
-0.005217223 0.003395931 0.2060091 -0.22763282 0.18017633 0.011054024 0.46309683 0.16369145
0.19284289 -0.070531085 -0.1566301 0.067203365 -0.5559186 -0.016832119 -0.32340592 -0.010125143
-0.38074464 0.26163098 0.046655748 0.13068177 0.17332168 0.33020955 -0.07677231 0.024764212
0.33118993 -0.3489369 -0.08492225 -0.028278101 0.023197327 -0.435704 0.30250543 -0.06540714
0.4461588 0.016653188 0.043286756 0.009699406 -0.06555426 0.19687636 0.00513151 -0.106457025
0.1594989 -0.40066394 0.042688526 -0.46392894 0.14849757 0.39342684 0.30269018 -0.009360566
0.30592433 -0.3013069 0.46149132 -0.035904292 -0.014961343 0.057523917 -0.4262624 0.3039872
0.0021643664 0.029334165 0.31529665 -0.06104825 0.3119277 0.049598496 -0.088916495 -0.33620262
0.1907793 -0.13485849 -0.17824152 -0.10946881 0.44779217 -0.3140717 0.046751484 -0.05262157
-0.21148229 -0.25949335 -0.08514111 0.018070519 -0.2433166 0.03900835 0.019501682 0.10102178
0.09080983 0.032985512 0.029166363 0.07999383 -0.2843765 -0.008762206 0.54577935 -0.123206005

advantage_stream.weight f4 [5, 128]
00000000: 50da 1ebe a592 e93c 6597 21be 703e f63d
00000010: 50c2 23bc fb15 4a3c cab2 b03d 36a2 613e
00000020: 8034 843e f31a 52ba caa3 e4bc 8e24 913d
00000030: 5e8a 513d 8663 463d 985e e1be 1a40 ee3d
00000040: 638f e6bc 1ace 9e3d b175 5e3a a644 e23d
00000050: 85f5 0d3e 65b9 323d a290 593e f483 143d
00000060: 98b2 39bd bbc9 d63d 99ee e3bd 5275 0c3d
00000070: 25b3 733c 2bdb a03e 4c25 4e3e 0dcb babc
00000080: 9d0c 4dbe 6f06 aa3d e006 63bd b2f1 3f3d
00000090: 0d8c 25bd 06cf df3d 4017 ba3d 42c5 803e
000000a0: 9aad 1bbb 6ead 7ebd 57a3 ce3d f668 403e
000000b0: 1612 d7bd 3b64 923c 73ef 773d c1c0 a4bd
000000c0: 6f8a ce3d 42ca bebc d62e a03e ae09 8f3d
000000d0: 31f1 eabd 7fba a2bc 41f1 13be 13b2 b73c
000000e0: 413a 9e3d 5614 263d 5066 c73d d3f2 9ebd
000000f0: d0b4 8dbe 5ae2 23be d9f7 ea3c 1c4b f03c
00000100: f347 7abd 1fd0 953d 7b31 84bc aec1 36bd
00000110: 2182 983d bd6c 9e3e c558 d73d 4a16 78bd
00000120: 0c47 8b3d 520f 77bd 11cd 453b 0f07 963d
00000130: 5184 22be 5e20 a43e 3831 4bbb c832 46be
00000140: 8ace c73d 53ce 1f3e 4930 ab3c 7f04 2c3e
00000150: 3117 46bd 04e1 8d3e f401 b8ba 5560 a73b
00000160: 7aad 223e 246a 223e 2c27 193d c32b b9bd
00000170: 2597 d7bc 4753 edbd 8db1 393e 89ee 543e
00000180: 3c47 0e3e aedb 35bd 352a 693e c1f1 083e
00000190: 65ca 013e d37d 983d 5e81 23bc d744 d9bc
000001a0: ce50 9e3e 7390 913e 9c00 6c3d f686 263e
000001b0: cf1b 6d3d 9f2e 9cbd a0cf 173c 2ec6 9bbc
000001c0: 9841 8a3d da4f bc3d 5125 163e 9133 dbbd
000001d0: 0a39 3c3e 6ac0 953c 6264 34bd cd14 053d
000001e0: 88b5 013e e3b5 edbc ced3 033c cb06 a33c
000001f0: 0c95 c93d a00f bcbd 3aa4 4f3d ac53 2aba
00000200: 8fbc 22be 1061 e9bd 5d43 adbc 327d 2b3e
00000210: b913 a53b 2454 933d 1930 303e 481b 133e
00000220: b5b8 a5bd ae35 d13c 6405 4dbd 595e 453d
00000230: 1a3e 40bd bc14 d63d 1335 0c3e 1891 273e
00000240: 5d64 fc3d 8a40 973d 3b41 5e3d 1727 a53d
00000250: cab1 45be 6836 483e 56e2 fa3c 0000 4f3e
00000260: 4f73 733d 5952 043e f80f 7c3e 3a1d c6bd
00000270: 8f7a e03d 87d1 6a3e 0c65 8bbd 6dfa 2b3e
00000280: 896e b83d 0d70 a13d 3382 c93d 57d0 bd3b
00000290: deff 08be b1ce ad3d bfd2 ef3c d87c 823e
000002a0: 90db b03d 531e 823e 65a7 cd3d 3d23 d83e
000002b0: c0c4 8ebd 0679 933d a9a4 2bbd cbd3 443d
000002c0: b459 80be ad9c 203e 0958 44bc 3425 aa3d
000002d0: 6a9f cb3d e87e 323c 4ed8 1e3d f57e 613d
000002e0: 20b3 c23d d1db 203e ddfe 2bbd b088 f3bc
000002f0: 2f23 46bd 3b9a ad3e ed7d ec3d 8869 51bd
00000300: 6ba3 ed3d 99f7 dabc 5247 803d a08a 3dbc
00000310: 71fa 403c 02a1 d93d b4d6 a33d 6bcc f2bc
00000320: 4069 3a3e 57e6 6b3d faeb 80bd c463 ef3c
00000330: aee3 3ebe 4671 983e ba6e 1b3e eb7a 51bd
00000340: ab7c 053e 0529 40bd 3b3a 2f3d 236d 733d
00000350: d069 1abc 0e40 513e ffcf 733e 9248 103d
00000360: 799f 973e 3868 6e3e 15ba 6fbc be04 b13d
00000370: 54f5 b33c 0c85 27b8 7c0d 2abe 40d8 be3d
00000380: 4c81 763d b7ee 783d bbd8 073e f2b8 033e
00000390: 5f0e 403e 39b9 71bd 2f8b 12be 680d b3bd
000003a0: 4b22 173e 1d4c f63d ebc4 3a3d 64ef ffbc
000003b0: 5577 8d3d 104d 163e 41ac 2fbc 2dc2 553c
000003c0: e057 193e e661 2f3e 634f 283d 7692 fdbc
000003d0: 97d8 fbbd 7fcc 593d 68f8 993c 6150 0e3e
000003e0: 66f3 b13d d438 ee3b dd57 fe3d 12bb 62bd
000003f0: bd76 493c f11c 3f3d 889b c6bc 48f9 d5bc
-0.15512967 0.028512308 -0.15780409 0.12023628 -0.009995058 0.012334342 0.08627851 0.22034535
0.25821304 -0.000801488 -0.027910132 0.070870504 0.051157348 0.048434757 -0.44017482 0.1163332
-0.028144544 0.077541545 0.00084861653 0.1104825 0.1386319 0.043633837 0.2124658 0.036258653
-0.045336336 0.10487696 -0.11129493 0.034291573 0.014874254 0.31417212 0.20131415 -0.0228019
-0.20024343 0.08302008 -0.05542648 0.046861358 -0.040416766 0.109281585 0.09086466 0.25150496
-0.0023754598 -0.062177114 0.10089748 0.1879004 -0.105014965 0.01787006 0.06053109 -0.080445774
0.10084998 -0.023289803 0.31285733 0.06984268 -0.11471785 -0.019864319 -0.144475 0.02242378
0.07725955 0.040546738 0.097363114 -0.07761159 -0.2767701 -0.16004315 0.028682636 0.02933269
-0.061103772 0.073150866 -0.016136875 -0.0446183 0.07446695 0.30942336 0.10514978 -0.06056813
0.068006605 -0.060317345 0.0030182044 0.07325565 -0.15870787 0.32055944 -0.0031004678 -0.19355309
0.09756191 0.1560605 0.020897048 0.1679859 -0.04836196 0.27710736 -0.0014038668 0.005107919
0.15886489 0.15860802 0.037390873 -0.0904155 -0.026317189 -0.115881495 0.18134136 0.20794119
0.13894361 -0.044398956 0.22770007 0.13373472 0.12674864 0.07445874 -0.009979574 -0.026522083
0.30921024 0.28430519 0.05761777 0.16262421 0.05788785 -0.0762608 0.00926581 -0.019015398
0.06750792 0.09194918 0.14662673 -0.10703195 0.18381134 0.018280227 -0.044041045 0.03249054
0.12666905 -0.029017394 0.008046104 0.0199007 0.098428816 -0.09182668 0.050693728 -0.00064974534
-0.15892242 -0.11395466 -0.021150285 0.16746977 0.0050377515 0.07193783 0.17205848 0.14365876
-0.08091871 0.025538292 -0.05005397 0.04818568 -0.046934225 0.104531735 0.13692121 0.16363943
0.1232383 0.07385357 0.054261427 0.080640964 -0.19306102 0.19552004 0.030625504 0.20214844
0.05943614 0.12922038 0.24615467 -0.09673543 0.10960876 0.22931491 -0.068063825 0.16794749
0.09005458 0.078827 0.09839287 0.0057926583 -0.13378856 0.08486689 0.029275296 0.25485873
0.08635628 0.2541376 0.100416936 0.42214385 -0.06971121 0.07200818 -0.04190508 0.048053544
-0.25068438 0.15684767 -0.01198388 0.08307877 0.09942515 0.010894515 0.038780503 0.055052716
0.09506822 0.15708853 -0.041991103 -0.029728264 -0.048373397 0.3390673 0.11547456 -0.051126033
0.11603435 -0.026729392 0.06263603 -0.011568695 0.01177846 0.10626413 0.07999936 -0.02963849
0.18204212 0.057592716 -0.06295009 0.029222377 -0.1864154 0.2977392 0.15178958 -0.051142614
0.13035838 -0.04691412 0.042780142 0.059430253 -0.009424642 0.20434591 0.23809813 0.03522546
0.29613855 0.23281944 -0.014631768 0.086434826 0.021967568 -3.9939812e-05 -0.16606706 0.0931859
0.0601819 0.06077453 0.1326627 0.1286352 0.18755482 -0.059014533 -0.14310907 -0.087427914
0.14759175 0.12026236 0.04559795 -0.03124208 0.069075264 0.14677835 -0.010722221 0.013046783
0.14974928 0.17127189 0.041091334 -0.030953627 -0.122971706 0.05317354 0.018795207 0.1389785
0.08689003 0.007269958 0.12419102 -0.055354185 0.012296376 0.04665846 -0.024244085 -0.026119843

advantage_stream.bias f4 [5]
00000000: 3575 323b c90a ba3c f6a7 3dbd b2a6 5ebc
00000010: 2973 5e3b
0.0027230505 0.02271022 -0.04630276 -0.013589548 0.0033943153
