Existing_MARL-SimpleSpreadv3/dueling_dqn_models/final_agent_2.pt (torch, 157921 bytes, 7 tensors)

shared_fc.0.weight f4 [256, 18]
000000 d8 b5 f6 bd 95 16 94 be 69 b6 68 3c 82 c5 03 bf
       -0.12046403 -0.2892348 0.014203646 -0.5147325
000010 05 26 13 3f 07 ab 98 3d 1f 1b 12 be 00 b7 9f 3e
       0.5747989 0.07454496 -0.14268158 0.31194305
000020 0c 87 65 bd 04 a4 12 3e 6f 9e e2 bd 06 4a 01 be
       -0.056036994 0.1432038 -0.11065375 -0.12625894
000030 1d 2a c5 be c4 5d 52 bb 17 47 79 3d 42 87 c7 3d
       -0.38508692 -0.0032099346 0.060858812 0.09742595
000040 5c db 8f 3d aa 4c c3 bd 84 cb d6 3d 64 3b 44 bd
       0.07024261 -0.09536107 0.10488036 -0.0479082
000050 9d 36 32 be f7 04 a0 be 64 c0 0d be 93 60 f6 3d
       -0.17403646 -0.31253788 -0.13842922 0.12030139
000060 a4 c1 10 3e e3 21 07 bc e7 08 0e 3d 99 c4 42 3e
       0.14136368 -0.008247825 0.03467646 0.19020309
000070 99 0e a2 bd 21 ab c1 be 56 ab 33 be 15 d1 8e be
       -0.079129405 -0.37825873 -0.17545828 -0.27893892
000080 ae bd 19 3c d8 fb f8 bd 35 ac 61 3e 12 51 3e be
       0.009383602 -0.121574104 0.22038348 -0.18585613
000090 31 01 e0 bd 1a c0 7a bd 19 17 88 be ee f3 3e bd
       -0.10937727 -0.06121836 -0.26580122 -0.04661935
0000a0 11 af f0 bd fa 07 95 3e f0 3a 43 3d 99 93 28 3e
       -0.11752141 0.29107648 0.04766363 0.16462554
0000b0 01 d6 0a 3f fb 0d 6a bf ff d9 0d bf 49 55 25 3f
       0.54232794 -0.9142758 -0.5541076 0.6458326
0000c0 0f 22 30 bd b0 f3 16 bd 5d d9 2c 3e dc 0f fe bc
       -0.04300123 -0.036853492 0.16879793 -0.031013422
0000d0 ae bb af 3d c6 d1 06 3e 68 a9 1b bd 21 ee 0b 3e
       0.08580719 0.1316596 -0.038003355 0.13665058
0000e0 27 02 1e 3c 4d 60 9c 3e 14 61 0c bd 12 5f 37 be
       0.009644068 0.30542222 -0.03427227 -0.1790736
0000f0 a1 44 9c 3d a8 97 97 bd 21 45 85 3b 0c df 63 3e
       0.076302774 -0.07401973 0.0040670787 0.22253054
000100 c4 04 12 be a0 53 43 3d 16 e3 58 3d 1f 87 2b 3e
       -0.1425963 0.047687173 0.05295094 0.16750763
000110 74 41 27 be 4b 56 45 be b8 83 54 be 12 af c4 3d
       -0.16333562 -0.192712 -0.20753372 0.096037045
000120 ee 2f f4 be 2b 44 75 3e 3f f5 e2 3e 7c a7 2e be
       -0.47692817 0.23951785 0.44327733 -0.17056078
000130 42 ad f9 bd 44 c1 1d 3c 1a 91 d0 bd ab bc 71 3e
       -0.121912494 0.009628598 -0.10183926 0.23607127
000140 e4 e9 2e bb c8 38 9b 3e 69 f0 55 bd 03 3b cd 3d
       -0.0026689703 0.30316758 -0.052231226 0.10021021
000150 03 04 bb 3e 82 2b 54 be 7a 9b 4b 3e 11 f7 68 be
       0.36526498 -0.20719722 0.19883528 -0.22750498
000160 ae 52 bf bd a4 6b 9f bd b6 bc e8 3c b2 00 9d 3d
       -0.09341942 -0.07784203 0.028410297 0.07666148
000170 2a 04 ac 3d 64 7a 63 bd 4d db 3f be 71 b8 95 3f
       0.08399232 -0.055536643 -0.18736 1.1696912
000180 9a f1 1d bc d7 7f e6 bd b8 08 34 3d 9e 90 e8 bc
       -0.009640122 -0.11254852 0.043953627 -0.028389271
000190 f2 4d 42 3e 94 75 aa bf fe e3 fa b9 ad d9 37 3e
       0.18975046 -1.3317132 -0.00047853583 0.1795413
0001a0 03 54 bc bc 1c c7 3b be e3 c7 36 be 2d ad f0 3d
       -0.022989279 -0.18337673 -0.17849688 0.11751781
0001b0 54 fb f7 bc 40 54 27 be 27 f0 27 3d df 1f 27 be
       -0.03027121 -0.16340733 0.04100051 -0.16320752
0001c0 ef ec e3 3e f2 a9 c5 bd ca e9 65 3e ce ff 44 3d
       0.44516703 -0.09651555 0.22452465 0.048095517
0001d0 e0 6e 02 bf 9d 35 96 3e eb 6d 7a 3e e3 08 ba 3e
       -0.5095043 0.2933778 0.24455993 0.36334905
0001e0 24 fa 0e 3f 30 9f e5 3c 14 07 b9 bd 62 25 b2 3c
       0.55850434 0.028030008 -0.09034553 0.021746341
0001f0 39 54 fc bd 8d 1c ca bd 4c 09 1c bd d2 d9 e1 3d
       -0.12320752 -0.09868727 -0.038094804 0.11027874
000200 01 28 9d be 07 a8 fa bd 62 21 b8 3d 64 73 a5 bb
       -0.30694583 -0.1223908 0.08990742 -0.005049156
000210 55 43 86 3e 57 22 d3 3c b4 05 db 3d 3c 89 18 3e
       0.26223245 0.02577321 0.10694447 0.14896101
000220 d5 19 69 be 3d 74 13 bf 02 3f b5 be 4d 21 bd be
       -0.2276376 -0.5759924 -0.35399634 -0.3693947
000230 6a 00 55 3e f8 05 a8 bd 66 13 02 3e 4a 65 5a 3e
       0.20800939 -0.082042634 0.12702712 0.21327701
000240 fc 12 4f bc c1 34 3e 3e d9 90 32 be 4d 44 fd 3e
       -0.012638804 0.18574812 -0.17438067 0.49466172
000250 8e 33 bc be c5 7b e8 3e f5 a2 99 3e a0 60 6f be
       -0.36758083 0.4540693 0.3000714 -0.23376703
000260 7b 65 06 3e d7 ed f7 bd 00 27 a9 3e ab dd 51 3d
       0.13124649 -0.12105911 0.33037567 0.05123679
000270 b8 f3 53 be 88 d7 0f 3e e9 92 9d 3c a6 5f 98 3d
       -0.2069844 0.14047062 0.019235091 0.074401185
000280 4c 25 de 3c a9 4b 0e 3e 76 2e 12 3d 1e a4 04 3e
       0.027117394 0.1389605 0.03568884 0.1295323
000290 7d 4a ff 3e 4c d8 ce be fd 91 a3 3e 0b 49 ca bd
       0.49861518 -0.40399396 0.31947318 -0.09877213
0002a0 6b 5c f8 3b 12 a8 3d be 25 01 c1 be e9 cb 44 3d
       0.0075793765 -0.18521145 -0.37696186 0.048046026
0002b0 78 ab 28 3f 42 1c 84 be d6 fb 08 3f cd fd ca 3d
       0.6588664 -0.2580281 0.5350927 0.0991169
0002c0 87 bd f7 3c c8 27 37 3e aa 7e ef 3d 48 17 2a 3c
       0.03024174 0.17886269 0.11694081 0.010381527
0002d0 e5 bb 52 bc ac 2b b9 bc e1 0e b2 be 4b 0d 7a 3d
       -0.01286218 -0.022603832 -0.34776977 0.061047833
0002e0 16 25 9a 3e a1 07 ff be b6 a0 93 3e ee 2f 8f 3e
       0.3010642 -0.49810508 0.2883355 0.27966255
0002f0 6c a0 25 be 6b 2b b9 3d f6 c5 4d be 42 be 01 be
       -0.16174477 0.090414844 -0.20095047 -0.12670234
000300 12 95 a7 be 97 82 88 3e 25 27 94 bc ab 74 a5 bd
       -0.3273092 0.26662132 -0.018085072 -0.08078893
000310 e4 08 08 bc 4c 7c f7 3b 32 07 22 be 26 6b d1 39
       -0.008302901 0.007552659 -0.15823057 0.00039943418
000320 6a bb 74 be e8 c6 2d 3e 06 bf 82 3f 02 ac 5d 3e
       -0.23899618 0.16970408 1.0214546 0.21647647
000330 99 37 2f bd 19 21 93 bc d9 73 1f be 3d cb f0 bd
       -0.04277763 -0.017960118 -0.15571536 -0.117575146
000340 bd 04 ab be ae 3b b4 bd 9d ea 12 be 17 b9 eb bd
       -0.33402053 -0.088004455 -0.1434731 -0.115099125
000350 59 bc 43 3e fc c9 9a bd f7 73 84 bd ad fb d3 3d
       0.19114818 -0.07558057 -0.06467431 0.10350738
000360 fa b6 87 3e b8 41 79 3e 94 c8 8d be 60 5d 09 3f
       0.26506788 0.24341476 -0.2769209 0.53658104
000370 1e 66 ae bd e9 38 37 3e 91 e1 26 be d6 64 28 be
       -0.08515571 0.17892803 -0.16296984 -0.16444716
000380 1b 1c c6 bd 72 59 52 3e 6e d3 4d be ec 16 88 3d
       -0.096733294 0.20541933 -0.20100185 0.06644997
000390 99 04 ca bc 0d 5e 08 3d ad 84 0a 3e d1 54 8e 3d
       -0.024660395 0.03329282 0.13527174 0.06949771
0003a0 88 5c 36 3e 37 87 dd bd bd 2e 28 be 92 9e 50 3e
       0.17808735 -0.10816806 -0.16424079 0.2037299
0003b0 37 a0 cf bd 66 45 92 be 96 c1 96 3e 6b 47 a7 be
       -0.101379804 -0.28568572 0.2944457 -0.32671675
0003c0 ea 3e 90 be 54 6b 87 bd e0 3e 22 bf e3 f5 1a 3e
       -0.28173 -0.06612268 -0.6337719 0.15132861
0003d0 cb 74 ec 3e 8c 19 a2 bd bb c5 c7 3d 7b b9 43 be
       0.46182856 -0.07915029 0.09754511 -0.19113724
0003e0 5d 09 4d 3d 8d 01 53 be 88 e2 69 bd 08 f5 3a be
       0.050057758 -0.2060606 -0.057100803 -0.18257535
0003f0 72 d4 d4 be 86 51 05 be 26 83 86 3d 1c e4 15 bc
       -0.41568333 -0.1301938 0.06567983 -0.009148624

shared_fc.0.bias f4 [256]
000000 9f 25 43 bf 3b b4 9f bf ed 3b 32 be e6 80 84 bf
       -0.7622928 -1.2476877 -0.17405672 -1.0351837
000010 94 2f 31 bf c5 77 1f be 95 03 72 bf 9a cf 91 bf
       -0.69213223 -0.15573032 -0.94536716 -1.139148
000020 62 07 57 bf a3 aa 2c bf b4 58 62 bf 0b 9e fe be
       -0.8399564 -0.6744787 -0.884166 -0.49729952
000030 89 e2 86 bf 87 98 4d bf d8 ab 82 bc e2 db 14 bf
       -1.0537883 -0.80310863 -0.015951082 -0.58148015
000040 a0 36 07 bf 3a 6e 80 bf 1f d1 9f bf 23 57 5a bf
       -0.52817726 -1.0033638 -1.2485694 -0.8528921
000050 9d 1a 91 bf 58 9f 7c bf 59 73 98 bf 8a 13 96 bf
       -1.1336247 -0.9868064 -1.1910201 -1.1724713
000060 b6 4a 74 bf 7f 98 cf be b4 86 65 bf d8 36 ae bd
       -0.954265 -0.40546033 -0.89658666 -0.08506554
000070 f2 ee 70 be e2 f9 e8 bd f5 27 29 bf 1c 9f 8b bf
       -0.2352865 -0.11375786 -0.66076595 -1.0907931
000080 7e 19 46 bf f0 82 91 bf 91 05 8d bf da 11 53 bf
       -0.7738265 -1.1368084 -1.1017324 -0.82449114
000090 93 fe 8c bf 79 15 02 be aa 88 7f bf f2 48 9e bd
       -1.101519 -0.12703504 -0.9981791 -0.07728757
0000a0 3e 09 5f bf 3a 4c 04 bf 39 b5 8c bf 30 00 4d bf
       -0.8712348 -0.5167881 -1.0992805 -0.8007841
0000b0 d4 78 57 bf 01 b6 8a bf 75 4b 16 be 7f f6 8c bf
       -0.84168744 -1.0836793 -0.14677222 -1.1012725
0000c0 c0 6f 0d bf ca 7b 93 bf 15 4d 90 bf 9e 97 18 be
       -0.5524864 -1.1522152 -1.1273524 -0.14901587
0000d0 73 d7 41 bf c9 f1 55 bf 4c 13 22 be f2 b8 7b bf
       -0.75719374 -0.8357206 -0.15827674 -0.9832908
0000e0 5d ca 90 bf 6a 3e 23 bf 54 0b 57 bf ed 17 80 bf
       -1.1311756 -0.6376711 -0.8400166 -1.0007302
0000f0 72 1f 28 bf f2 13 ba be f2 72 45 be 0e 5b 78 bf
       -0.6567298 -0.36343342 -0.1928213 -0.9701394
000100 80 7d 90 be 1c 41 5a be 87 67 d2 be 51 30 9b bf
       -0.2822075 -0.213139 -0.4109461 -1.212412
000110 64 95 35 bf 4d b1 89 bf 33 38 a7 be 15 89 82 bf
       -0.70931077 -1.0757233 -0.32660064 -1.0198084
000120 b2 50 af bf e0 5f 98 bf 60 12 e8 be 03 cc 24 bf
       -1.3696501 -1.1904259 -0.4532652 -0.643738
000130 d7 2e 6d bf 9e 42 30 bf 2b b9 92 bf 34 10 56 bf
       -0.92649597 -0.6885165 -1.1462759 -0.83618474
000140 e7 8d 1f be 30 42 00 bf 01 36 4b bf 58 07 7f be
       -0.15581475 -0.50100994 -0.7937928 -0.24905145
000150 a4 7b 80 bf 78 4b 75 be be 8d 63 bf e9 41 76 bf
       -1.0037732 -0.2395457 -0.88888156 -0.9619432
000160 26 46 8a bf 68 f8 21 bf be 8b 8f bf 18 88 01 be
       -1.0802658 -0.6326966 -1.1214521 -0.12649572
000170 be af 8d bf f7 33 92 bf 57 e0 48 bf 3f 8e 45 bf
       -1.1069257 -1.1422108 -0.78467315 -0.77170175
000180 f7 b7 86 bf 5c 7e 36 bf d4 ec 49 bf 34 42 39 bf
       -1.0524892 -0.7128656 -0.78876996 -0.7236664
000190 3a 9c 8f bf f5 11 5f bf 5b 1a 6b bf 57 ee 00 be
       -1.1219552 -0.87136775 -0.9183709 -0.1259092
0001a0 00 c4 77 be 79 e2 8c bf 36 6f 6d bf 2e b5 53 bf
       -0.24195862 -1.1006614 -0.9274782 -0.82698333
0001b0 8f 17 8a bf 41 dc 80 bf a2 c7 4d bf c4 b5 50 bf
       -1.078844 -1.0067216 -0.8038274 -0.8152735
0001c0 40 37 3b bf 83 16 8f bd 90 42 6a bf 4f 91 82 bf
       -0.7313118 -0.06986716 -0.91507816 -1.0200595
0001d0 4b f5 79 bf bf d0 8b bf 0a b5 5a bf 87 dc 05 bf
       -0.9763991 -1.0923079 -0.85432494 -0.52289623
0001e0 1a 4b 81 bf cb 88 6d bf 30 28 6e bf 0e a7 76 bf
       -1.0101044 -0.92786855 -0.9303007 -0.96348655
0001f0 35 b3 81 bf 69 8c 88 bf 5a 78 87 bf fb 96 b2 bd
       -1.0132815 -1.066785 -1.0583603 -0.087202035
000200 f1 ed 82 bf f1 c9 01 be b0 04 46 bf 89 d0 5e bf
       -1.0228864 -0.12674691 -0.773509 -0.8703695
000210 26 fb a6 bd bd 46 99 bf 65 f5 93 bf 74 21 7d bf
       -0.081533715 -1.1974713 -1.1559263 -0.9887917
000220 30 d3 46 bf d7 c6 64 bf cc d5 80 bf a8 c8 5b be
       -0.77665997 -0.89365906 -1.0065246 -0.21463263
000230 52 77 36 bf 33 de 3f bf f6 1b 8d bf e4 db 7f bf
       -0.7127582 -0.74948424 -1.1024158 -0.999449
000240 a4 e3 98 bf 67 4d 1f be ec 3e 8b bf 9f e4 8c bd
       -1.194447 -0.1555687 -1.0878577 -0.068795435
000250 0c bf 7b bf d8 6e 69 bf f6 e5 f1 be b8 9e 88 bf
       -0.9833839 -0.9118476 -0.4724576 -1.0673437
000260 f4 9c 8f bf 7d 83 69 bf 34 40 d0 bd 47 bc 85 bf
       -1.1219773 -0.9121626 -0.10168496 -1.0448083
000270 a3 87 6f bf 74 ec 27 bd a3 2a 7f bf c4 c6 9a bf
       -0.9356634 -0.040996984 -0.99674433 -1.2091908
000280 27 bd ae bf cc 42 81 bf 5a 9b 88 bf dd 11 27 bf
       -1.3651475 -1.009851 -1.067241 -0.6526163
000290 8b 38 19 3e d1 72 6a bf 9f cc 5d bf b0 9c 72 bf
       0.14962976 -0.91581446 -0.8664035 -0.94770336
0002a0 0b e5 7d bf 8e a9 8f be f7 7b 7f bf 81 20 83 bf
       -0.99177617 -0.28059047 -0.9979853 -1.0244294
0002b0 0e 0b 6e bf 89 ab 75 bf 3e e0 e0 bd a2 98 8a bf
       -0.9298562 -0.95964867 -0.10980271 -1.082783
0002c0 69 cc 97 be 91 e4 d5 bd 86 1c 95 bf 20 f3 25 bf
       -0.2964814 -0.10443986 -1.164933 -0.64824104
0002d0 8e 43 1d bf ee 00 75 bf 06 2d a4 bf f8 4f 65 bf
       -0.61431205 -0.95704544 -1.282624 -0.8957515
0002e0 59 87 6d bf 3a ae 6e bf e0 df a1 bf 34 07 98 be
       -0.9278465 -0.932346 -1.2646446 -0.29692996
0002f0 9e 56 6c bf 97 30 72 bf 1f 14 7f bf 56 33 76 bf
       -0.9231967 -0.9460539 -0.9964008 -0.9617208
000300 4f 55 62 bf bd 7b a0 bf a0 e6 6f bf 0f fa 18 bf
       -0.8841142 -1.2537762 -0.9371128 -0.5975656
000310 67 da e5 bd 83 2f 56 bf a1 f4 80 bf e1 42 71 bf
       -0.112232976 -0.8366625 -1.0074655 -0.94242674
000320 e6 bf 8c bf 57 58 90 bf 2a f6 83 be 64 b6 69 bf
       -1.0996063 -1.1276959 -0.25773746 -0.9129393
000330 3e 35 45 bf dd ea 66 bf ec 88 7d bf 60 b1 24 be
       -0.77034366 -0.9020212 -0.9903705 -0.16083288
000340 39 c3 74 bf 99 d1 ff 3c 8f 91 61 bf 11 05 dd bd
       -0.95610386 0.031227874 -0.8811273 -0.10791982
000350 9b 98 84 bf ed 26 59 be 91 59 67 bf f8 cf 63 bf
       -1.0359071 -0.21206255 -0.9037104 -0.8898921
000360 b3 1d 4d bf 2a c2 89 be 63 8e 79 bf ec d9 4f bf
       -0.8012344 -0.26905948 -0.9748289 -0.811919
000370 16 36 d2 3d e1 33 9f bf fd 23 1f bf 13 ba 81 bf
       0.10264222 -1.2437707 -0.6216429 -1.013491
000380 94 de 94 bf bc 86 77 bf b0 d4 93 bf e8 5e 50 bf
       -1.1630425 -0.96689963 -1.1549282 -0.81394815
000390 a9 49 83 bf 90 6a 83 bf 19 c9 5e bf b3 b6 10 be
       -1.0256854 -1.0266895 -0.870256 -0.14132194
0003a0 79 53 7b bd e5 54 54 bf 2e 8a 96 bf 93 77 77 bf
       -0.061358903 -0.8294204 -1.1760919 -0.9666683
0003b0 f9 fd 64 bf 2a 94 85 bf f6 99 33 be 16 ea 70 bf
       -0.8945003 -1.0435841 -0.175392 -0.94107187
0003c0 37 55 87 bf 07 15 82 be 50 06 84 bf d5 ce 82 bf
       -1.057288 -0.25406668 -1.0314426 -1.021937
0003d0 a2 14 6c bf 8e 8c 63 bf d8 9b 60 bf 03 95 d2 bd
       -0.92218983 -0.88886344 -0.877378 -0.10282328
0003e0 8f b2 73 bf fc cb 85 bf c5 38 7b bf ac 46 83 bf
       -0.95194334 -1.0452876 -0.981335 -1.0255942
0003f0 93 7e 3f bf 6d c3 54 bf 5a b3 24 bf 4c 63 75 bf
       -0.7480251 -0.83110696 -0.6433617 -0.9585464

shared_fc.2.weight f4 [128, 256]
000000 c0 3d 0a be 9a d2 a3 3d b6 f5 9a be 38 35 25 3d
       -0.13500118 0.079991534 -0.30265588 0.040333956
000010 32 35 df 3e f9 71 c3 be 1a a8 a9 3c 62 14 01 be
       0.43595272 -0.38172892 0.02071004 -0.12605432
000020 39 4e 00 be 1d 0d 80 be 83 19 e9 bd 30 ba 33 bf
       -0.1252984 -0.25010005 -0.11381819 -0.70205975
000030 52 0d a8 3e e3 93 39 bf 92 3f ab bd c4 20 32 bc
       0.32822663 -0.7249128 -0.083617344 -0.01087207
000040 de 5e 9e bd ce dc 47 bf f5 8a 9d be f4 55 08 be
       -0.07732938 -0.78071296 -0.30770078 -0.13314039
000050 4d 2f 5d 3e 62 04 dd bc b4 21 e6 bd e0 13 2c 3e
       0.21600075 -0.026979629 -0.11236897 0.16804457
000060 6a cf 01 bf 7a cf 06 bf 46 be 4e bf a5 48 e4 be
       -0.50707114 -0.52660334 -0.80759084 -0.44586673
000070 b3 cb 26 bf 6c 70 f5 3d 20 0b 07 3f bc b8 07 3b
       -0.6515457 0.119843334 0.5275135 0.0020709476
000080 03 95 f0 bc 48 6e 1d 3f 8f bc b7 bd 5e 53 b6 bd
       -0.02936793 0.614964 -0.089715116 -0.0890262
000090 c0 c8 f5 3e 51 14 84 3e b8 e4 02 bf 91 87 b1 3e
       0.48004723 0.2579675 -0.5113025 0.3467374
0000a0 42 cc 36 be 75 0d 47 3e e4 0a e9 be e2 2a 58 be
       -0.17851356 0.19438727 -0.4551612 -0.21110108
0000b0 9d f9 95 be d8 d4 e4 bd 54 21 48 bd a3 13 1c bc
       -0.29292002 -0.11173409 -0.04885991 -0.009526166
0000c0 11 a5 e6 bd a3 b2 03 bf 95 6d 6a be c4 d4 19 3f
       -0.11261953 -0.51444453 -0.22893365 0.6009028
0000d0 8f 70 b3 3e 9c d7 05 bf a7 e5 f8 be f4 bf 94 3e
       0.35046813 -0.5228212 -0.4861271 0.290527
0000e0 42 6a 83 3e 6e 87 12 bf ba 08 da be 21 48 79 bd
       0.25667006 -0.572379 -0.42584783 -0.060859803
0000f0 8f c5 4d be 1d 12 2d bf 6a 77 ff be 44 f8 c5 be
       -0.20094894 -0.67605764 -0.49895793 -0.38665974
000100 e5 2d 9f bd c4 2b 5f bf 83 56 28 bf cf 60 45 3e
       -0.077724256 -0.87176156 -0.65757006 0.19275211
000110 b9 f3 8a 3e f4 f7 92 be 7d d5 ea bd 39 fb 1f be
       0.2713907 -0.28704798 -0.11466501 -0.15623178
000120 b7 79 2e 3c bc 20 f6 be 92 22 fb be fc f4 be 3e
       0.010649136 -0.4807185 -0.49049813 0.37296283
000130 0c 0a e7 be ad f0 03 bf be 2b dd 3e 71 12 2f 3f
       -0.45124853 -0.5153912 0.43197435 0.68387514
000140 70 aa 9a be 5e a3 9e bd 2e 0a c3 be 2e c8 68 3e
       -0.30208158 -0.077460036 -0.38093704 0.22732612
000150 42 3b 37 bf 8f 60 84 bf 05 b3 95 3e f9 d4 c8 3e
       -0.71574795 -1.0341967 0.29238144 0.39224985
000160 5c d4 43 be c4 e9 07 3f cf 96 a5 3d 7c 8c ab be
       -0.19123977 0.53091073 0.08085405 -0.3350562
000170 56 9e 49 3c 0a 1e 8c 3e 78 23 97 be 86 d9 d6 be
       0.012305817 0.27366668 -0.29519248 -0.41962832
000180 72 e5 b1 be a1 35 8a 3e 2e e6 3e bf d7 a0 0c be
       -0.34745365 0.2699404 -0.74569976 -0.1373323
000190 51 7b a2 be 4a cd 3f 3e b5 b6 10 be 1c ce 7a bd
       -0.31734708 0.18730655 -0.14132197 -0.061231717
0001a0 36 8c 74 3c 6b fe 59 be 78 fb 57 bd 68 af 8d 3d
       0.014926007 -0.21288459 -0.052730054 0.06918222
0001b0 73 e7 20 3b c4 f6 2d 3d 98 a9 19 be a2 84 f0 3d
       0.0024552017 0.042471662 -0.15006101 0.11744048
0001c0 e3 0a 90 be 53 b0 8a bd 69 4a 0c bf 85 6a 39 3e
       -0.28133306 -0.067719124 -0.5480104 0.1810704
0001d0 87 fd 9c 3d 8d 58 75 bd 1a 6d 34 3f b5 64 1c be
       0.07665544 -0.0598989 0.70478976 -0.15272792
0001e0 45 46 7b be 11 c4 9c 3c 6d 0c 0f 3f e3 14 e3 bd
       -0.24538524 0.01913646 0.55878335 -0.11087968
0001f0 46 37 5b 3e cc 46 8c be bc b9 45 bd f6 12 e1 be
       0.21407804 -0.27397764 -0.048272833 -0.4395978
000200 b2 3b 15 3c 92 c6 aa bd 9e b4 24 be 6d d7 58 be
       0.009108471 -0.083386555 -0.16084525 -0.21175928
000210 10 60 27 bc d9 4c 66 be 13 08 5b be 4a a0 51 bc
       -0.010215774 -0.22490253 -0.21389799 -0.012794564
000220 72 b0 27 3e 26 b5 b7 be 35 25 25 3e df 15 57 3e
       0.16375902 -0.35880393 0.16127475 0.21004437
000230 c8 f2 d4 be 16 6d 38 be 88 c5 8f be 5f 9e d1 be
       -0.41591477 -0.18010363 -0.28080392 -0.4094114
000240 fe aa 47 be 37 40 e6 bd 30 d6 b1 be 3d 5b 96 bb
       -0.19498822 -0.11242717 -0.34733725 -0.004588513
000250 d3 24 81 3e 10 33 72 be 3a 6f 21 bf a1 ab 25 bc
       0.25223407 -0.23652291 -0.63060343 -0.01011172
000260 15 f3 e3 be d8 c7 a0 3d 25 45 bf 3d 1d 5f 58 3e
       -0.44521394 0.07850617 0.0933936 0.21130033
000270 ae 37 7a 3e e7 fe c4 3e 58 96 3b bf 1a 62 44 3e
       0.24435303 0.38475725 -0.7327628 0.19178048
000280 f7 53 11 3f f6 46 d5 be 63 4e 64 bd b0 45 3a bf
       0.56768745 -0.416557 -0.055738818 -0.72762585
000290 a7 94 09 3b 2e fd fc be 14 4b e3 3e e0 51 6e be
       0.0020993145 -0.4941191 0.44393218 -0.2327342
0002a0 5f 45 26 3e dc b1 9d be e7 25 a0 be 81 ba 4d be
       0.162374 -0.30799758 -0.31278917 -0.20090677
0002b0 86 ce f3 bd ff 9f b4 3e 81 79 be bd 46 61 0a be
       -0.119046256 0.35278317 -0.09300519 -0.1351367
0002c0 b6 a9 ad 3d 70 fa b1 3d a9 9b a4 be 52 67 9e be
       0.084796354 0.08690345 -0.3215001 -0.30938202
0002d0 fb 87 6a 3e 6e 1a a6 3d 5f 6f 0c 3f 32 ab dc bd
       0.22903435 0.0811051 0.5485744 -0.107748404
0002e0 68 11 a9 be ba 29 de 3e 0c 89 0f 3e 6b 98 bc 3e
       -0.33021092 0.4339121 0.14017123 0.36835036
0002f0 47 a5 42 be fe 38 07 3f 98 23 a7 3b b6 37 0f bf
       -0.19008361 0.5282134 0.0051006787 -0.55944383
000300 53 2c 5f 3c 11 31 fb be d2 28 87 bd 9f 35 6a be
       0.013621408 -0.49060872 -0.06599583 -0.22872017
000310 0d 38 1f bf fd 23 c6 be d9 a9 b4 bd 63 51 a0 be
       -0.621949 -0.38699332 -0.08821458 -0.31312093
000320 29 88 12 be 6d c2 dc 3e ab 4c 10 be 51 54 9a 3d
       -0.14309753 0.43117085 -0.14091747 0.07535613
000330 a4 28 3a 3e d6 fb 15 3e f9 a9 b6 bd a1 54 19 3e
       0.18179566 0.14646849 -0.089191385 0.1497369
000340 72 05 17 bf 8c 1b 1a be 10 27 c9 3c d8 53 de bd
       -0.58992684 -0.15049571 0.02455476 -0.10855836
000350 a3 e5 54 bc 9a 67 91 be eb f4 23 be 64 b5 a7 3c
       -0.012994203 -0.28399354 -0.16011398 0.020472236
000360 ab 0c 80 bb d0 ad bd be 78 f4 9d be f2 b2 fe 3d
       -0.00390776 -0.3704667 -0.30850577 0.12436475
000370 d3 fc 28 be a8 85 a9 3e eb 55 7c be ad ce ec be
       -0.16502695 0.33109784 -0.2464215 -0.4625143
000380 14 6e f9 3d 56 ce a3 3d 32 f5 a3 bd 8e ef 6b be
       0.12179199 0.0799834 -0.08005752 -0.23040602
000390 5a ff fe be 74 3a c8 be 6c 1b 2f be 62 5d 92 be
       -0.49804193 -0.39107096 -0.17100304 -0.2858687
0003a0 d9 ed 59 3e b9 0f 7e be 0c f4 61 3e 38 99 3f be
       0.21282138 -0.24810685 0.22065753 -0.18710792
0003b0 73 83 f0 be f5 1a 1b bd e4 e6 4b 3e 4e f3 ee 3e
       -0.46975288 -0.037867505 0.19912297 0.46670002
0003c0 99 f5 96 be 36 7d 98 be 7f 6f e9 bb ed a6 0d be
       -0.2948425 -0.29783028 -0.007123887 -0.13833208
0003d0 5d 81 ba 3d 43 cb 12 3d cb 42 37 3e 2c b0 15 be
       0.09106705 0.035838377 0.17896573 -0.14617985
0003e0 c7 74 42 bc 4d 20 72 be d9 b9 ec bd 2b 50 4e bd
       -0.011868662 -0.23645134 -0.11558885 -0.050369423
0003f0 82 5f 2f 3c 2c f3 a7 be 33 c2 00 be 5c 74 e8 be
       0.010703923 -0.32802713 -0.12574081 -0.45401275

shared_fc.2.bias f4 [128]
000000 9e 53 07 bf c6 62 78 bd 03 f6 64 3e 6d ce 87 3b
       -0.52861965 -0.060641073 0.22359471 0.004144481
000010 5b d1 fa bd 80 9e ae be fb 85 7e 3e a4 c0 f1 3e
       -0.12246963 -0.341053 0.24855797 0.47217286
000020 0d 4d 96 3f 94 7c d0 bd 46 18 61 be 1f af 19 bd
       1.1742264 -0.101800114 -0.21981916 -0.037520524
000030 ec 22 11 bf 9f 0d fa 3d 3d c0 b8 bd 41 c6 e7 bd
       -0.5669391 0.12209629 -0.090210415 -0.11317111
000040 a8 c2 5d bc b9 48 cc be aa eb 7f 3d fb 8b b4 3f
       -0.013535179 -0.39899233 0.062480606 1.4105219
000050 ca 95 14 bf 8d eb c7 bc ad 80 5d bd 67 29 0d be
       -0.5804106 -0.024404312 -0.054077793 -0.13785325
000060 17 b1 3b be e3 1c 8e bd 73 80 09 3f 3d ea 52 be
       -0.18329273 -0.069391035 0.5371162 -0.20597167
000070 8a fa 15 bf 19 00 14 3f fd c7 07 bd d3 e7 cb bd
       -0.5858542 0.5781265 -0.033149708 -0.09956326
000080 67 87 00 bd 99 8e 06 be 9d a7 a8 3e 2b 25 04 3f
       -0.03137913 -0.13140334 0.3294038 0.51619214
000090 ac 3e af 3f 48 6d 09 bd c0 d8 f0 be 43 11 6b bc
       1.3691001 -0.033551484 -0.47040367 -0.014347377
0000a0 7d 72 97 be e5 96 98 bd 09 0b c6 bd 42 ad 0d 3f
       -0.29579535 -0.07450656 -0.096700735 0.55342495
0000b0 8b 84 01 3f e8 1a 79 bd 42 1f 1f 3e 8c 93 17 bc
       0.5059287 -0.060816675 0.15539268 -0.0092514865
0000c0 38 ef ca bd 5d 13 f6 bd 00 17 05 bf 99 7e 57 3f
       -0.099089086 -0.12015412 -0.5198822 0.8417755
0000d0 eb de d5 be 0d 0f 1a bc 8d 17 46 bd b5 7c dd bd
       -0.41771635 -0.009403002 -0.048362304 -0.108148016
0000e0 51 ef d4 bd d7 b8 40 bc 74 01 09 be 0f b3 f5 bd
       -0.103972085 -0.011762819 -0.1337946 -0.11997043
0000f0 4e 14 a8 be f1 c4 02 bd 8e 73 71 3e d1 f8 99 bd
       -0.3282799 -0.0319261 0.23579237 -0.07518161
000100 ea 1c 16 be 8e 97 d0 3e 4f d2 cc bd 9d 2a 0c be
       -0.14659467 0.40740627 -0.10001051 -0.1368813
000110 12 a9 02 be 70 8b e6 be ab 54 70 3f 91 5c 93 3c
       -0.12759808 -0.45028257 0.93879193 0.017988475
000120 ca 4e 74 be a1 0f 5d ba 96 70 a9 bc ba 7f e6 bd
       -0.2385818 -0.000843281 -0.020683568 -0.11254831
000130 df 3b 0d bf 83 79 c3 3e 90 33 c4 be 3b cc b9 bd
       -0.5516948 0.38178644 -0.3832059 -0.09072157
000140 30 dd 19 3f 48 a5 46 be 02 31 d7 bd 15 f6 84 3e
       0.6010313 -0.19398987 -0.105073944 0.25968996
000150 9d ff 79 be 16 3c 79 be d4 9c c5 bc c2 99 ea be
       -0.24413915 -0.24339327 -0.024122633 -0.45820433
000160 46 0b ea bd 79 61 63 bd eb 94 a1 bd f3 1c 46 bd
       -0.114279315 -0.05551288 -0.07889732 -0.048367452
000170 d0 13 f3 3c 84 f1 cd 3e e8 80 05 be 1e db ac bd
       0.029672533 0.40223324 -0.13037455 -0.08440231
000180 e8 cf d8 bd 3b d0 00 bf a2 8b 6a 3f c5 36 69 bd
       -0.1058653 -0.50317734 0.9161931 -0.056936998
000190 3a dc 1f 3f 08 27 b9 bd ea 13 4b 3e d4 55 09 bd
       0.62445414 -0.09040648 0.19831815 -0.033529118
0001a0 6d 79 8c be fc 3d 04 bf fd 5d ce be 02 7f 8f 3d
       -0.2743639 -0.5165708 -0.40306082 0.07006647
0001b0 4b 0c 6a be ee ff 9f ba b9 9b 0d be 77 cc 60 3c
       -0.22856252 -0.001220701 -0.13828935 0.013720623
0001c0 80 0a 79 bc 6c 6b 6b be 30 9b af be 87 fc d0 be
       -0.015200257 -0.22990197 -0.34298086 -0.40817663
0001d0 ec ba 79 bd d2 21 32 3f e3 6c 95 3f 3b 7f 8b 3d
       -0.06096928 0.69582856 1.1673855 0.06811377
0001e0 c2 d3 8e bd 1d 1e 14 bf 2d 39 51 bd fb 9b 75 be
       -0.06973983 -0.5785845 -0.051079918 -0.23985283
0001f0 1f 43 ed bd 85 54 b2 be c1 c8 af bd 59 01 9a bd
       -0.11585068 -0.34830108 -0.08583213 -0.07519788

value_stream.weight f4 [1, 128]
000000 99 9e 69 3e 5b 7c 42 3d 97 fe 98 be 00 7c 38 be
       0.22814406 0.047481876 -0.29881737 -0.18016052
000010 50 5e e6 3d b4 6c e3 3e 27 17 75 3e 5c 4c 26 be
       0.112484574 0.4441887 0.23934613 -0.16240066
000020 bd fd 9e be 83 fb ba bc 00 bc 33 3e b8 33 a0 bd
       -0.31052962 -0.022825008 0.17552185 -0.078223646
000030 2d 78 de bd 2d 8c 94 3e f2 08 1b be dd dc 49 3e
       -0.108627655 0.29013196 -0.15140131 0.19713159
000040 be 66 11 bd 24 99 d0 3e 00 69 0c 3e 74 18 b3 be
       -0.035498373 0.40741837 0.1371193 -0.34979594
000050 e3 27 e1 3d aa 7e c5 bc e1 81 70 3d 48 30 58 bd
       0.10993936 -0.02410825 0.058717612 -0.05278042
000060 50 06 40 be 5e d8 0c 3e 9b 52 89 bd 76 e8 4c be
       -0.18752408 0.13754413 -0.06705209 -0.20010552
000070 2d 7a 20 3e 42 cb 4f be ee 7d 0a bc 8f d8 8f be
       0.15671606 -0.2029238 -0.008452876 -0.2809491
000080 b2 4a 68 be ed 5c 97 be bb f5 ca bd 11 33 a9 be
       -0.22684744 -0.29563084 -0.099101506 -0.33046773
000090 57 6b da be 2c 1e 5e 3d a9 fb cb 3e ca 7c 68 3e
       -0.4266002 0.054227993 0.3984044 0.22703853
0000a0 bc 95 db 3e 38 8e 98 3d f3 bf 88 3d 87 ae a8 be
       0.42887676 0.07449001 0.066772364 -0.32945654
0000b0 d2 c6 2f be c2 0d 94 3e 42 5a ba bd c8 a9 00 3e
       -0.17165688 0.28916746 -0.090992466 0.12564766
0000c0 cd 41 be 3c 47 55 8c bc 29 63 af 3d 3e 91 a7 be
       0.023224736 -0.017130507 0.08563835 -0.32727998
0000d0 4c 40 d9 3e 76 f4 de 3b 29 a3 db 3d 7a 25 38 bd
       0.42431867 0.0068040444 0.1072448 -0.044957615
0000e0 c3 a6 c7 3c c5 48 2b 3d 18 7e 5d 3e ac 69 20 3e
       0.02437151 0.041817445 0.21630132 0.1566531
0000f0 6f db 19 3e d8 92 1c 3c 2a 7e ef bc 57 0b eb bb
       0.15025114 0.009556495 -0.029234964 -0.0071729827
000100 a3 7e ca 3e 40 41 c1 3d 64 6a c8 be a0 1a 04 be
       0.3954974 0.094362736 -0.3914367 -0.12900782
000110 99 82 ba bc 2c b6 e8 3e 7f be 70 be 4f a6 c3 bc
       -0.022767352 0.45451486 -0.23510168 -0.023883013
000120 a7 01 0b 3f b8 7d 38 bd 60 84 43 3d 80 8f b4 3e
       0.54299396 -0.04504177 0.047733665 0.35265732
000130 da 0a b4 3e 43 c6 d3 be 96 9e a5 3e be 45 43 3e
       0.3516453 -0.413622 0.32347554 0.19069573
000140 d1 b2 e0 bd 5c 8f a7 3e 6a 35 31 3b 8a 34 91 3e
       -0.109716065 0.32726562 0.0027039894 0.28360397
000150 ae 95 ff 3e 69 5c b2 3e 85 be ae 3c e2 5c 96 3e
       0.49918884 0.34836128 0.021331081 0.2936774
000160 b9 10 91 be 53 a2 49 3c 79 b1 b8 3c 38 2d 82 3b
       -0.2833307 0.0123067675 0.022545563 0.0039726757
000170 6b a2 15 be 45 8a 77 be 90 34 b0 3d 95 d5 89 3e
       -0.14612739 -0.2417384 0.086037755 0.26920763
000180 cb 59 89 bb 60 73 5b be e1 eb bd be 6c 1c ef 3c
       -0.0041916124 -0.21430731 -0.37094024 0.029188357
000190 36 47 1e be 97 a9 1e 3e 62 e1 11 be 6b e5 ad 3c
       -0.15456852 0.15494381 -0.14246133 0.02122756
0001a0 ab 3f 2d be 90 ce d9 3d d4 a0 6c 3e a8 65 b0 be
       -0.16918819 0.10635102 0.23108226 -0.34452558
0001b0 7d 0b 1c be de 95 f4 3c 40 6d 0c 3e 89 3d 34 3d
       -0.15238757 0.029856618 0.1371355 0.044003997
0001c0 2d 2f 95 b7 bb 23 06 3e c4 48 54 be 9a 64 a9 3e
       -1.7784152e-05 0.13099568 -0.20730883 0.33084565
0001d0 db c6 8b 3d 1a 95 5f be 43 9e bd be 00 d4 d3 bd
       0.06825038 -0.21834221 -0.37034807 -0.1034317
0001e0 60 be 09 3d e2 92 fa 3e e6 0e 3f be 89 75 b6 3d
       0.03362882 0.48940188 -0.18658027 0.08909137
0001f0 48 02 a4 bd d9 e8 c5 3e 83 bc 08 3e 35 39 18 be
       -0.080082476 0.3865421 0.13353162 -0.14865573

advantage_stream.weight f4 [5, 128]
000000 eb fb 15 3e 37 2e 87 bd f5 7a 9e 3d ff 6a 8f 3d
       0.1464688 -0.06600612 0.07738296 0.0700283
000010 9a 19 fa 3c 56 40 e4 bd 3f e2 89 3d fa 62 dd bd
       0.030529786 -0.111450836 0.06732606 -0.10809894
000020 d0 b4 f6 3d e9 a6 0e bd d1 a7 bc bc 3d 7d 33 bd
       0.12046206 -0.034827147 -0.02302924 -0.04382061
000030 5a ed e2 bc 9d 9e aa 3d 60 98 9a 3d 52 9b 23 3e
       -0.027701069 0.08331034 0.075485945 0.15977219
000040 d6 7c 05 3d f7 bf 83 bd c4 05 c1 3d 8b 57 8f bc
       0.032589756 -0.06433099 0.09424928 -0.017497798
000050 b4 f1 ae 3d 08 54 b2 bc 99 06 05 3d 71 e7 75 bd
       0.08542195 -0.021768585 0.032476995 -0.060035173
000060 aa 9c a7 bc 47 a9 91 3c a1 0b 65 3d 12 b3 32 3d
       -0.020460445 0.017780913 0.055919293 0.043627806
000070 d7 0a 97 bd 84 e7 95 bd 75 f1 be 3c c0 3d 7c bd
       -0.073751144 -0.07319549 0.023308495 -0.061582327
000080 4d 00 f8 3d a3 9f 31 bd cf de 5e 3e f5 14 dc bc
       0.12109432 -0.043365132 0.21764682 -0.026865462
000090 44 a3 ed bc e5 4e 39 bd 9b 57 63 3e 7a 52 51 be
       -0.029008515 -0.045241255 0.22201388 -0.20441619
0000a0 9b 03 29 3e d2 80 d1 3c b0 80 8b 3d b6 49 d5 ba
       0.16505282 0.025574122 0.068116546 -0.0016272578
0000b0 32 90 59 bd de 33 20 3d 0d 9d 28 3d 88 3c bd bd
       -0.05311603 0.039111964 0.0411654 -0.09240061
0000c0 c2 fe 09 3c b7 a3 18 3d 05 20 b7 3d 7a f1 b8 3d
       0.008422555 0.037265506 0.08941654 0.09030433
0000d0 4b 27 50 3e 3d fa 87 3b f1 f7 dc 3c 0f a5 60 3d
       0.20327489 0.004149704 0.026973696 0.054844912
0000e0 f6 cc f0 3c d7 14 0e bd 9e 50 97 bd 9c b0 e4 bd
       0.029394608 -0.034687843 -0.073884234 -0.11166498
0000f0 8c 03 e1 3d ef 76 2c bd 28 73 87 ba b1 a7 24 bc
       0.10987005 -0.04210561 -0.0010334002 -0.010049746
000100 bb 95 78 3e 89 4b c1 bc a5 48 80 bb 8f fb 91 3d
       0.24275868 -0.023595588 -0.00391491 0.07128059
000110 55 b2 a6 bc 99 42 1b 3e 43 1b 26 3e 43 53 5b bc
       -0.020348707 0.15162124 0.16221337 -0.01338655
000120 d5 5d 1e 3e a4 e2 b3 3d 29 a2 5e 3d 43 15 6c 3d
       0.15465482 0.08783463 0.054353867 0.057637464
000130 ab 78 6b 3e 80 17 83 bc a2 cf bd 3e 00 31 81 be
       0.2299525 -0.016002417 0.37072474 -0.25232697
000140 40 e4 94 3d 83 29 4e 3e 19 12 01 3d cf 8a 00 3e
       0.07270098 0.20133023 0.0315114 0.12552951
000150 a5 91 ac be be 13 4a bd 78 1d 31 bd de 94 b4 3e
       -0.33704868 -0.049335234 -0.043240994 0.35269827
000160 48 9d bc 3d 29 cc 1e bd 6d bf 92 3d e7 78 31 bd
       0.092096865 -0.03876892 0.07165418 -0.043328192
000170 bc 79 1e 3d 86 1e 6b bd d5 b2 87 3d 2d f1 40 3b
       0.038690314 -0.057402156 0.066259064 0.0029440627
000180 e6 c9 5f bd 7e e9 a5 3b cd 58 01 3e ba 7a 6a bd
       -0.054635905 0.005063235 0.12631531 -0.057245947
000190 d1 c8 2f 3b d5 8d 5f 3b d7 08 22 3c c6 bc 10 3d
       0.0026822577 0.0034111638 0.009889803 0.03533628
0001a0 41 d4 52 3d 53 53 23 3e c2 01 b9 3c 5e fb 80 3e
       0.051471952 0.15949754 0.022583846 0.25191778
0001b0 10 6b 83 bd 16 50 74 3d 08 3a d4 3b fc d5 43 bd
       -0.06416905 0.05964669 0.0064766444 -0.047811493
0001c0 8d c8 47 bd f1 0b b9 3d f8 2f dd bc 8e b5 3c 3e
       -0.048775245 0.09035481 -0.027000412 0.18428633
0001d0 d1 56 ac bc ee d9 8f bd f1 44 d9 3d a7 f9 1b be
       -0.021037491 -0.07023989 0.10608853 -0.15231954
0001e0 d8 14 a2 3d 41 4d 14 3e 64 7e 02 3e 25 7a ec bd
       0.07914132 0.14482595 0.12743527 -0.11546735
0001f0 1f a6 7f bd dd 9e f3 3c 89 91 47 3d 55 eb 12 3c
       -0.062414285 0.029738838 0.048722778 0.00896724
000200 be 18 b8 3d 43 82 aa bd ec 36 af 3d 27 ee 2c 3d
       0.08989094 -0.08325627 0.085553974 0.042219307
000210 74 c4 27 bb e9 52 dd bd 37 32 01 3e 48 c4 a7 3e
       -0.0025599273 -0.108068295 0.12616812 0.32766938
000220 b6 2c 8d 3e f4 7a 53 be d0 d7 7e 3e 31 c7 6b 3c
       0.27573174 -0.20652372 0.24887013 0.014390753
000230 28 8c 8f 3e 69 87 63 3d c8 f9 f9 3c 77 82 7e 3e
       0.28036618 0.05554906 0.030514613 0.24854456
000240 5c f0 83 bd 4e cc b1 3d 2a a2 af 3d 54 62 b8 3d
       -0.06442329 0.08681546 0.08575852 0.090031296
000250 a3 09 8e 3e 0d e7 e6 bc ec f2 94 3d 70 cc bb 3d
       0.27741727 -0.028186345 0.07272896 0.09169853
000260 e7 37 8c bd fc 2c 49 be 83 34 b7 3d 01 aa a8 3d
       -0.068466 -0.19646066 0.08945563 0.08235551
000270 08 75 8b 3d d2 9c 10 3e 5a b2 46 3d b5 02 40 3e
       0.06809431 0.14122322 0.048509933 0.18751033
000280 7e f6 71 3e 94 5e be bc 8e 87 e5 3d 31 70 62 bb
       0.23629186 -0.023238458 0.11207496 -0.0034551735
000290 49 43 45 bb cc 3e 72 bc 35 96 81 3e 0a e9 b1 3d
       -0.003009992 -0.01478548 0.2530991 0.08687027
0002a0 1b da 68 3d 55 99 a9 bc 40 84 44 bd 69 97 fa bc
       0.056848627 -0.020702997 -0.047977686 -0.030589776
0002b0 4c c8 90 bd 93 5c a2 3d 4d af ff 3d df 6c 75 3e
       -0.070694536 0.079278134 0.12484608 0.23967312
0002c0 f9 d6 23 3d 9e ce d0 3d 24 98 d0 3d 21 82 4f be
       0.039999936 0.10195659 0.101852685 -0.20264484
0002d0 40 97 4c 3e 76 6a 4a 3c 43 fb 14 be fe 32 65 bd
       0.19979572 0.012354484 -0.14548974 -0.055956833
0002e0 bb b0 6e bd c5 09 60 bd 4e ac 5d 3d 2d ae cf 3d
       -0.058274012 -0.054696817 0.0541194 0.10140643
0002f0 12 cc 12 3d 8c 1f 8f bb 44 34 f4 3e fb e0 92 bd
       0.035839148 -0.0043677744 0.47696126 -0.07171818
000300 b0 79 7d 3e 4a a9 b7 3e 90 e2 60 3e 5e ff 0e 3d
       0.24753451 0.35871345 0.21961427 0.034911506
000310 dc a2 87 bc 90 97 e3 3c d6 d4 25 bd 21 24 87 bd
       -0.01655715 0.027782232 -0.04048618 -0.06598688
000320 68 78 3a 3e 19 9d 17 bc 07 34 03 3d 94 b4 0c 3d
       0.18209994 -0.009253764 0.03203204 0.0343519
000330 79 11 2b 3e 91 af 59 3e 98 fa 00 3e 6e d3 5a 3e
       0.16705884 0.2125838 0.12595594 0.21369717
000340 9a 28 3e 3e c4 e0 28 be e3 14 08 3e 9c 4f 06 3e
       0.18570176 -0.16491991 0.13289218 0.13116306
000350 49 27 75 3e 94 73 f6 bd c9 d8 82 3d 18 34 8d 3e
       0.23940767 -0.120337635 0.06389005 0.27578807
000360 0d 73 43 3e ac 63 d3 bc a2 55 62 bd 79 b3 29 3e
       0.19086857 -0.025804363 -0.055257447 0.1657237
000370 ff c6 b1 3d 99 80 49 bd 42 e2 6d bd ed 29 f8 bd
       0.086805336 -0.049194906 -0.058077104 -0.12117372
000380 08 34 15 3e de 15 f0 3d 6a db 16 3e a6 c9 6e bd
       0.1457063 0.11722921 0.14732137 -0.058297776
000390 ca 19 95 3e 82 8b 03 3e 48 cf ba 3c e6 0b 6e 3d
       0.29121238 0.12846187 0.022803918 0.058116816
0003a0 45 16 5e 3d 0b 1d 8e 3d cc 7b bf 3d 76 9b 19 bc
       0.054220457 0.06939133 0.09349784 -0.009375444
0003b0 7f 48 da 3d 3b 1e 11 3d 69 21 93 3d ae 76 69 3d
       0.10658359 0.03542922 0.07184107 0.056997947
0003c0 f8 53 ef 3b 5a 24 8d bd 4e 52 31 3e 2e 98 10 3e
       0.007303711 -0.06891699 0.17316553 0.14120552
0003d0 49 75 f9 3b 56 be 8b 3e b2 7d 95 3e 1d 0e 82 3c
       0.0076128584 0.27293652 0.2919746 0.01587587
0003e0 aa 90 9b 3d 00 27 57 3d b5 da 64 3e 1a 84 49 3d
       0.07595952 0.052527428 0.22349055 0.049198247
0003f0 2d bc e3 bd 45 cf 4c 3d 31 c9 f1 3b 7e e6 21 3e
       -0.11119876 0.050002355 0.00737872 0.15810582

advantage_stream.bias f4 [5]
000000 81 aa 4b 3d 94 78 66 bc 81 01 9d 3d 2f a1 25 3d
       0.049723152 -0.014066834 0.076663025 0.04043692
000010 b9 9e a7 3d
       0.08184571
