Existing_MARL-SimpleSpreadv3/dueling_dqn_models/final_agent_1.pt (torch, 157921 bytes, 7 tensors)

shared_fc.0.weight f4 [256, 18]
0.050405268 -0.38491884 -0.016008181 0.22980516 -0.009681206 0.4026008 -0.06936306 -0.18704969
0.039047223 -0.062876694 -0.22559895 1.706323 0.054398954 0.021915926 -0.14754477 0.043935757
-0.16031711 0.1303375 -0.22171526 -0.19148126 0.32890812 -0.034524396 -0.21114792 -0.25343698
0.06799386 0.16264994 -0.14354694 0.16586849 0.2389574 0.03757458 0.14820074 -0.045429688
0.02367765 -0.10471837 -0.13789761 -0.15759589 -0.10099252 -0.010540932 -0.14118399 0.05203117
-0.05511942 0.022677766 0.13760036 0.076880194 -0.1732745 0.059593223 0.083376996 -0.023396572
0.05030447 -0.1020125 -0.024775716 -0.13085073 -0.14077784 0.07079625 0.0629229 0.03858945
0.1381654 0.11633325 0.043211117 0.04581624 0.012786794 0.0150008155 -0.0033239436 0.08364544
0.013906035 -0.118414745 0.047005698 0.00642028 -0.15129024 0.11120696 0.10631203 0.04686499
0.022134308 -0.06793057 0.29463172 -0.116386004 -0.033397086 -0.26575935 0.08968349 0.036233217
0.3142219 0.023498835 -0.038438823 0.07284565 -0.05131386 0.023423254 0.07859351 -0.1506306
-0.1610584 -0.14050889 0.26932225 -0.07877326 -0.07747448 0.52553236 0.036508735 -0.37282696
-0.27350196 0.06860899 0.06434048 -0.0056902673 -0.016890727 0.79659796 -0.10517971 0.47551987
-0.02719545 -0.21991532 0.090271525 -0.18043353 -0.104695536 -0.17553233 0.34147415 -0.2520504
-0.38077927 0.33641413 -0.17966984 0.30755374 0.16048832 0.33732277 0.2721884 -0.48686752
0.5647628 -0.051427998 0.18910089 -0.0612632 0.090381555 -0.02724881 0.1118084 0.043855637
-0.025278678 -0.005535149 0.67244035 0.79488885 0.0028260248 -0.068254866 -0.20141457 -0.27201378
0.042574797 0.04186099 -0.615781 -0.78738624 -0.10527951 0.22489808 0.10527331 0.016983494
0.17163603 -0.27706212 0.04378552 0.32428715 0.18491344 0.1880767 0.11475152 -0.473423
-0.039409224 0.2352425 0.41740352 0.15331855 -0.18931784 0.45512143 0.011518256 0.11670336
0.00025175718 -0.15364853 0.06543757 0.048679736 0.27962452 0.05318034 -0.053708427 0.040541515
-0.088007174 -0.010188677 0.18072857 0.14360528 0.037130978 0.058266293 0.13412791 -0.117408335
-0.081501774 0.15875417 0.1374338 0.17108586 0.115462385 0.04301639 0.37388235 0.03210832
-0.5350404 -0.32505074 -0.044844545 0.09459516 -0.057405565 0.060698196 0.8531075 0.4658103
-0.17549008 -0.013674209 0.049565732 -0.057105213 -0.037888303 -0.22454074 -0.14396885 -0.060600247
0.25405765 0.0032584192 -0.017031264 -0.17399053 0.08065933 -0.25625986 0.006737823 0.1671172
0.44379354 -0.040119264 -0.24189048 0.2481574 -0.15912442 -0.20894524 -0.048206806 -0.06197854
-0.16479479 -0.5064072 0.030089438 0.06760869 0.025393493 -0.12087917 0.6804909 1.2316027
-0.048585907 -0.04785043 0.03756512 0.032299347 0.07391975 0.02376187 0.19308396 0.18232521
0.20266801 -0.10635656 0.144562 0.07083347 0.06249306 -0.21375234 0.44356012 0.7422755
-0.4864643 -0.38575587 0.13853763 0.019518295 -0.012305658 -0.022048473 0.12035715 0.07524676
0.108956344 -0.033811774 0.08577859 -0.21884714 0.23675664 -0.26619688 0.3513846 -0.23100773
00000000: c175 4e3d 1514 c5be 9723 83bc 0b52 6b3e
00000010: ec9d 1ebc b121 ce3e 380e 8ebd f489 3fbe
00000020: fbef 1f3d 7fc5 80bd 6903 67be cb68 da3f
00000030: 70d1 5e3d 0789 b33c fa15 17be fbf5 333d
00000040: 2b2a 24be 3277 053e 5309 63be aa13 44be
00000050: a566 a83e 7469 0dbd 2937 58be 7ec2 81be
00000060: 5d40 8b3d b58d 263e f8fd 12be 6ed9 293e
00000070: 40b1 743e cee7 193d efc1 173e 7b14 3abd
00000080: a2f7 c13c 9676 d6bd 0835 0dbe d160 21be
00000090: 2bd5 cebd e0b3 2cbc 8992 10be a31e 553d
000000a0: e7c4 61bd b9c6 b93c 1ce7 0c3e 5d73 9d3d
000000b0: df6e 31be 0618 743d 8fc1 aa3d 2baa bfbc
000000c0: 0f0c 4e3d eeeb d0bd 71f6 cabc bcfd 05be
000000d0: 1128 10be a0fd 903d b9dd 803d f90f 1e3d
000000e0: 3b7b 0d3e 2140 ee3d 24fe 303d cfa9 3b3d
000000f0: b47f 513c fbc5 753c 85d6 59bb 4d4e ab3d
00000100: 23d6 633c 6e83 f2bd 0c89 403d 3661 d23b
00000110: d4eb 1abe 7ac0 e33d 1fba d93d 81f5 3f3d
00000120: 0253 b53c 2f1f 8bbd f8d9 963e c95b eebd
00000130: 62cb 08bd 9c11 88be faab b73d 4869 143d
00000140: b1e1 a03e a180 c03c 0772 1dbd 1a30 953d
00000150: 7b2e 52bd 20e2 bf3c a2f5 a03d e83e 1abe
00000160: 7eec 24be 90e1 0fbe 9be4 893e e053 a1bd
00000170: f1aa 9ebd 4a89 063f 2f8a 153d 2de3 bebe
00000180: 7308 8cbe df82 8c3d f1c4 833d 6c75 babb
00000190: 6c5e 8abc d8ed 4b3f 7668 d7bd 5777 f33e
000001a0: fec8 debc 7b31 61be 47e0 b83d 91c3 38be
000001b0: 9d6a d6bd bfbe 33be b3d5 ae3e c00c 81be
000001c0: 80f5 c2be 793e ac3e 5ffb 37be af77 9d3e
000001d0: 0d57 243e 92b5 ac3e 475c 8b3e b346 f9be
000001e0: 4b94 103f 2aa6 52bd aaa3 413e 1fef 7abd
000001f0: f719 b93d e538 dfbc cdfb e43d f8a1 333d
00000200: 3b15 cfbc 3260 b5bb 0d25 2c3f d67d 4b3f
00000210: d434 393b 35c9 8bbd 9f3f 4ebe 6445 8bbe
00000220: e962 2e3d 6e76 2b3d d3a3 1dbf 2592 49bf
00000230: c99c d7bd af4b 663e 8899 d73d f820 8b3c
00000240: 5bc1 2f3e 16db 8dbe 7258 333d f708 a63e
00000250: f359 3d3e 2e97 403e d802 eb3d 8064 f2be
00000260: 916b 21bd 69e3 703e eab5 d53e 8aff 1c3e
00000270: 89dc 41be ad05 e93e 11b7 3c3c 2c02 ef3d
00000280: 47fe 8339 0a56 1dbe 2204 863d 6764 473d
00000290: f22a 8f3e a1d3 593d 5efd 5bbd dc0e 263d
000002a0: 1b3d b4bd 69ee 26bc e910 393e 430d 133e
000002b0: a716 183d a3a8 6e3d d458 093e c873 f0bd
000002c0: 67ea a6bd 7490 223e 72bb 0c3e 2231 2f3e
000002d0: 8b77 ec3d f431 303d 826d bf3e 0484 033d
000002e0: 68f8 08bf 0d6d a6be eaae 37bd 1bbb c13d
000002f0: 1922 6bbd ac9e 783d 4165 5a3f b07e ee3e
00000300: acb3 33be ca09 60bc 7005 4b3d 28e7 69bd
00000310: c430 1bbd 02ee 65be 926c 13be f737 78bd
00000320: d813 823e 348b 553b 2685 8bbc 932a 32be
00000330: b830 a53d 7e34 83be f5c8 dc3b c520 2b3e
00000340: e838 e33e 1954 24bd 23b2 77be f91c 7e3e
00000350: 83f1 22be bef5 55be 8074 45bd 36dd 7dbd
00000360: f7bf 28be e7a3 01bf 207e f63c 6d76 8a3d
00000370: 0406 d03c 808f f7bd a734 2e3f 28a5 9d3f
00000380: 0402 47bd d0fe 43bd e2dd 193d 524c 043d
00000390: 3d63 973d 41a8 c23c cdb7 453e 76b3 3a3e
000003a0: 3488 4f3e 78d1 d9bd 1008 143e 2311 913d
000003b0: b9f8 7f3d e5e1 5abe 501a e33e c405 3e3f
000003c0: d911 f9be cb81 c5be cfdc 0d3e d5e4 9f3c
000003d0: ac9d 49bc 009f b4bc cf7d f63d f91a 9a3d
000003e0: 8124 df3d 377e 0abd afac af3d 7719 60be
000003f0: 5570 723e f54a 88be afe8 b33e 4a8d 6cbe

shared_fc.0.bias f4 [256]
-0.058595028 -1.2245064 -0.9575245 -0.69903964 -0.89815223 -1.0274922 -1.0091039 -0.17835133
-0.8503446 -1.0990694 -0.81173235 -0.9826911 0.15261239 -0.22286199 -0.7386402 -0.6825511
-1.1416758 -1.0126452 -0.624494 -1.2287742 -0.98964566 -0.9414609 -1.0055805 -0.8913699
-1.0561467 -0.7438969 -1.0854312 -0.2386053 -0.88144463 -0.92581475 -0.99685216 -1.1240246
-0.7287782 -1.1092834 -1.1105937 -0.8844433 -1.0314676 -0.7615801 -1.0080221 -1.0417027
-1.19295 -0.4526294 -0.74650407 -0.6037966 -0.18521082 -0.21344478 -0.80996376 -0.08079851
-1.0990562 -0.079635784 -0.80009407 -0.8568698 -0.13131848 -0.13054036 -1.0680603 -1.0278467
-0.11709684 -1.1922677 -0.78319067 -0.9788371 -0.6872353 -1.003343 -1.1433375 -0.52438396
-0.8242292 -1.124489 -0.051401317 -1.0546547 -0.78506595 -0.7115142 -1.156764 -0.8685984
-1.0160565 -1.0907489 -1.171129 0.0069913315 -0.12209706 -1.0644531 -1.1090455 -0.90107775
-1.1715533 -1.0795876 -0.16995679 -1.043608 -0.81505704 -0.8289889 -0.20215303 -1.0564419
-0.73932654 -0.9151834 -1.1407855 -1.0277784 -0.47603038 -0.7838609 -0.70750177 -1.113574
-0.815206 -0.9143731 -1.014458 -0.78943735 -0.12621716 -1.1110203 -0.09617386 -0.9660124
-0.18775603 -0.63275254 -0.63227457 -0.19608021 -0.8085231 -0.7915903 -0.7639631 -0.94317406
-0.15998545 -1.1945732 -1.044427 -0.9677052 -0.626919 -0.6005966 -0.6301964 -1.1451505
-1.2443466 -1.2205493 -0.18461938 -0.64541256 -0.9030683 -0.6057979 -0.53473884 -0.9069135
-0.08599663 -0.1849739 -0.096588425 -0.29475558 -0.8911308 -1.0706303 -0.6510872 -1.1149783
-0.20191962 -0.03217153 -1.020491 -0.1194512 -1.0474684 -0.8551552 -1.0857373 -1.0349983
-1.197587 -1.0355545 -0.72749496 -1.1695888 -1.063746 -0.14498428 -0.8248134 -0.8225199
-0.07205285 -1.1708038 -0.9097905 -0.10257473 -0.003560635 -0.64979434 -0.12919149 -0.89574736
-0.75999784 -1.1466346 -1.0768241 -1.2049485 -0.8241947 -0.9921953 -1.0420827 -0.73887765
-0.94504714 -0.8508496 -0.14576805 -1.1977656 -1.0960937 -0.9784909 -0.8996754 -0.0068221507
-0.15068105 -1.1457732 -0.932023 -0.89189786 -1.0522689 -0.89871424 -0.17057551 -1.1320885
-0.08595567 -1.0895168 -0.9820256 -0.8966132 -0.9062813 -0.98231554 -1.1136482 -1.1331658
-0.90602857 -1.0964227 -0.12786101 -0.9277788 0.17974557 -1.0031496 -0.9942368 -0.9723435
-0.15114462 -0.1826506 -0.9622259 -0.49246898 -0.686754 -0.8319596 -0.77623934 -0.95003766
-0.98171043 -0.91776544 -0.7361324 -0.64594567 -1.0928718 -0.9588369 0.014619429 -0.7930321
-0.87927353 -0.8508027 -0.9188339 -1.1130685 -0.19502264 -0.9789801 -0.9539542 -0.8448635
-0.08327543 -0.9026712 -1.1518674 -1.0337288 -1.1874945 -0.81476444 -1.2440525 -0.8099496
-0.86100364 -0.44222105 -0.5539988 -0.75854754 -0.108741306 -1.0950001 -0.8918658 -1.2591732
-0.8332617 -1.153077 -0.8363322 -1.1670198 -1.0528424 -0.8231992 -0.89129704 -1.1847755
-1.0866168 -0.6884765 -0.12367289 -0.91446495 -1.004078 -0.815089 -1.114458 -0.06981143
00000000: 5701 70bd a0bc 9cbf 5320 75bf 43f4 32bf
00000010: 4eed 65bf dd84 83bf 512a 81bf bba1 36be
00000020: 2fb0 59bf 4eae 8cbf b1cd 4fbf a591 7bbf
00000030: 6c46 1c3e ef35 64be 8617 3dbf abbb 2ebf
00000040: 6f22 92bf 5c9e 81bf d7de 1fbf 7948 9dbf
00000050: 6b59 7dbf 9503 71bf ddb6 80bf d130 64bf
00000060: d12f 87bf 0770 3ebf 69ef 8abf f354 74be
00000070: 5ba6 61bf 3202 6dbf b431 7fbf 0ae0 8fbf
00000080: 3591 3abf 00fd 8dbf ef27 8ebf e06a 62bf
00000090: 2107 84bf eaf6 42bf de06 81bf 8456 85bf
000000a0: 96b2 98bf 0abf e7be e41a 3fbf 6a92 1abf
000000b0: e8a7 3dbe 4591 5abe c959 4fbf b079 a5bd
000000c0: e0ad 8cbf 1618 a3bd f7d2 4cbf d25b 5bbf
000000d0: 5a78 06be 5fac 05be 33b6 88bf 7b90 83bf
000000e0: 78d0 efbd 3a9c 98bf 2f7f 48bf 1195 7abf
000000f0: a7ee 2fbf 8b6d 80bf e258 92bf 073e 06bf
00000100: af00 53bf 41ef 8fbf 308a 52bd edfe 86bf
00000110: 15fa 48bf cb25 36bf d810 94bf 775c 5ebf
00000120: 240e 82bf a99d 8bbf 8ee7 95bf 8a17 e53b
00000130: 060e fabd 0040 88bf 34f5 8dbf 08ad 66bf
00000140: 75f5 95bf ed2f 8abf 2709 2ebe f294 85bf
00000150: 94a7 50bf 9e38 54bf 3401 4fbe 7d39 87bf
00000160: 8144 3dbf 7649 6abf 4205 92bf 3e8e 83bf
00000170: 41ba f3be 1cab 48bf d61e 35bf 9889 8ebf
00000180: 57b1 50bf 5b14 6abf c2d9 81bf 9118 4abf
00000190: 123f 01be ea35 8ebf cdf6 c4bd 974c 77bf
000001a0: 1e43 40be 12fc 21bf bfdc 21bf 40c9 48be
000001b0: 5ffb 4ebf a9a5 4abf 1693 43bf db73 71bf
000001c0: 3ad3 23be c6e7 98bf c9af 85bf 87bb 77bf
000001d0: c37d 20bf b3c0 19bf 8d54 21bf 4b94 92bf
000001e0: c046 9fbf f63a 9cbf dd0c 3dbe c239 25bf
000001f0: 7c2f 67bf 9215 1bbf a5e4 08bf 7c2b 68bf
00000200: 001f b0bd cc69 3dbe 27d0 c5bd 34ea 96be
00000210: 2621 64bf 6a0a 89bf a7ad 26bf 9cb7 8ebf
00000220: 04c4 4ebe 4bc6 03bd 739f 82bf d5a2 f4bd
00000230: 7213 86bf 74eb 5abf 71f9 8abf d37a 84bf
00000240: 884a 99bf 0d8d 84bf 1c3d 3abf 16b5 95bf
00000250: d428 88bf c276 14be f926 53bf aa90 52bf
00000260: 7290 93bd e6dc 95bf 08e8 68bf b312 d2bd
00000270: 8b59 69bb ec58 26bf c64a 04be b34f 65bf
00000280: 388f 42bf ecc4 92bf 5fd5 89bf c13b 9abf
00000290: 6dfe 52bf 8300 7ebf f762 85bf 1627 3dbf
000002a0: 9cee 71bf 48d1 59bf 3844 15be 6250 99bf
000002b0: cc4c 8cbf 617e 7abf 2151 66bf 598c dfbb
000002c0: 224c 1abe b2a8 92bf 0f99 6ebf 6b53 64bf
000002d0: bfb0 86bf 2312 66bf 59ab 2ebe 47e8 90bf
000002e0: 8709 b0bd 4975 8bbf 0866 7bbf 7188 65bf
000002f0: 0d02 68bf 0879 7bbf 068c 8ebf 940b 91bf
00000300: 7df1 67bf 9457 8cbf ffed 02be e982 6dbf
00000310: 390f 383e 3567 80bf 4e86 7ebf 81eb 78bf
00000320: a8c5 1abe c208 3bbe 7054 76bf e524 fcbe
00000330: 1ccf 2fbf 4efb 54bf 9fb7 46bf ab35 73bf
00000340: 6051 7bbf adf2 6abf 2c73 3cbf b25c 25bf
00000350: 39e3 8bbf 5676 75bf 5486 6f3c 2704 4bbf
00000360: 1218 61bf 35ce 59bf b338 6bbf 0779 8ebf
00000370: 04b4 47be 719e 7abf 5836 74bf f948 58bf
00000380: 4f8c aabd 7615 67bf 6470 93bf 3a51 84bf
00000390: d2ff 97bf 6794 50bf 1d3d 9fbf db58 4fbf
000003a0: bc6a 5cbf cc6a e2be ded2 0dbf 2c30 42bf
000003b0: c3b3 debd f728 8cbf 5151 64bf 962c a1bf
000003c0: a450 55bf 0798 93bf de19 56bf e860 95bf
000003d0: 8ac3 86bf 2fbd 52bf 0b2c 64bf b9a6 97bf
000003e0: 4216 8bbf ff3f 30bf 3648 fdbd 601a 6abf
000003f0: a185 80bf aca9 50bf 8fa6 8ebf 4cf9 8ebd

shared_fc.2.weight f4 [128, 256]
0.10854906 -0.12019305 -0.19768734 0.06453848 -0.27183017 -0.16994812 0.2077112 -0.19408767
0.14052933 -0.052010573 -0.16102047 -0.024397647 -0.14459737 -0.065456815 -0.051848687 0.21292628
-0.43804756 0.59030646 -0.2491309 0.019726826 -0.37460592 -0.30497593 -0.0065855165 0.0421825
-0.31124437 0.14013086 -0.0063802437 -0.037633788 0.13056906 -0.53080136 0.531536 -0.3278629
-0.022976823 -0.012270155 -0.89764637 -0.3409731 -0.22640629 -0.28565243 -0.6637489 -0.16356881
0.5734369 -0.17388341 0.16673979 0.19090118 0.046568792 -0.16085586 0.2624503 -0.060932577
0.019048693 0.17438962 -0.26658398 0.27583593 0.2373846 1.2263315 -0.3939099 -0.4945828
-1.2797428 -0.04962084 -0.0725267 -0.019374738 0.108606495 0.19504523 -0.12514825 -0.033192802
-0.18833223 -0.29824358 -0.023167364 -0.15147932 0.3625579 0.07573391 0.12675174 0.07298963
0.21442911 -0.081736326 -0.7821869 0.016796438 0.040025532 -0.18615107 0.22418213 -0.0004215955
0.15619354 -0.19907239 0.09606006 -0.3000504 -0.39040524 -0.26881742 0.008602819 0.36044008
0.14675626 -0.086270995 -0.12724724 -0.20192315 -0.6413169 -0.07478235 -0.12764156 -0.14414085
-0.14977911 -0.14592864 -0.22809762 0.015584768 -0.045842603 -0.25505367 0.23501506 0.17050552
-0.13298215 0.10994637 -0.03192696 0.12080709 -0.32905087 0.09420294 0.20242968 0.025404591
-0.082293 -0.057603233 0.06563821 -0.0013523698 -0.21023756 -0.15617323 0.057982568 -0.38403895
0.4472923 0.23307288 -0.11480925 -0.27876338 -0.3832647 -0.027838293 0.00023357861 -0.013225893
-0.42256433 0.052495237 1.1307659 -0.10519922 -0.1594359 -0.025881374 -0.04898129 -0.2878907
0.106146775 0.04810843 0.30980134 0.0031114141 -0.54257697 -0.38637832 -0.23835371 -0.29315966
-0.1660608 -0.14672433 -0.3316051 0.23146889 0.2672638 0.054638546 -0.48789966 -0.51929826
-0.16112211 0.018739378 -0.32384342 -0.084091455 0.21708027 -0.195142 1.3440813 0.021716561
0.072996914 -0.029760277 -0.39882734 0.3199773 0.09298454 -0.04708704 0.036619537 -0.27958277
0.4183556 -0.4182106 0.07565034 -0.04834788 -0.38429055 -0.29602298 -0.20458572 -1.2645928
0.3260516 -0.08266702 -0.27934673 -0.17387639 -0.13534293 -0.30037728 0.10673322 0.34297386
0.10678069 -0.5033082 0.2913983 -0.5993324 -0.14600988 -0.036334075 -0.087859586 0.39563075
-0.009366178 -0.13942112 0.056032814 0.19855452 -1.0578617 0.0035776403 -0.0750044 0.057382982
1.1363474 0.33691433 0.3709456 0.038148273 -0.4129939 -0.7843785 -0.4605435 -0.39014965
-0.32997528 -0.15047543 0.20858291 -0.091037646 -0.15151836 -0.10243939 0.42845565 -0.15884134
0.14972714 0.030702593 -0.20551817 -0.3173775 -0.26148728 -0.066487305 -0.36307102 0.13955209
0.17806473 -0.1546237 -0.51860964 -0.048398763 0.10586784 -0.028436381 0.07189726 -0.06849308
0.22778012 0.098998554 -0.39625442 -0.099883616 1.2352139 -0.020382 -0.18718322 -0.39161158
0.044022344 0.12317489 -0.15537745 0.15042618 -0.0859544 -0.101915374 -0.0351816 0.067236654
-0.30812967 0.50875366 -0.05353192 -0.060874026 -0.07763959 -0.07556254 -0.44284242 -0.12405259
00000000: f84e de3d c627 f6bd 8d6e 4abe c02c 843d
00000010: 532d 8bbe e106 2ebe 3fb2 543e ebbe 46be
00000020: ece6 0f3e 0a09 55bd 8de2 24be 93dd c7bc
00000030: 5511 14be 390e 86bd 4a5f 54bd 5909 5a3e
00000040: c547 e0be 531e 173f 2c1c 7fbe 279a a13c
00000050: 59cc bfbe ce25 9cbe 51cb d7bb 8fc7 2c3d
00000060: 6c5b 9fbe 777e 0f3e 5d11 d1bb e325 1abd
00000070: e5b3 053e 99e2 07bf be12 083f a5dd a7be
00000080: e439 bcbc c308 49bc 27cc 65bf 0794 aebe
00000090: 0dd7 67be 0941 92be 73eb 29bf 957e 27be
000000a0: c3cc 123f 7e0e 32be d6bd 2a3e 997b 433e
000000b0: ebbe 3e3d 66b7 24be e35f 863e 7094 79bd
000000c0: 010c 9c3c 3193 323e b27d 88be 5e3a 8d3e
000000d0: f314 733e 6ef8 9c3f 8fae c9be f539 fdbe
000000e0: 9dce a3bf 393f 4bbd e188 94bd c5b7 9ebc
000000f0: 156d de3d f0b9 473e dd26 00be 2df5 07bd
00000100: 2ada 40be 62b3 98be 7cc9 bdbc 651d 1bbe
00000110: 30a1 b93e 611a 9b3d 35cb 013e 967b 953d
00000120: 4e93 5b3e 6065 a7bd 673d 48bf af98 893c
00000130: d0f1 233d 639e 3ebe 0090 653e 9709 ddb9
00000140: 33f1 1f3e a2d9 4bbe 23bb c43d 35a0 99be
00000150: 32e3 c7be 70a2 89be d7f2 0c3c 9a8b b83e
00000160: 4647 163e d9ae b0bd 1a4d 02be f1c4 4ebe
00000170: 582d 24bf 7d27 99bd 78b4 02be a999 13be
00000180: b25f 19be 516e 15be 6c92 69be 4157 7f3c
00000190: 74c5 3bbd 6596 82be caa7 703e 0099 2e3e
000001a0: 792c 08be 902b e13d d8c5 02bd b569 f73d
000001b0: 5b79 a8be 79ed c03d ba49 4f3e 4a1d d03c
000001c0: 3b89 a8bd 5ef1 6bbd 536d 863d 0042 b1ba
000001d0: 8448 57be e0eb 1fbe 217f 6d3d c1a0 c4be
000001e0: 7f03 e53e a8aa 6e3e 1d21 ebbd 13ba 8ebe
000001f0: 453b c4be 220d e4bc c8ec 7439 6ab1 58bc
00000200: 5a5a d8be 3f05 573d f0bc 903f b072 d7bd
00000210: 2a43 23be 2d05 d4bc 9ba0 48bd 6966 93be
00000220: 7b63 d93d 580d 453d 489e 9e3e dee8 4b3b
00000230: 53e6 0abf 61d3 c5be ff12 74be 0619 96be
00000240: d80b 2abe e73e 16be 25c8 a9be 2e06 6d3e
00000250: cdd6 883e abcc 5f3d fccd f9be bbf0 04bf
00000260: 32fd 24be 5383 993c cece a5be 2438 acbd
00000270: 4a4a 5e3e 4ed3 47be db0a ac3f eee6 b13c
00000280: 687f 953d d3cb f3bc 1933 ccbe 11d4 a33e
00000290: ae6e be3d 57de 40bd 5efe 153d 7925 8fbe
000002a0: b532 d63e b31f d6be 91ee 9a3d 6d08 46bd
000002b0: bbc1 c4be 5390 97be eb7e 51be 2dde a1bf
000002c0: 3cf0 a63e 544d a9bd 8906 8fbe a70c 32be
000002d0: 5697 0abe 0dcb 99be f296 da3d 459a af3e
000002e0: d6af da3d ced8 00bf 2832 953e d96d 19bf
000002f0: 9d83 15be 0ad3 14bd baef b3bd 1d90 ca3e
00000300: 9974 19bc 69c4 0ebe aa82 653d e051 4b3e
00000310: 0368 87bf d876 6a3b e89b 99bd 6b0a 6b3d
00000320: d573 913f 0980 ac3e 95ec bd3e 5d41 1c3d
00000330: f073 d3be 08cd 48bf 5ccc ebbe b2c1 c7be
00000340: 85f2 a8be 3b16 1abe c296 553e f271 babd
00000350: a127 1bbe becb d1bd 8a5e db3e 4ea7 22be
00000360: 1252 193e 0184 fb3c 5b73 52be 4e7f a2be
00000370: a9e1 85be 7f2a 88bd 72e4 b9be bee6 0e3e
00000380: 9a56 363e ad55 1ebe 9ac3 04bf c83d 46bd
00000390: 3dd1 d83d 6af3 e8bc df3e 933d 1a46 8cbd
000003a0: 313f 693e c1bf ca3d dce1 cabe c88f ccbd
000003b0: 7d1b 9e3f 27f8 a6bc f5ac 3fbe 5081 c8be
000003c0: c650 343d 1e43 fc3d 441b 1fbe 5209 1a3e
000003d0: dc08 b0bd 02b9 d0bd 951a 10bd 5fb3 893d
000003e0: 2cc3 9dbe ae3d 023f 4944 5bbd 0b57 79bd
000003f0: 8101 9fbd 88c0 9abd 3ebc e2be 490f febd

shared_fc.2.bias f4 [128]
0.27622035 -0.06305768 1.157225 -0.5584797 0.0531004 -0.073708266 0.09457663 1.2212974
-0.40697142 -0.1078224 -0.09295015 -0.13405037 -0.47288355 -0.07870846 -0.6188717 -0.03179954
-0.12863435 -0.49454767 -0.12720717 -0.05627556 -0.14659584 0.5527757 -0.293035 -0.17088701
-0.023743127 -0.1516936 -0.029753039 0.16864452 -0.1608839 -0.30291665 -0.28891987 0.4837741
-0.016264362 -0.26815748 -0.1004398 0.23121415 0.76248735 -0.6811737 -0.015909975 -0.049741477
-0.0934844 0.1510624 -0.11645924 0.25684026 -0.017273813 0.1576096 0.013045776 -0.11409361
-0.03245535 0.29353845 -0.5525997 -0.14038634 0.0080769425 -0.10879761 -0.32585716 1.4218351
-0.04558623 0.3703601 -0.22740579 -0.37674567 -0.091091044 -0.16000527 -0.12847865 -0.06866585
-0.07881511 -0.041236002 -0.042790137 -0.30205628 -0.10052841 -0.23618774 0.47653458 -0.058136247
-0.2408855 -0.6687329 -0.046205133 -0.26384202 -0.29141456 -0.10020547 0.10874825 -0.2983273
0.55263895 -0.3057123 -0.34934154 -0.22979043 0.8074989 -0.32970783 -0.09127103 -0.17251831
-0.08881031 -0.0005586122 0.49786347 -0.18812525 -0.509911 -0.05510496 -0.29033428 -0.08970339
-0.41128194 0.86871606 -0.29049143 -0.1218922 -0.09375116 -0.44392183 -0.05448273 -0.08787055
-0.23923501 1.3392546 -0.028214838 -0.072562315 1.3394617 0.6167244 -0.076215275 -0.14579965
-0.3644429 -0.081876814 -0.4360334 -0.12167974 -0.027703278 0.01777439 -0.6058777 1.3302566
-0.06167597 -0.42338222 -0.20864059 0.0010807546 -0.13205217 1.148194 -0.07822508 -0.10899568
00000000: c16c 8d3e 6324 81bd f31f 943f 87f8 0ebf
00000010: ce7f 593d 5cf4 96bd 64b1 c13d 7953 9c3f
00000020: 8f5e d0be fed1 dcbd a65c bebd 8044 09be
00000030: cb1d f2be e731 a1bd 606e 1ebf 3c40 02bd
00000040: b9b8 03be 5a35 fdbe 9942 02be 3481 66bd
00000050: 381d 16be b582 0d3f af08 96be 01fd 2ebe
00000060: f280 c2bc 9155 1bbe a5bc f3bc 26b1 2c3e
00000070: c0be 24be e417 9bbe 4eed 93be 3db1 f73e
00000080: d73c 85bc f04b 89be 62b3 cdbd 67c3 6c3e
00000090: 5f32 433f 6661 2ebf a355 82bc b8bd 4bbd
000000a0: c074 bfbd 1ab0 1a3e 2f82 eebd 9180 833e
000000b0: d081 8dbc 6964 213e f3bd 553c e9a9 e9bd
000000c0: e7ef 04bd ac4a 963e 2d77 0dbf 70c1 0fbe
000000d0: 2755 043c 48d1 debd c0d6 a6be b1fe b53f
000000e0: a0b8 3abd d79f bd3e 10dd 68be cfe4 c0be
000000f0: f18d babd 6cd8 23be e88f 03be aea0 8cbd
00000100: d169 a1bd 15e7 28bd b644 2fbd 1fa7 9abe
00000110: d7e1 cdbd 33db 71be 57fc f33e 4620 6ebd
00000120: b0aa 76be 1432 2bbf 9841 3dbd 4d16 87be
00000130: 4a34 95be 8738 cdbd 67b7 de3d 5bbe 98be
00000140: bf79 0d3f 5386 9cbe e5dc b2be 2f4e 6bbe
00000150: 3fb8 4e3f 77cf a8be 4eec babd a4a8 30be
00000160: 2ee2 b5bd d56f 12ba f6e7 fe3e e8a3 40be
00000170: 8789 02bf bdb5 61bd b2a6 94be 69b6 b7bd
00000180: 8c93 d2be 2d64 5e3f 4bbb 94be 9ea2 f9bd
00000190: 9c00 c0bd b949 e3be 4829 5fbd 7af5 b3bd
000001a0: 06fa 74be b26c ab3f ce22 e7bc 8d9b 94bd
000001b0: 7b73 ab3f a6e1 1d3f c116 9cbd 814c 15be
000001c0: 4398 babe 08af a7bd c53f dfbe 3a33 f9bd
000001d0: fcf1 e2bc 999b 913c cd1a 1bbf d945 aa3f
000001e0: f19f 7cbd 8ec5 d8be e1a5 55be 1ba8 8d3a
000001f0: af38 07be 05f8 923f 7934 a0bd 2139 dfbd

value_stream.weight f4 [1, 128]
0.3377867 0.059553128 -0.3558883 0.44486347 -0.11877441 -0.18054943 0.38610896 -0.26939985
0.32337192 0.0058653294 -0.0073442794 0.17506535 -0.032725647 0.051426843 -0.112885356 0.026730964
-0.15059842 0.19161415 0.04994297 0.072495244 -0.12169451 -0.14052436 0.3953455 -0.18359087
0.004303603 0.043455582 -0.33761683 -0.4094993 -0.002488147 0.4563111 0.4271177 -0.10940862
0.04578585 0.104270704 -0.05592437 0.30781865 -0.24101134 0.13236602 0.0110737495 -0.2131361
0.07129325 0.2554383 -0.018729705 -0.23789787 -0.043109003 0.21231286 -0.07796606 -0.45283794
-0.0014789504 -0.18138222 0.55030316 0.35508275 0.017661389 0.018788144 0.10734257 -0.32993233
0.2235497 -0.049121913 0.1985892 -0.36655575 0.0581941 -0.17601347 0.086891904 0.026111864
-0.020420311 0.039540052 -0.021635942 0.43151784 -0.3592662 -0.052275673 -0.10775092 0.22996178
0.1967526 0.5095481 -0.16370645 -0.26440004 0.042317536 0.03280557 -0.1541682 -0.019356558
-0.3741242 0.19605608 -0.11912208 0.2356095 -0.243222 -0.26361296 0.030815214 -0.17364343
0.0042166696 0.050287805 -0.34010166 -0.052355956 -0.15159523 -0.01540446 0.34765226 0.0035805164
-0.17578386 -0.18141402 -0.27306658 -0.04020545 0.05686618 -0.070948884 0.12245153 -0.112030834
0.33103698 -0.393673 -0.42172387 0.073946 -0.34839153 -0.32050186 0.1808854 -0.14071688
-0.19923154 0.01999642 0.2854085 0.12845968 -0.0069151856 -0.19885103 0.2588295 -0.28675163
0.05906669 0.26964316 0.18100552 -0.06861995 -0.07449075 -0.4270512 0.023003517 0.011212893
00000000: 61f2 ac3e fbed 733d fe36 b6be 25c5 e33e
00000010: ff3f f3bd f3e1 38be 13b0 c53e c7ee 89be
00000020: 0191 a53e f331 c03b 48a8 f0bb 5544 333e
00000030: 540b 06bd f4a4 523d 7030 e7bd e5fa da3c
00000040: 7936 1abe 8036 443e 0091 4c3d 6378 943d
00000050: f93a f9bd 9ee5 0fbe ba6a ca3e 3fff 3bbe
00000060: 3d05 8d3b 7bfe 313d 1ddc acbe e4a9 d1be
00000070: 2e10 23bb 9ca1 e93e 2caf da3e a011 e0bd
00000080: f289 3b3d e18b d53d f410 65bd 689a 9d3e
00000090: adcb 76be f58a 073e ac6e 353c 5a40 5abe
000000a0: 3202 923d cfc8 823e 0a6f 99bc 809b 73be
000000b0: 1193 30bd 8b68 593e abac 9fbd 60da e7be
000000c0: 57d9 c1ba 43bc 39be abe0 0c3f 68cd b53e
000000d0: 9eae 903c 98e9 993c 6cd6 db3d e4ec a8be
000000e0: 36ea 643e 0f34 49bd f85a 4b3e 32ad bbbe
000000f0: f05c 6e3d e03c 34be 62f4 b13d 8ce8 d53c
00000100: 7f48 a7bc c0f4 213d dc3d b1bc e8ef dc3e
00000110: bdf1 b7be 041f 56bd 84ac dcbd 1a7b 6b3e
00000120: 8379 493e bf71 023f aaa2 27be 715f 87be
00000130: 2755 2d3d 225f 063d 45de 1dbe a591 9ebc
00000140: 358d bfbe edc2 483e 47f6 f3bd 9e43 713e
00000150: 300f 79be 47f8 86be 3070 fc3c 95cf 31be
00000160: fd2b 8a3b 96fa 4d3d ce21 aebe 3373 56bd
00000170: c83b 1bbe fd62 7cbc 7aff b13e 19a7 6a3b
00000180: af00 34be 99c4 39be 62cf 8bbe 78ae 24bd
00000190: 83ec 683d a64d 91bd dec7 fa3d 6c70 e5bd
000001a0: ae7d a93e 828f c9be 31ec d7be 0071 973d
000001b0: 6060 b2be d218 a4be 063a 393e 1618 10be
000001c0: 5a03 4cbe 88cf a33c 1021 923e ef8a 033e
000001d0: c898 e2bb 9b9f 4bbe 4d85 843e 1cd1 92be
000001e0: eaef 713d ab0e 8a3e 8359 393e 9e88 8cbd
000001f0: 9b8e 98bd 74a6 dabe df71 bc3c 48b6 373c

advantage_stream.weight f4 [5, 128]
0.084261596 -0.029627994 0.20278284 0.15756994 -0.0021162604 0.047822822 0.10491135 0.05807173
-0.008186192 -0.08266619 -0.028801952 0.12353216 0.19204135 0.011161579 0.17597078 0.05677095
0.035388775 0.20541742 -0.08542649 -0.07780075 0.16245921 0.21189237 -0.13253589 0.00961423
-0.02566686 0.11673427 0.2754872 0.050043896 0.08136946 0.06741887 0.1393842 0.0039856704
0.0342547 -0.17197372 -0.041234486 -0.43235555 0.10529087 0.12261704 -0.008577064 0.13174054
-0.12370389 0.010149028 -0.047478456 0.19632554 -0.031422406 -0.09109129 0.022066524 0.20265517
-0.018514004 0.07932732 0.1202113 -0.028502287 -0.06861216 0.022424204 0.21154244 -0.029576695
-0.123244666 0.04650847 -0.120717 0.04413266 0.015727112 -0.08101798 0.020674571 0.102475666
0.057383914 -0.03140413 0.03425238 0.15026967 -0.10034742 -0.06316398 0.07792812 -0.11621744
0.06785584 0.25545064 -0.024125325 -0.12188165 0.2008285 0.08127761 -0.14506774 0.03554943
0.002569125 -0.008508799 0.23545095 0.13779238 0.07573651 -0.0596577 0.028077416 0.18319382
0.09083581 -0.03381451 0.023829564 0.063914016 0.13898756 0.02782301 -0.1541174 0.058099207
-0.058929 -0.21289368 0.18985444 0.030837381 0.03239351 0.15459877 -0.12266206 -0.03154511
0.14069508 -0.004557809 0.18411043 -0.024894519 0.11866209 0.08591036 -0.1415698 0.09447792
0.21426567 -0.01631213 0.18485856 -0.051918708 0.009530332 -0.090778455 0.2088446 0.14354555
-0.052439805 0.07447553 0.13094455 0.10344704 0.23231483 0.054313842 0.0047266856 -0.031090954
0.049227994 0.070699885 0.03469063 0.1361227 -0.06985826 0.14816739 0.09216693 0.11832223
-0.10085979 -0.0026282168 0.03721441 0.3743811 0.14248791 -0.0022155119 0.1668409 -0.01447472
0.04619252 0.10958822 0.08392082 -0.0032634616 0.07110131 0.07955206 0.46421504 -0.027692398
0.024434933 -0.055782318 0.07389783 0.11560853 0.053254787 0.055862643 -0.17899647 0.13145916
-0.051078923 -0.0647973 -0.05266784 0.014605008 0.2829454 0.10960689 0.016920533 -0.1419344
0.014392538 -0.0023484263 0.044561207 0.36230674 0.10551976 -0.017150218 0.055457246 0.025999457
0.046549566 0.06483941 0.113161154 -0.036711577 0.05234535 0.122499645 0.07784097 0.007039712
-0.29817903 0.11132402 0.06664377 0.25414455 -0.06799124 -0.091180235 0.18608366 -0.041327205
0.054759208 -0.06460488 -0.033267234 0.15608808 0.1409063 -0.034244 0.08909722 -0.04224881
-0.017692039 0.1282867 0.03454314 0.076742 0.02344425 -0.05179609 -0.0015714112 -0.088599086
-0.007909604 0.06944975 0.083992265 -0.16735893 -0.25015953 0.13648434 0.08445692 0.09841034
-0.021051843 0.04208204 0.0664151 -0.1087782 0.07046929 0.0335306 0.03669003 0.0041957605
-0.057539072 -0.17983583 0.16051482 -0.11606396 0.03456775 0.05915361 -0.08748671 -0.11728897
0.024289012 0.14398392 0.15064748 0.00049034954 0.21823852 0.30732843 -0.05026131 0.10642618
-0.038246363 -0.011004143 0.16786657 0.17034827 -0.015573079 0.27919158 0.25241804 0.22742954
-0.05452496 -0.07432332 -0.03600625 0.08028428 0.08855747 0.12530223 0.020571476 -0.028476702
00000000: 5891 ac3d 68b6 f2bc 4ea6 4f3e 045a 213e
00000010: f5b0 0abb dde1 433d c3db d63d 9fdc 6d3d
00000020: 611f 06bc e44c a9bd 12f2 ebbc 6efe fc3d
00000030: 7da6 443e 0edf 363c af31 343e a888 683d
00000040: d2f3 103d f258 523e 15f4 aebd 0056 9fbd
00000050: b55b 263e 50fa 583e 7db7 07be 0185 1d3c
00000060: 4f43 d2bc 6012 ef3d a90c 8d3e d4fa 4c3d
00000070: 08a5 a63d e812 8a3d bbba 0e3e 3a9a 823b
00000080: a84e 0c3d e119 30be 7ee5 28bd b55d ddbe
00000090: bda2 d73d a51e fb3d d086 0cbc fee6 063e
000000a0: 7758 fdbd 1c48 263c c578 42bd 9009 493e
000000b0: c8b4 00bd 128e babd dbc4 b43c d684 4f3e
000000c0: aeaa 97bc 5d76 a23d 5831 f63d a17d e9bc
000000d0: 8884 8cbd f7b2 b73c 959e 583e d34a f2bc
000000e0: b367 fcbd aa7f 3e3d 793a f7bd 73c4 343d
000000f0: 25d6 803c c1ec a5bd b85d a93c c3de d13d
00000100: 650b 6b3d 9ea1 00bd 394c 0c3d 4be0 193e
00000110: f382 cdbd 1e5c 81bd c798 9f3d 6903 eebd
00000120: 01f8 8a3d 6dca 823e 79a2 c5bc 169d f9bd
00000130: fca5 4d3e e074 a63d a38c 14be 479c 113d
00000140: c45e 283b 7d68 0bbc 0e1a 713e 7219 0d3e
00000150: be1b 9b3d a25b 74bd 9c02 e63c 2997 3b3e
00000160: 2008 ba3d 1581 0abd 3836 c33c 5ae5 823d
00000170: c152 0e3e 15ed e33c f4d0 1dbe 6ff9 6d3d
00000180: 895f 71bd cd00 5abe 3469 423e ad9e fc3c
00000190: 0faf 043d 244f 1e3e 3f36 fbbd 7235 01bd
000001a0: 5f12 103e ac59 95bb 7287 3c3e 97ef cbbc
000001b0: 1c05 f33d c5f1 af3d acf7 10be a47d c13d
000001c0: 7668 5b3e 04a1 85bc 904b 3d3e b6a8 54bd
000001d0: 1c25 1c3c 0eea b9bd 5cdb 553e 9bfd 123e
000001e0: 1fcb 56bd a086 983d 5416 063e 0bdc d33d
000001f0: f0e3 6d3e 3178 5e3d 50e2 9a3b 75b2 febc
00000200: 4ba3 493d 1acb 903d c317 0e3d c063 0b3e
00000210: d911 8fbd 31b9 173e 04c2 bc3d ed52 f23d
00000220: 948f cebd 293e 2cbb 236e 183d e1ae bf3e
00000230: 5ae8 113e 1f32 11bb 57d8 2a3e 6027 6dbc
00000240: 5e34 3d3d ca6f e03d aede ab3d cddf 55bb
00000250: 909d 913d 31ec a23d 98ad ed3e 2bdb e2bc
00000260: c52b c83c 007c 64bd bf57 973d 2ac4 ec3d
00000270: b121 5a3d 3ad0 643d da4a 37be 3b9d 063e
00000280: 2238 51bd 72b4 84bd 3cba 57bd d849 6f3c
00000290: 38de 903e 9479 e03d ee9c 8a3c 4057 11be
000002a0: aece 6b3c 0ee8 19bb d085 363d 4580 b93e
000002b0: be1a d83d 9d7e 8cbc 2327 633d d0fc d43c
000002c0: c2aa 3e3d 86ca 843d 09c1 e73d e15e 16bd
000002d0: 1468 563d 18e1 fa3d 166b 9f3d 62ad e63b
000002e0: ecaa 98be d9fd e33d 877c 883d 3c1f 823e
000002f0: fe3e 8bbd b4bc babd b78c 3e3e b746 29bd
00000300: 314b 603d 904f 84bd 3943 08bd 8ed5 1f3e
00000310: be49 103e 7043 0cbd 9a78 b63d 170d 2dbd
00000320: e5ee 90bc 975d 033e 1c7d 0d3d e92a 9d3d
00000330: 280e c03c 2328 54bd cff7 cdba 7073 b5bd
00000340: 4997 01bc ac3b 8e3d 2304 ac3d 2460 2bbe
00000350: e914 80be 8dc2 0b3e c0f7 ac3d 5c8b c93d
00000360: ea74 acbc 385e 2c3d a404 883d 1bc7 debd
00000370: 3452 903d 6257 093d 4948 163d 977c 893b
00000380: 17ae 6bbd e226 38be ff5d 243e f1b2 edbd
00000390: ea96 0d3d 0e4b 723d 3b2c b3bd 3335 f0bd
000003a0: c0f9 c63c 8570 133e 5543 1a3e cd8a 003a
000003b0: eb79 5f3e 275a 9d3e cede 4dbd f8f5 d93d
000003c0: 38a8 1cbd b94a 34bc 37e5 2b3e c76f 2e3e
000003d0: 3a26 7fbc 33f2 8e3e f03c 813e 4ae3 683e
000003e0: 9155 5fbd d336 98bd 4a7b 13bd 166c a43d
000003f0: 9e5d b53d 3a4f 003e 8385 a83c f947 e9bc

advantage_stream.bias f4 [5]
0.045484956 -0.062061016 0.049637794 -0.01641157 -0.029442523
00000000: 6f4e 3a3d b133 7ebd 0051 4b3d 8f71 86bc
00000010: 7231 f1bc
